images/RRP/prob/x=.75/params.pth (torch, 412117 bytes, 43 tensors)

emb.spatial_conv.weight f4 [2, 1, 2, 1]
-0.5816359 0.5907437 0.4812475 0.5113631
00000000: 17e6 14bf fb3a 173f 1366 f63e b1e8 023f

emb.spatial_conv.bias f4 [2]
-0.14706193 -0.15937749
00000000: 6797 16be da33 23be

emb.feature_extractor.0.weight f4 [16, 1, 1, 50]
-0.08252267 0.018072506 0.06684017 -0.042075984 -0.007545435 0.04020255 0.09032215 0.05808992
-0.060992736 0.02859805 0.02793027 -0.040552627 -0.02084106 -0.014808064 0.0068848906 -0.12344251
-0.025220547 -0.007445105 -0.0051509375 0.04955573 -0.011156585 0.044789243 -0.07384336 0.018538868
0.08759074 -0.033312984 0.026012896 -0.075000405 0.026395375 -0.030689837 0.046411492 -0.056518782
-0.005266125 0.05146495 -0.054383744 -0.10118776 0.14033906 -0.09058172 0.07745403 -0.014908412
-0.04500021 0.04028321 0.07074488 0.047905304 0.0045116283 -0.07433993 -0.010026809 -0.017942023
-0.07646849 0.06310286 0.07953309 0.037934512 0.012982357 -0.028221482 -0.010614961 -0.021644812
0.034773253 -0.036798336 0.0061387485 -0.037904464 0.021260727 0.04405798 -0.017946782 0.021416755
0.018655226 -0.08996413 -0.08641437 0.03965727 -0.003571863 -0.119917475 0.027315095 0.0136218425
0.011189881 0.06955849 -0.020716527 0.010872238 0.054892488 -0.051273216 -0.044465292 0.02327285
-0.07165172 -0.0070581343 -0.055848558 -0.038040064 0.014371544 -0.0068170237 -0.075838044 0.06391723
0.01914632 0.019042665 -0.058927733 0.0007774873 -0.007299094 0.018702626 0.14263222 -0.020184262
-0.0006938497 0.033706114 0.01659348 -0.020217042 -0.064619295 0.11056375 0.053779718 -0.046916474
-0.04780262 0.11512326 -0.062008705 0.026530724 -0.007509297 0.027848275 -0.044164475 -0.017946541
0.04127102 -0.031389754 -0.04363258 -0.034409218 -0.05894633 0.053257786 0.073639154 -0.12519266
-0.040741794 0.113423966 0.08003533 -0.021008126 -0.034362853 0.0834445 0.11906994 -0.056780145
-0.025859365 0.03396632 -0.09550874 0.138587 0.03748546 -0.032140404 -0.055707272 -0.052462254
-0.030571073 0.028856656 0.05287817 -0.048673652 -0.036104396 -0.15067177 -0.055518664 0.006583627
-0.07508378 0.06870523 -0.046525013 0.07303103 -0.07440091 0.05141068 -0.07518413 0.022221059
-0.052489694 -0.034942593 0.08122249 -0.117890865 -0.0046370295 0.01319126 0.07845491 0.024326958
0.121692136 -0.03358417 -0.0039867545 0.0045253867 0.03646776 -0.027226722 0.061005972 -0.016740259
0.02157085 0.055566214 -0.106443726 0.06717416 -0.022917826 0.0826578 0.02779635 0.009531806
0.061551083 -0.04165875 -0.088943206 -0.07303049 -0.0457552 0.015967453 0.08547739 -0.014444669
-0.06517791 -0.14486125 -0.017325545 -0.076250724 0.06466468 0.010197428 0.026355842 0.05561838
-0.02707129 -0.049923643 -0.07277717 0.001086716 0.114383765 0.012190325 -0.07183156 -0.075614974
-1.00478985e-07 -2.2158663e-06 -2.1819194e-07 -1.7624056e-07 5.095228e-08 6.404462e-08 9.5524655e-08 -2.0551327e-07
-6.487726e-08 -3.0921214e-08 -5.05452e-08 -1.7481518e-07 -4.851635e-07 -6.956488e-08 1.9885881e-07 -8.6688715e-08
3.8151197e-07 -7.7342506e-08 -3.2577032e-07 -8.6140966e-07 -2.7881583e-07 6.340768e-09 -2.8593501e-08 -1.5306886e-08
-1.14781976e-07 -4.7490627e-07 -3.0014948e-07 6.672976e-07 2.225489e-07 -6.913865e-09 -3.5810857e-08 -1.0275632e-07
-2.331028e-08 2.1440174e-07 -3.5227583e-07 3.2611635e-07 -3.6034196e-06 2.1219816e-07 -6.4075385e-07 9.039748e-08
-4.2475094e-07 9.126424e-10 4.5916373e-08 7.006518e-08 4.5783917e-08 -4.1014138e-07 -1.610302e-08 2.3588991e-07
-2.9212057e-07 2.3799248e-06 0.024373135 -0.0700603 0.041440792 0.03909407 -0.0694991 0.03325434
00000000: a501 a9bd cb0c 943c 80e3 883d de57 2cbd
00000010: b23f f7bb 6eab 243d d2fa b83d b2ef 6d3d
00000020: 85d3 79bd 7546 ea3c 06ce e43c 831a 26bd
00000030: dfba aabc 869d 72bc a69a e13b 6dcf fcbd
00000040: 529b cebc 11f6 f3bb 32c9 a8bb f3fa 4a3d
00000050: 1cca 36bc ed74 373d 303b 97bd d3de 973c
00000060: c662 b33d 3273 08bd ff18 d53c d099 99bd
00000070: 1d3b d83c 4169 fbbc fa19 3e3d 3d80 67bd
00000080: 758f acbb e9cc 523d 7dc1 5ebd 873b cfbd
00000090: 0bb5 0f3e e982 b9bd 38a0 9e3d 6942 74bc
000000a0: 2452 38bd 0200 253d b1e2 903d 5a38 443d
000000b0: 48d6 933b 893f 98bd 7c47 24bc 26fb 92bc
000000c0: 839b 9cbd 123c 813d 3fe2 a23d 3861 1b3d
000000d0: f4b3 543c bd30 e7bc 60ea 2dbc 7650 b1bc
000000e0: 666e 0e3d dab9 16bd 8e27 c93b b641 1bbd
000000f0: fa2a ae3c 2476 343d 2105 93bc 3172 af3c
00000100: d8d2 983c 1d3f b8bd 04fa b0bd a96f 223d
00000110: eb15 6abb 4b97 f5bd e8c3 df3c 262e 5f3c
00000120: c355 373c ae74 8e3d b5b5 a9bc 7921 323c
00000130: f2d6 603d dd03 52bd 3d21 36bd b4a6 be3c
00000140: 23be 92bd ec47 e7bb 75c1 64bd e6cf 1bbd
00000150: a076 6b3c 5761 dfbb fa50 9bbd 09e7 823d
00000160: bed8 9c3c 5dff 9b3c 355e 71bd 4ad0 4b3a
00000170: 3d2d efbb 4036 993c 2e0e 123e 7759 a5bc
00000180: 77e3 35ba 6c0f 0a3d 0def 873c 369e a5bc
00000190: 1f57 84bd 3f6f e23d 1f48 5c3d 7d2b 40bd
000001a0: aecc 43bd bec5 eb3d d7fc 7dbd f656 d93c
000001b0: 8d10 f6bb 1122 e43c cfe5 34bd a004 93bc
000001c0: cd0b 293d 8b92 00bd 14b8 32bd aef0 0cbd
000001d0: b571 71bd d624 5a3d 20d0 963d 8132 00be
000001e0: dee0 26bd d34a e83d 90e9 a33d 3c19 acbc
000001f0: 10c0 0cbd f3e4 aa3d f1da f33d 4c92 68bd
00000200: 05d7 d3bc 4520 0b3d 169a c3bd c0e9 0d3e
00000210: 5b8a 193d a8a5 03bd 4f2d 64bd a9e2 56bd
00000220: 3070 fabc cb64 ec3c c896 583d 065e 47bd
00000230: 34e2 13bd b349 1abe 8a67 63bd 77bb d73b
00000240: 86c5 99bd 54b5 8c3d 0391 3ebd 4b91 953d
00000250: 815f 98bd 0194 523d 23fa 99bd f008 b63c
00000260: 6fff 56bd f71f 0fbd fa57 a63d c470 f1bd
00000270: 39f2 97bb 2820 583c f8ac a03d 5449 c73c
00000280: ba39 f93d 8e8f 09bd 52a3 82bb b249 943b
00000290: 385f 153d 930a dfbc 66e1 793d de22 89bc
000002a0: 5ab5 b03c 6699 633d 2bff d9bd 9b92 893d
000002b0: 2abe bbbc 7e48 a93d 2cb5 e33c 4b2b 1c3c
000002c0: fd1c 7c3d 5ea2 2abd db27 b6bd 0291 95bd
000002d0: ce69 3bbd 2dce 823c c50e af3d 55a9 6cbc
000002e0: ff7b 85bd 8256 14be 4dee 8dbc 5729 9cbd
000002f0: ea6e 843d 1d13 273c 35e8 d73c 19d0 633d
00000300: 9cc4 ddbc bc7c 4cbd 320c 95bd 2370 8e3a
00000310: 0942 ea3d eeb9 473c 6d1c 93bd 06dc 9abd
00000320: e8c6 d7b3 4bb4 14b6 2548 6ab4 a33c 3db4
00000330: a0d6 5a33 e788 8933 3c23 cd33 0fab 5cb4
00000340: a752 8bb3 3cce 04b3 0917 59b3 d5b4 3bb4
00000350: 2f3c 02b5 b263 95b3 e585 5534 a029 bab3
00000360: 9bd2 cc34 7e17 a6b3 88e5 aeb4 9f3b 67b5
00000370: 28b0 95b4 fcdd d931 c69d f5b2 337c 83b2
00000380: 0f7e f6b3 9ff6 feb4 3b24 a1b4 5820 3335
00000390: c7f5 6e34 008f edb1 74ce 19b3 e2aa dcb3
000003a0: d93b c8b2 4d36 6634 6c20 bdb4 1715 af34
000003b0: 47d2 71b6 96d8 6334 4500 2cb5 8a20 c233
000003c0: 5309 e4b4 80dd 7a30 9635 4533 bd76 9633
000003d0: f3a3 4433 6731 dcb4 ea52 8ab2 ed48 7d34
000003e0: bfd4 9cb4 ccb6 1f36 2baa c73c c67b 8fbd
000003f0: d2bd 293d 1b21 203d 8b55 8ebd b435 083d

emb.feature_extractor.0.bias f4 [16]
-1.224246e-05 -1.3075752e-06 1.1813037e-05 -7.1994777e-06 5.996e-42 -4.512629e-06 -1.2121036e-05 -1.1988908e-06
-2.1954616e-05 -1.1558319e-05 -1.0751154e-05 -7.1883264e-06 -2.362434e-05 -8.379371e-06 -2.520685e-06 -8.72179e-06
00000000: f764 4db7 f17f afb5 9c30 4637 0b93 f1b6
00000010: b710 0000 306b 97b6 745b 4bb7 93e9 a0b5
00000020: 2e2b b8b7 9aea 41b7 db5f 34b7 4133 f1b6
00000030: e22c c6b7 2095 0cb7 0a29 29b6 ce53 12b7

emb.feature_extractor.1.weight f4 [16]
0.16303237 0.07128277 0.21551725 0.15318993 0.00020449552 0.19005838 0.14874238 0.06422461
0.22136772 0.17251796 0.22388008 0.12573434 0.1203337 0.1701366 0.136102 0.065432675
00000000: f5f1 263e b3fc 913d 8eb0 5c3e d2dd 1c3e
00000010: d96d 5639 aa9e 423e ec4f 183e 3188 833d
00000020: 38ae 623e 8ca8 303e d240 653e 81c0 003e
00000030: 8471 f63d 4a38 2e3e 535e 0b3e 9101 863d

emb.feature_extractor.1.bias f4 [16]
-0.161387 0.15081629 -0.3363727 -0.14310548 -0.00023980143 -0.21978469 -0.13360766 -0.11390266
-0.2662542 -0.11762508 -0.20590201 -0.14543504 -0.11773705 -0.14894289 -0.14384203 -0.1058025
00000000: a242 25be 966f 1a3e 0b39 acbe 3e8a 12be
00000010: 3573 7bb9 3d0f 61be 72d0 08be cc45 e9bd
00000020: 7852 88be 6be5 f0bd fad7 52be ecec 14be
00000030: 1f20 f1bd 7c84 18be 534b 13be fbae d8bd

emb.feature_extractor.1.running_mean f4 [16]
0.010145115 0.011794363 0.01899436 0.031179892 1.09314e-06 -0.02066401 -0.012684529 -0.018772397
-0.014752722 0.0038411177 0.026397042 -0.0012990402 -0.022573601 -0.029636823 -0.025885914 -0.01638267
00000000: b237 263c 253d 413c 0f9a 9b3c f96c ff3c
00000010: 01b8 9235 9247 a9bc c5d2 4fbc 92c8 99bc
00000020: 67b5 71bc 43bb 7b3b 9c3e d83c 8e44 aaba
00000030: 46ec b8bc ecc8 f2bc b20e d4bc f334 86bc

emb.feature_extractor.1.running_var f4 [16]
0.057573415 0.050956618 0.092984095 0.08617937 1.7746821e-11 0.07896536 0.057903487 0.034371182
0.08234757 0.08837334 0.15587232 0.045255307 0.053657264 0.08605004 0.05255888 0.01885041
00000000: 1ad2 6b3d e3b7 503d 726e be3d cf7e b03d
00000010: 4a1a 9c2d 97b8 a13d 352c 6d3d ccc8 0c3d
00000020: d8a5 a83d 15fd b43d fe9c 1f3e a15d 393d
00000030: b8c7 5b3d 013b b03d fb47 573d 2d6c 9a3c

emb.feature_extractor.4.weight f4 [16, 16, 1, 50]
-0.010674751 -0.05273774 0.021909805 -0.014347429 -0.016520746 -0.041009437 -0.027078088 -0.004304263
0.04318593 0.0029528078 0.0021913676 0.0030563287 -0.00067171466 0.021938192 0.009653719 -0.003835677
-0.027701793 -0.03669711 -0.034539435 -0.039281666 -0.010362588 -0.058445476 -0.03633735 -0.03150369
0.0010549573 0.02200092 -0.013536254 0.030959362 -0.05339891 0.019176785 -0.034398284 -0.005356526
-0.010656554 -0.01766055 -0.01274145 -0.02553693 0.012872061 0.052149612 -0.034203812 -0.022526933
-0.024343992 -0.04712429 -0.0037145591 -0.020486899 -0.027455257 -0.03426365 -0.025403785 -0.017216483
-0.01790697 -0.0257174 -0.001433086 0.00055869535 -0.0072587067 -0.014462138 0.018100668 0.052966464
0.02660897 0.021048822 -0.0043787844 0.023603318 0.01650688 -0.021700041 -0.014425446 -0.03384362
-0.023387272 -0.01976507 -0.01291349 -0.039216254 -0.025853777 -0.00040458186 -0.020350099 0.022461036
-0.0112598855 0.028232565 -0.0019416512 -0.053585842 0.01005551 -0.015604009 0.022633344 -0.015826624
0.0061795823 -0.012221203 0.03786538 -0.009703108 0.023530152 0.025310408 -0.018923951 0.0232695
0.037127852 0.025501065 0.029434113 0.022837477 0.009414047 0.022314355 -0.0013421933 0.039514087
0.014162422 0.03246486 0.039430074 0.036204383 -0.010706499 -0.014469494 -0.014810527 -0.032728333
-0.011813791 -0.020906242 -0.019371236 0.00072185387 0.023148974 -0.026641162 -0.016720647 -0.014627403
0.018373242 0.011154957 -0.010940963 0.01621934 -0.030580726 0.034713726 -0.0185321 -0.007870842
0.0043184487 -0.018782975 0.00067299465 -0.0265238 0.014655529 0.0022256325 -0.014839795 -0.01437791
0.0019053868 -0.008183001 -0.03721928 0.044140305 -0.02096559 -0.032417398 0.009825736 0.019925816
0.017842002 -0.030886605 -0.04798192 -0.01256051 -0.0099495435 0.022481686 0.009027021 -0.010019223
-0.008558648 -0.02061806 0.017723499 0.01309836 -0.015122283 -0.0051111197 0.035948355 -0.0059707966
-0.014402806 -0.02819249 0.031146673 0.015097468 -0.020158626 -0.034578703 0.016161107 0.03082751
0.019692576 0.025756937 -0.048812073 -0.042312957 0.0068727727 -0.008090662 -0.035734624 -0.050065305
-0.044788036 -0.020625671 0.034782786 0.013236886 -0.022064373 -0.022616038 0.011166151 -0.0016264638
-0.018691795 -0.034326978 -0.017716883 -0.037319552 0.030979918 -0.034467265 -0.03400878 -0.0033856216
-0.009263752 0.023287995 -0.020717971 0.012618083 -0.02056305 -0.007964761 0.02015513 0.0055382573
-0.043113254 -0.047341254 0.006292004 -0.007889139 -0.015799284 -0.025593998 -0.025776304 -0.031149574
-1.8862069e-32 -1.6786256e-31 -1.8704017e-31 1.9438936e-29 6.0078554e-29 6.5783396e-27 1.7439029e-24 4.0251874e-27
1.8661527e-27 -2.023643e-31 1.3896983e-28 2.5668244e-29 2.2379188e-27 -2.186948e-22 2.9425574e-25 3.2835487e-29
-8.4391015e-31 -9.923409e-34 -5.0861726e-37 5.069267e-35 -3.3920301e-34 -1.935224e-30 1.5732345e-35 -3.0914904e-35
-1.5444494e-36 6.6440733e-32 7.545156e-33 2.1922035e-36 -9.39805e-33 -1.3090594e-34 7.9585417e-32 8.905775e-33
7.0520833e-32 -1.7032965e-33 4.5875532e-36 3.5502802e-35 1.070138e-31 1.0834569e-28 2.9083117e-31 -1.6695163e-30
-2.4642167e-29 -1.0456766e-30 2.5274048e-28 -2.9171754e-29 -1.0471271e-31 1.06716e-31 -9.943085e-31 -1.1345791e-29
-7.5556153e-34 1.0750164e-31 -0.022494659 -0.027457295 -0.021364486 -0.020984031 -0.017800568 -0.0035140123
00000000: 27e5 2ebc 8703 58bd 317c b33c 7b11 6bbc
00000010: 8456 87bc 83f9 27bd ded2 ddbc c60a 8dbb
00000020: bbe3 303d e583 413b 0c9d 0f3b b04c 483b
00000030: 0216 30ba b9b7 b33c a22a 1e3c fb5f 7bbb
00000040: dfee e2bc b54f 16bd 3979 0dbd d0e5 20bd
00000050: d8c7 29bc 8664 6fbd 79d6 14bd 030a 01bd
00000060: 7e46 8a3a 463b b43c 2ac7 5dbc 7d9e fd3c
00000070: d1b8 5abd a218 9d3c 37e5 0cbd cc85 afbb
00000080: d498 2ebc dcac 90bc 84c1 50bc d332 d1bc
00000090: 56e5 523c d59a 553d 4c19 0cbd 678a b8bc
000000a0: 0d6d c7bc 6605 41bd f66f 73bb 24d4 a7bc
000000b0: d9e9 e0bc 0b58 0cbd 991b d0bc 9509 8dbc
000000c0: a3b1 92bc 4cad d2bc 63d6 bbba 6975 123a
000000d0: 72da edbb 9af2 6cbc da47 943c 5df3 583d
000000e0: 0efb d93c 946e ac3c e87b 8fbb bf5b c13c
000000f0: 7039 873c 49c4 b1bc b558 6cbc 9c9f 0abd
00000100: aa96 bfbc 5bea a1bc 1a93 53bc 39a1 20bd
00000110: 4dcb d3bc 0f1e d4b9 40b5 a6bc 3500 b83c
00000120: 627b 38bc fb47 e73c 017f feba d47c 5bbd
00000130: debf 243c f5a7 7fbc 9069 b93c d6a6 81bc
00000140: 187e ca3b 713b 48bc bb18 1b3d c9f9 1ebc
00000150: 4ec2 c03c c657 cf3c 6706 9bbc ae9f be3c
00000160: 6013 183d 9ce7 d03c cf1f f13c a915 bb3c
00000170: 603d 1a3c 98cc b63c 89ec afba 86d9 213d
00000180: 8109 683c dff9 043d 6e81 213d 0c4b 143d
00000190: 506a 2fbc 7511 6dbc daa7 72bc 250e 06bd
000001a0: a18e 41bc 9143 abbc 6db0 9ebc cb3a 3d3a
000001b0: eba2 bd3c 913e dabc bdf9 88bc c6a7 6fbc
000001c0: 7b83 963c 48c3 363c ba41 33bc 6cde 843c
000001d0: 6e84 fabc fb2f 0e3d a1d0 97bc b4f4 00bc
000001e0: c681 8d3b c1de 99bc e86b 303a 7148 d9bc
000001f0: be1d 703c ebdb 113b 9d22 73bc 5391 6bbc
00000200: 2cbe f93a fe11 06bc 3e73 18bd 77cc 343d
00000210: 07c0 abbc 1bc8 04bd 20fc 203c 773b a33c
00000220: 6429 923c e805 fdbc b188 44bd 99ca 4dbc
00000230: 6903 23bc 832b b83c 12e6 133c ab27 24bc
00000240: 9239 0cbc 35e7 a8bc df30 913c 819a 563c
00000250: 74c3 77bc 2e7b a7bb 953e 133d aca6 c3bb
00000260: bff9 6bbc f0f3 e6bc 4f27 ff3c 5f5b 773c
00000270: b423 a5bc 66a2 0dbd 4c64 843c f989 fc3c
00000280: 5352 a13c 3600 d33c 2bef 47bd 5a50 2dbd
00000290: ff34 e13b b28e 04bc 785e 12bd 4711 4dbd
000002a0: a973 37bd 2bf7 a8bc 6578 0e3d 86df 583c
000002b0: 58c0 b4bc 4545 b9bc 3bf2 363c 122f d5ba
000002c0: 891f 99bc 729a 0cbd ff22 91bc 63dc 18bd
000002d0: 99c9 fd3c 8c2d 0dbd ca4c 0bbd 4ee1 5dbb
000002e0: fec6 17bc 77c6 be3c bcb8 a9bc 13bc 4e3c
000002f0: d773 a8bc a17e 02bc 5f1c a53c 457a b53b
00000300: 8697 30bd e7e8 41bd 282d ce3b 7241 01bc
00000310: 806d 81bc 81aa d1bc d428 d3bc 642d ffbc
00000320: fbdf c38a e7e5 598c c2ca 728c 5d22 c50f
00000330: 3651 9810 254c 0214 8eed 0618 4074 9f13
00000340: 13da 1313 8957 838c 4a2a 3011 4927 0210
00000350: 634e 3113 6231 849b af22 b616 e67e 2610
00000360: a8ee 888d 84e1 a488 d012 2d83 a5c3 8606
00000370: 6770 e187 0801 1d8e 844b a705 305f 2486
00000380: 2163 0384 717d ac0b eeb4 1c0a f77d 3a04
00000390: 9b30 438a fc00 2e87 959d ce0b 39f7 380a
000003a0: 2215 b70b 1c81 0d89 0822 c304 e9c3 3c06
000003b0: 6fe9 0a0c 3058 0911 9ec2 bc0c 7f72 078e
000003c0: b9e6 f98f b5ab a98d 7d31 a011 1aeb 1390
000003d0: c4ec 078c 7986 0a0c f655 a18d b71e 668f
000003e0: 1114 7b88 8c8b 0b0c b846 b8bc 1fee e0bc
000003f0: 9304 afbc b4e6 abbc 7fd2 91bc 584b 66bb

emb.feature_extractor.4.bias f4 [16]
1.4558248e-07 -1.6713559e-05 7.882103e-06 -7.3843416e-06 -1.5767691e-05 1.2905321e-05 2.8552937e-05 6.029731e-06
5.3907947e-06 1.269362e-05 -2.1435628e-05 -1.1750597e-05 -2.1599113e-05 -2.4555109e-06 -1.2417097e-06 1.5997011e-05
00000000: 6851 1c34 1834 8cb7 603d 0437 03c7 f7b6
00000010: dc44 84b7 ee83 5837 f784 ef37 ff52 ca36
00000020: 93e2 b436 aff6 5437 a9d0 b3b7 6e24 45b7
00000030: be2f b5b7 5bc9 24b6 d2a8 a6b5 5231 8637

emb.feature_extractor.5.weight f4 [16]
0.37630847 0.32828647 0.32660308 0.25508824 0.2125889 0.35336792 0.33155543 0.37721437
0.3291314 0.35879314 0.339641 0.23400317 0.3348049 0.37197328 0.24201582 0.36932746
00000000: 81ab c03e 2a15 a83e 8538 a73e ed9a 823e
00000010: e8b0 593e a4ec b43e a2c1 a93e 3e22 c13e
00000020: e983 a83e bcb3 b73e 6de5 ad3e 879e 6f3e
00000030: 8c6b ab3e 4873 be3e ffd2 773e 7d18 bd3e

emb.feature_extractor.5.bias f4 [16]
-0.04033245 -0.0048627714 -0.24805096 -0.07419038 -0.115059495 -0.027239332 -0.2578801 -0.03289736
-0.008357942 -0.018233709 -0.03578389 -0.21233936 -0.25061774 -0.033593766 -0.13754946 -0.06490982
00000000: a433 25bd e257 9fbb 1201 7ebe 20f1 97bd
00000010: 50a4 ebbd 0525 dfbc dc08 84be 62bf 06bd
00000020: c0ef 08bc dc5e 95bc 2192 12bd 7d6f 59be
00000030: f850 80be 9e99 09bd c4d9 0cbe 71ef 84bd

emb.feature_extractor.5.running_mean f4 [16]
-0.34811985 -0.30742636 0.06653476 -0.40101922 -0.037748773 -0.40104657 -0.019377178 -0.3284285
-0.37910438 -0.37624922 -0.41650334 -0.13542768 0.1547677 -0.38137057 -0.0183122 -0.4009227
00000000: c43c b2be fd66 9dbe 6043 883d 6452 cdbe
00000010: 759e 1abd fa55 cdbe e3bc 9ebc c827 a8be
00000020: f819 c2be bda3 c0be ed3f d5be 8ead 0abe
00000030: 6d7b 1e3e 0143 c3be 7803 96bc bd45 cdbe

emb.feature_extractor.5.running_var f4 [16]
0.018843008 0.022446536 0.011559191 0.015599762 0.005065207 0.02021345 0.008921909 0.018275747
0.018861016 0.018071452 0.022624204 0.004784317 0.01113752 0.015598395 0.011358753 0.01892334
00000000: a75c 9a3c cce1 b73c c362 3d3c 2596 7f3c
00000010: 09fa a53b ad96 a53c 332d 123c 05b7 953c
00000020: 6b82 9a3c 950a 943c 6556 b93c c3c5 9c3b
00000030: 257a 363c 6990 7f3c 101a 3a3c 1f05 9b3c

emb.fc.1.weight f4 [100, 192]
0.0005012331 0.0095644165 0.013054694 0.004330027 -0.0011871115 -0.018181069 -0.0079548 0.017195502
0.0096319 0.0063439566 0.014379775 -0.023754135 0.012698695 -0.030071963 -0.054755446 -0.027074056
-0.03493669 -0.013905589 0.009942248 -0.0042442144 -0.007050584 -0.0016031303 -0.007887169 -0.012292435
0.05407496 0.050089933 0.06682805 0.073194645 0.048293382 0.04850697 0.027112445 0.03137703
0.05461375 0.055029236 0.04170874 0.02849386 0.014632788 0.021666158 0.03894417 0.011133976
0.04779764 0.025552094 0.01030352 0.008463679 0.03253584 0.054785196 0.031219842 0.0060314112
-0.014939319 -0.014905921 0.007958447 0.020483486 -0.0016164901 -0.025121115 -0.0018380384 -0.020386985
-0.015831804 0.004621646 -0.0071186502 -0.01265609 0.0070336163 -0.04441408 -0.026970943 -0.01928527
-0.0076431264 -0.009226347 0.007853351 -0.011051202 -0.014064088 -0.029243205 -0.029472973 -0.0198112
0.051619716 0.05528177 0.06367929 0.07379167 0.059885804 0.054919034 0.045885336 0.06756913
0.06530407 0.060266465 0.057578456 0.04861148 0.002492179 -0.03994743 -0.017518036 -0.0047246264
0.003000913 -0.017659042 0.011336672 -0.005199829 0.00091468944 -0.004317678 0.0060615125 -0.025140561
-0.019086026 -0.012182729 -0.0072538382 -0.038811088 -0.024978347 -0.010785885 -0.030679883 -0.023934731
-0.020749459 -0.023660852 -0.011708828 0.0020141099 -0.0006373247 -0.017911062 -0.00854514 -0.031067347
-0.017994331 -0.006900926 -0.024302812 -0.019416532 0.007816822 -0.011531508 -0.0039236513 0.012011664
0.0033049854 -0.0153821185 -0.013979946 -0.006047186 -0.032411925 -0.026469486 -0.00081722235 -0.015882874
-0.008460639 0.021523515 0.0028821703 -0.015228537 0.02103354 0.022443864 0.015324362 0.022849765
0.040715132 -0.0065674526 0.011916917 0.0038889006 0.020248385 0.018943608 0.018262228 -0.004950068
0.04155411 0.059334643 0.06264312 0.059431702 0.05605199 0.062293544 -0.009895768 0.0432805
0.056703907 0.06780147 0.08057163 0.067598514 0.0068680746 -0.0043448857 -0.018448358 -0.026469486
0.020783769 -0.0072288164 0.0064831725 -0.011962105 -0.004516773 0.017819744 0.006676296 -0.0029553703
0.0034702923 0.03893096 0.054780096 0.06738659 0.071958445 0.05129787 0.033966403 0.019331202
0.047876086 0.06247388 0.065435514 0.05730608 -0.020580864 -0.015787277 0.000534057 -0.01535574
-0.018063346 -0.0054163183 -0.028681124 -0.032255862 0.021072162 -0.008782605 0.0020451406 -0.0045782775
0.00677393 0.0002578026 0.006617021 0.015577812 0.009212773 0.006292653 -0.0025575457 -0.0032972365
-0.007157584 0.0058734235 0.00057468034 -0.007490231 0.004210554 -0.002148093 -0.0010199366 0.011655975
0.004073957 0.006971173 0.0014232295 -0.008475579 -0.015505585 -0.0018758107 -0.0017754909 0.002772689
-0.0046496103 -0.0020988768 -0.014401418 -0.011350507 -0.011424796 -0.010620965 0.021883419 0.023228917
0.007919866 0.0070907855 0.016716465 -0.0017062321 0.010657869 0.013352356 0.001384383 0.016139545
0.008841741 0.007627 0.0006455054 -0.00031744468 -0.0073963897 0.0020770193 0.0016043698 0.004304668
0.004337896 0.0021856993 0.016214542 0.0144370925 0.012666618 0.0055692485 -0.00068897335 -0.005989877
0.004695947 0.005672393 0.002838525 -0.000440342 0.0067769825 0.003458191 -0.006954306 0.0063269967
00000000: 2f65 033a 12b4 1c3c 5be3 553c e6e2 8d3b
00000010: da98 9bba 77f0 94bc d954 02bc 95dd 8c3c
00000020: 1ecf 1d3c f7e0 cf3b 2699 6b3c 0898 c2bc
00000030: 300e 503c 7a59 f6bc 3f47 60bd 69ca ddbc
00000040: c619 0fbd 44d4 63bc d0e4 223c 0d13 8bbb
00000050: 9608 e7bb 2020 d2ba 2f39 01bc 3666 49bc
00000060: b57d 5d3d 1a2b 4d3d 25dd 883d 13e7 953d
00000070: 48cf 453d 3faf 463d eb1a de3c 3385 003d
00000080: abb2 5f3d 5666 613d c9d6 2a3d f56b e93c
00000090: 5cbe 6f3c 3a7d b13c ec83 1f3d 486b 363c
000000a0: 75c7 433d a052 d13c 18d0 283c 3eab 0a3c
000000b0: 4d44 053d 7166 603d c1c0 ff3c 25a3 c53b
000000c0: 0cc4 74bc f737 74bc 2564 023c fccc a73c
000000d0: 68e0 d3ba ccca cdbc 56ea f0ba 9b02 a7bc
000000e0: b3b1 81bc 2d71 973b 9143 e9bb 7d5b 4fbc
000000f0: 407a e63b 8aeb 35bd 2bf2 dcbc 24fc 9dbc
00000100: 3173 fabb 1b2a 17bc 57ab 003c 1a10 35bc
00000110: 106d 66bc 728f efbc 4e71 f1bc 194b a2bc
00000120: 326f 533d 236f 623d 4a6a 823d 1620 973d
00000130: d14a 753d c8f2 603d 43f2 3b3d af61 8a3d
00000140: 24be 853d f8d9 763d 63d7 6b3d d51c 473d
00000150: d353 233b eb9f 23bd fc81 8fbc 0ad1 9abb
00000160: f7aa 443b b2a9 90bc 73bd 393c 5463 aabb
00000170: c5c7 6f3a 4f7b 8dbb a79f c63b 94f3 cdbc
00000180: 4c5a 9cbc 129a 47bc 9bb1 edbb 60f8 1ebd
00000190: 649f ccbc 48b7 30bc 6154 fbbc c512 c4bc
000001a0: c5fa a9bc 67d4 c1bc 62d6 3fbc 28ff 033b
000001b0: 2312 27ba 38ba 92bc ea00 0cbc f380 febc
000001c0: d968 93bc 2a21 e2bb b116 c7bc 6b0f 9fbc
000001d0: 2112 003c a6ee 3cbc f991 80bb 92cc 443c
000001e0: 7498 583b 4805 7cbc 250c 65bc 7927 c6bb
000001f0: 5ec2 04bd 89d6 d8bc dd3a 56ba cd1c 82bc
00000200: 7e9e 0abc 1552 b03c cbe2 3c3b 1d81 79bc
00000210: 884e ac3c 32dc b73c 0813 7b3c 6e2f bb3c
00000220: e9c4 263d c933 d7bb 2c3f 433c eddc 7e3b
00000230: f1df a53c a02f 9b3c ab9a 953c 2e34 a2bb
00000240: a434 2a3d e208 733d 094b 803d a86e 733d
00000250: c596 653d 8427 7f3d dc21 22bc e546 313d
00000260: 5b42 683d 7fdb 8a3d bd02 a53d 1771 8a3d
00000270: 960d e13b 8b5f 8ebb 0321 97bc 89d6 d8bc
00000280: b942 aa3c b5df ecbb cb70 d43b b4fc 43bc
00000290: 7001 94bb b6fa 913c d4c4 da3b e3ae 41bb
000002a0: d86d 633b 1276 1f3d 1861 603d fb01 8a3d
000002b0: f35e 933d b71d 523d 5b20 0b3d 785c 9e3c
000002c0: b719 443d 9ce4 7f3d 0e03 863d c8b9 6a3d
000002d0: 3399 a8bc 5254 81bc f5ff 0b3a a496 7bbc
000002e0: 95f9 93bc 5f7b b1bb adf4 eabc b91e 04bd
000002f0: 879f ac3c eae4 0fbc c407 063b 6005 96bb
00000300: d8f7 dd3b ae29 8739 98d3 d83b 143a 7f3c
00000310: 2cf1 163c 9932 ce3b 7f9c 27bb 7316 58bb
00000320: 2b8a eabb d975 c03b 25a6 163a 9d70 f5bb
00000330: b0f8 893b 05c7 0cbb 65af 85ba b4f8 3e3c
00000340: d47e 853b 706e e43b a88b ba3a 28dd 0abc
00000350: 230b 7ebc c3dd f5ba 97b7 e8ba 01b6 353b
00000360: c25b 98bb 4f8d 09bb edf3 6bbc 7af7 39bc
00000370: 112f 3bbc 8e03 2ebc db44 b33c 924a be3c
00000380: 53c2 013c d259 e83b f8f0 883c a6a3 dfba
00000390: 589e 2e3c d7c3 5a3c 2f74 b53a 1437 843c
000003a0: f3dc 103c eaeb f93b 2237 293a b46e a6b9
000003b0: 6a5d f2bb 9a1e 083b b849 d23a 2c0e 8d3b
000003c0: e924 8e3b f33d 0f3b 5cd4 843c 8e89 6c3c
000003d0: a687 4f3c 3e7e b63b 389c 34ba bb46 c4bb
000003e0: 75e0 993b 7bdf b93b 8c06 3a3b b4dd e6b9
000003f0: 7311 de3b d1a2 623b f2e0 e3bb b252 cf3b

emb.fc.1.bias f4 [100]
-5.02308e-06 2.8146635e-08 1.1858692e-10 -5.6263024e-15 -3.4907412e-13 5.3528677e-14 -2.7704369e-21 -3.4031368e-06
7.556e-42 2.4056e-41 -8.5926844e-14 -5.4000793e-11 6.29158e-07 -1.7348e-41 3.6225082e-21 8.413579e-11
6.536e-42 2.975384e-05 -1.06649805e-19 -2.5867119e-14 -6.8493966e-07 -1.614e-42 3.3746383e-05 -1.632635e-07
8.630824e-17 9.399e-42 2.7873176e-15 -3.9424808e-07 -1.5504924e-11 4.496477e-27 3.437267e-11 -1.6977765e-05
-1.1572042e-13 1.0429926e-07 2.7340136e-10 3.037591e-05 4.04e-43 2.968597e-20 4.5774004e-07 7.310204e-24
-1.7074581e-12 1.1147373e-22 1.763e-42 2.712e-42 5.2635777e-13 -4.51e-43 -2.096134e-15 3.5222906e-14
5.0336568e-15 1.6331517e-09 -3.9476828e-07 -2.2036086e-16 1.515e-42 -8.746e-42 -7.212588e-07 1.26000195e-05
8.676241e-11 1.0839964e-05 -6.9487965e-13 -6.1854004e-26 1.534e-42 1.09947e-10 -1.2739307e-20 -1.4413185e-10
1.897e-42 3.6204365e-13 -1.4e-42 3.4420054e-06 8.809522e-12 1.1249955e-07 -1.2102138e-06 1.620331e-14
8.045778e-06 4.914269e-08 -1.5227577e-08 -1.0225997e-24 -1.0501e-41 -4.5455616e-07 -1.2779185e-11 3.554e-42
4.36e-42 -4.243e-42 2.0282084e-38 -6.929882e-18 -1.0934269e-08 4.278e-42 -8.332e-42 -2.6635446e-08
-3.194e-42 -4.29e-43 8.296e-42 -3.507e-42 1.855308e-10 -2.261956e-20 -1.9732469e-11 -3.6409e-41
1.1463204e-06 8.688e-42 -3.477814e-21 8.0479964e-13
00000000: ee8b a8b6 1bc7 f132 4063 022f 7bb5 caa7
00000010: e282 c4aa 5d12 7129 0b54 519d 7261 64b6
00000020: 1015 0000 0f43 0000 747d c1a9 7d7f 6dae
00000030: 69e3 2835 5c30 0080 c0da 881d 3d04 b92e
00000040: 3812 0000 e397 f937 dad1 fb9f 84fd e8a8
00000050: b2dc 37b5 8004 0080 e78a 0d38 874d 2fb4
00000060: 6403 c724 331a 0000 efd8 4827 0ba9 d3b4
00000070: fc61 88ad b21f b213 302c 172e 796b 8eb7
00000080: 244a 02aa 20fb df33 d24d 962f c5cf fe37
00000090: 2001 0000 2330 0c1f 50bf f534 6066 0d19
000000a0: a94d f0ab 73c3 061b ea04 0000 8f07 0000
000000b0: 1328 142b 4201 0080 d90a 17a7 3fa1 1e29
000000c0: 4a5b b527 6b75 e030 8af0 d3b4 0c0f 7ea5
000000d0: 3904 0000 6118 0080 879c 41b5 ac64 5337
000000e0: e5ca be2e 4add 3537 5b97 43ab a224 9995
000000f0: 4704 0000 a9c6 f12e 82a3 709e 8279 1eaf
00000100: 4a05 0000 fdcf cb2a e703 0080 34fd 6636
00000110: 8ffa 1a2d 4897 f133 a16e a2b5 4af2 9128
00000120: 5afc 0637 f610 5333 cccd 82b2 593d 9e97
00000130: 461d 0080 b909 f4b4 55d0 60ad e809 0000
00000140: 270c 0000 d40b 0080 33da dc00 e3aa ffa2
00000150: 6cd9 3bb2 ed0b 0000 3a17 0080 f7cb e4b2
00000160: e708 0080 3201 0080 2017 0000 c709 0080
00000170: 47fe 4b2f bda2 d59e 9291 adad 7e65 0080
00000180: 45db 9935 3818 0000 5a63 839d ed87 622b

clf.1.weight f4 [1, 100]
0.38304323 -0.046027973 -0.13039589 -0.14498305 -0.14321257 -0.09409295 -0.1530002 -0.12737761
-0.14257987 -0.06400303 -0.1535615 -0.084808335 -0.06499183 -0.096089594 -0.1656645 -0.13735676
-0.15201548 -0.1355196 -0.08959829 -0.16373403 -0.0774494 -0.077770524 -0.10238241 -0.16458277
-0.13237783 -0.14681245 -0.13194603 -0.118767306 -0.121470414 -0.13314185 -0.1582069 -0.111807555
-0.15985137 -0.14704916 -0.1454761 -0.15797944 -0.037876036 -0.016743345 -0.10222714 -0.14574243
-0.14155225 -0.1443717 -0.15108648 -0.096926585 -0.03192968 -0.108110815 -0.14683582 -0.13865265
-0.12706937 -0.1540334 -0.089495905 -0.13154809 -0.12789579 -0.12659264 -0.15218708 -0.14608827
-0.04193047 0.14002055 -0.13502552 -0.15269774 -0.12496436 -0.110921346 -0.1354432 -0.13823634
-0.15928116 -0.14011513 -0.11706203 -0.1522489 -0.0911382 -0.14457527 -0.08246923 0.2863873
0.3082604 -0.14631936 -0.14811966 -0.106245905 -0.14286813 -0.14123797 -0.06856776 -0.084574245
-0.06341482 -0.1370462 -0.14112455 -0.14637522 -0.12463232 -0.16011243 -0.1322526 -0.13927524
-0.083602324 0.385385 -0.09211724 -0.12405133 -0.07024677 -0.1441413 -0.1085983 -0.14843339
-0.1355651 -0.1473685 -0.1407871 -0.13684595
00000000: 3e1e c43e d487 3cbd 8086 05be 7076 14be
00000010: 51a6 12be ceb3 c0bd 16ac 1cbe 476f 02be
00000020: 7500 12be 0514 83bd 3a3f 1dbe feaf adbd
00000030: 701a 85bd 9fca c4bd f4a3 29be 40a7 0cbe
00000040: f2a9 1bbe a6c5 0abe 4f7f b7bd e5a9 27be
00000050: cb9d 9ebd 2746 9fbd dead d1bd 6388 28be
00000060: 0e8e 07be 0156 16be dc1c 07be 463c f3bd
00000070: 7bc5 f8bd 5656 08be fd00 22be 5cfb e4bd
00000080: 14b0 23be 0e94 16be b0f7 14be 5dc5 21be
00000090: e723 1bbd 5729 89bc 765c d1bd 813d 15be
000000a0: 13f3 10be 2dd6 13be 6ab6 1abe 7281 c6bd
000000b0: b2c8 02bd 3469 ddbd 215c 16be f6fa 0dbe
000000c0: 791e 02be eeba 1dbe a149 b7bd 8bb4 06be
000000d0: 1df7 02be 80a1 01be eed6 1bbe 2a98 15be
000000e0: 49bf 2bbd 8c61 0f3e 2144 0abe cc5c 1cbe
000000f0: 50ed ffbd bb2a e3bd 9fb1 0abe d48d 0dbe
00000100: 9a1a 23be 577a 0fbe 38be efbd 23e7 1bbe
00000110: aaa6 babd 8a0b 14be a1e5 a8bd 5ba1 923e
00000120: 4fd4 9d3e bed4 15be aeac 17be 7497 d9bd
00000130: 064c 12be b0a0 10be 416d 8cbd 4335 adbd
00000140: a1df 81bd d755 0cbe f482 10be 63e3 15be
00000150: 3b3f ffbd 83f4 23be 3a6d 07be 2b9e 0ebe
00000160: b237 abbd 2f51 c53e f7a7 bcbd a00e febd
00000170: 8add 8fbd c799 13be c968 debd ecfe 17be
00000180: 94d1 0abe c5e7 16be 7e2a 10be 5821 0cbe

exp_avg f4 [2, 1, 2, 1]
-0.13706388 0.23092064 -0.13419002 -0.27705085
00000000: 795a 0cbe 7676 6c3e 1c69 09be 9cd9 8dbe

exp_avg_sq f4 [2, 1, 2, 1]
0.95420086 1.0664272 1.1068752 1.3362731
00000000: 8246 743f b080 883f 16ae 8d3f ff0a ab3f

exp_avg f4 [2]
0.038948003 -0.036821514
00000000: f187 1f3d 28d2 16bd

exp_avg_sq f4 [2]
0.06282037 0.0628156
00000000: f7a7 803d 77a5 803d

exp_avg f4 [16, 1, 1, 50]
0.00090577157 0.017878892 0.07740855 0.036634706 0.0010737358 0.12977532 0.03250252 -0.03471725
0.0706704 0.040788084 0.08977396 0.04572479 0.0046324176 0.044859543 0.03673289 0.0029180343
-0.02093482 0.017632592 0.011649664 -0.09481199 -0.0685315 0.037220325 0.014321547 -0.010058771
-0.043960392 -0.03006287 -0.027591007 0.0028277414 0.010960856 -0.012895342 0.037168346 -0.019306764
0.0013907792 -0.017888008 -0.034632 -0.0415361 -0.041014194 0.018195055 -0.04408191 0.009178283
-0.055451892 -0.01407644 0.01372359 -0.0032634477 -0.060794514 0.0026486164 0.015422605 0.023493484
0.017488034 0.0015571499 0.017965674 0.027400535 -0.00229427 0.0035752575 -0.009942319 0.017859554
-0.01062777 -0.0143657345 0.038606934 0.015398656 -0.009574141 -0.018058658 0.013540482 0.01125627
0.025058005 0.03474039 -0.023142502 -0.055941805 -0.03764897 0.0044324966 0.036279 -0.014842714
-0.018513704 -0.00406604 0.02648419 0.009225685 0.019438678 0.00044595738 -0.012197989 -0.008396567
0.034727827 -0.010361917 -0.030023266 7.569508e-05 -0.030681755 0.0152365975 -0.0078819115 -0.05362708
0.033116765 -0.008385297 -0.0016686154 0.00934751 0.024682352 -0.0054116095 0.015391285 -0.007246085
-0.0038487748 0.0124301 0.01449865 -0.027764972 0.0027096204 0.023788767 -0.03904113 -0.007833506
0.006486892 0.028508333 0.004026867 0.00858838 -0.023734214 -0.032189976 -0.007223945 -0.039820544
-0.03627896 -0.050652977 -0.075769 -0.041441754 -0.03807701 0.03783365 -0.010019775 -0.043226976
0.014782083 -0.0497264 -0.06487114 -0.01781811 -0.064634874 -0.022198105 -0.017013967 -0.020756863
-0.008733148 -0.011826919 0.015213637 -0.021956999 0.03434059 0.022034733 0.043057967 0.016218986
0.019105837 0.047608193 0.043562025 -0.006331479 0.019419523 0.0076543214 0.055901483 0.027141888
-4.1055355e-05 -0.019156938 0.0038450568 0.00082100887 -0.030502493 0.029701717 -0.026653249 0.006118214
0.0085133705 0.011704118 -0.008145993 -0.0070803775 0.033266686 0.021775328 -0.018635249 0.0091874655
0.005236907 0.006494203 -0.0016651927 0.008106001 -0.038321804 0.020996368 -0.0022479652 0.018323243
0.012347253 0.036772355 0.031144917 -0.010231117 -0.0030866205 -0.009824172 -0.017243842 -0.009805236
-0.015193639 -0.008390944 -0.029450675 -0.01994136 0.008301842 0.008956057 0.00957003 0.0038171418
-0.025505204 -0.016663812 0.0107215205 0.004699132 0.0038105412 -0.0016993019 -0.0062949373 -0.01311274
0.0015213245 -0.015246662 -0.014508054 -0.018596722 -0.03837042 -0.027189214 -0.0011763222 -0.01971593
-1.0618726e-09 -2.3255211e-08 -2.3364572e-09 -1.882756e-09 5.4195654e-10 6.7985917e-10 1.0237255e-09 -2.2047344e-09
-7.0055667e-10 -3.3547556e-10 -5.471221e-10 -1.8763349e-09 -5.175634e-09 -7.454713e-10 2.1263529e-09 -9.284868e-10
4.056012e-09 -8.288093e-10 -3.4633119e-09 -9.094567e-09 -2.9800118e-09 6.8667995e-11 -3.055971e-10 -1.6595074e-10
-1.2357849e-09 -5.0267293e-09 -3.1897955e-09 7.0895427e-09 2.3689006e-09 -7.5629766e-11 -3.8676956e-10 -1.0951552e-09
-2.5090682e-10 2.2800124e-09 -3.7357566e-09 3.4688645e-09 -3.802992e-08 2.2505189e-09 -6.7683525e-09 9.723216e-10
-4.5236113e-09 9.794889e-12 4.8997073e-10 7.580288e-10 4.92175e-10 -4.3612345e-09 -1.7341195e-10 2.5163585e-09
-3.101852e-09 2.5006964e-08 -0.10929535 -0.026006844 -0.029212875 -0.0061688665 -0.022762218 -0.06684692
00000000: 4d71 6d3a c176 923c 6088 9e3d 460e 163d
00000010: 98bc 8c3a d2e3 043e 5d21 053d ad33 0ebd
00000020: a5bb 903d 6811 273d 69db b73d eb49 3b3d
00000030: 89cb 973b a4be 373d 3a75 163d 7e3c 3f3b
00000040: 807f abbc 3a72 903c 3bde 3e3c ca2c c2bd
00000050: 3e5a 8cbd 5774 183d eca4 6a3c 8bcd 24bc
00000060: d00f 34bd 6846 f6bc 8906 e2bc a151 393b
00000070: 2a95 333c fc46 53bc d63d 183d 3829 9ebc
00000080: ce4a b63a df89 92bc 49da 0dbd c221 2abd
00000090: 80fe 27bd cc0d 953c 3c8f 34bd 8260 163c
000000a0: 8621 63bd dea0 66bc e9d8 603c 91df 55bb
000000b0: ab03 79bd 6994 2d3b 18af 7c3c 6875 c03c
000000c0: 1143 8f3c 4819 cc3a c02c 933c 1677 e03c
000000d0: 775b 16bb de4e 6a3b 1ce5 22bc 334e 923c
000000e0: 1920 2ebc 425e 6bbc 4e22 1e3d a54a 7c3c
000000f0: dcdc 1cbc c0ef 93bc e6d8 5d3c 386c 383c
00000100: 7246 cd3c f04b 0e3d 5895 bdbc 3c23 65bd
00000110: ce35 1abd 7a3e 913b 4a99 143d db2e 73bc
00000120: 0daa 97bc 6a3c 85bb 5ff5 d83c 5427 173c
00000130: dd3d 9f3c 63cf e939 13da 47bc c191 09bc
00000140: c43e 0e3d 08c5 29bc 5af3 f5bc 7dbe 9e38
00000150: 4e58 fbbc eca2 793c 2223 01bc 12a8 5bbd
00000160: 72a5 073d 7c62 09bc 71b5 daba 4c26 193c
00000170: a532 ca3c df53 b1bb ba2b 7c3c 9170 edbb
00000180: ba3b 7cbb 9ea7 4b3c bf8b 6d3c 5e73 e3bc
00000190: e393 313b a9e0 c23c 98e9 1fbd 1b58 00bc
000001a0: fe8f d43b 4f8a e93c cff3 833b 47b6 0c3c
000001b0: 416e c2bc a3d9 03bd d8b6 ecbb de1a 23bd
000001c0: 3f99 14bd 7f79 4fbd c72c 9bbd d4be 29bd
000001d0: a4f6 1bbd 75f7 1a3d fb29 24bc c50e 31bd
000001e0: 8d30 723c e9ad 4bbd 29db 84bd 49f7 91bc
000001f0: 4a5f 84bd cdd8 b5bc e060 8bbc 4c0a aabc
00000200: 7a15 0fbc b2c5 41bc 9e42 793c 2adf b3bc
00000210: b8a8 0c3d 2f82 b43c 8d5d 303d aedd 843c
00000220: d883 9c3c cf00 433d 186e 323d 4c78 cfbb
00000230: b115 9f3c 1ad1 fa3b f4f8 643d aa58 de3c
00000240: da32 2cb8 03ef 9cbc 59fd 7b3b f938 573a
00000250: 5de0 f9bc 0451 f33c ea57 dabc 4d7b c83b
00000260: aa7b 0b3c a1c2 3f3c c576 05bc 8302 e8bb
00000270: a642 083d 2c62 b23c f3a8 98bc 0687 163c
00000280: 5c9a ab3b 53cd d43b 9842 daba 08cf 043c
00000290: 53f7 1cbd 9300 ac3c 9952 13bb a01a 963c
000002a0: 224c 4a3c 9c9e 163d a023 ff3c 6aa0 27bc
000002b0: e648 4abb 90f5 20bc f542 8dbc 24a6 20bc
000002c0: beee 78bc 2c7a 09bc 8b42 f1bc 105c a3bc
000002d0: 7304 083c 6dbc 123c 9dcb 1c3c 0329 7a3b
000002e0: 4af0 d0bc 8c82 88bc 51a9 2f3c 2dfb 993b
000002f0: 46ba 793b 1cbb deba c345 cebb d1d6 56bc
00000300: 2e67 c73a 23cd 79bc 30b3 6dbc 2758 98bc
00000310: 4d2a 1dbd eabb debc d32e 9aba 4d83 a1bc
00000320: 52f1 91b0 c0c2 c7b2 648f 20b1 cb61 01b1
00000330: cdf8 1430 d6e0 3a30 24b3 8c30 1982 17b1
00000340: 4b91 40b0 fd6d b8af 4c64 16b0 d5f0 00b1
00000350: 5cd5 b1b1 e1e9 4cb0 321f 1231 7338 7fb0
00000360: 0f5d 8b31 45d2 63b0 3aff 6db1 543e 1cb2
00000370: ecc8 4cb1 a500 972e f800 a8af fb76 36af
00000380: 51d8 a9b0 94b7 acb1 7a33 5bb1 4798 f331
00000390: 24ca 2231 c64f a6ae faa0 d4af 5984 96b0
000003a0: ffef 89af 67ae 1c31 105c 80b1 e960 6e31
000003b0: 5756 23b3 8ca7 1a31 0f8f e8b1 86a2 8530
000003c0: 1b6e 9bb1 4250 2c2d a0ae 0630 895d 5030
000003d0: bd49 0730 d3d9 95b1 20ab 3eaf 3fec 2c31
000003e0: 5c28 55b1 e5ce d632 3ed6 dfbd 4e0c d5bc
000003f0: d74f efbc 3424 cabb d577 babc 0ae7 88bd

exp_avg_sq f4 [16, 1, 1, 50]
0.010309944 0.009866687 0.009946583 0.010179731 0.009011996 0.008961556 0.009980865 0.008653336
0.011228346 0.011600234 0.011337697 0.0102870185 0.011565527 0.013063989 0.010301759 0.008244018
0.009887626 0.008302839 0.0100746825 0.010329329 0.010536628 0.009981604 0.013438647 0.011401884
0.011255669 0.010175875 0.011281756 0.008709384 0.008510756 0.010425889 0.0097725615 0.009892938
0.010465586 0.0098283775 0.009696957 0.008449188 0.009033364 0.01024855 0.008527012 0.009826488
0.009468808 0.010177094 0.009445095 0.010784472 0.009996358 0.008757523 0.009698697 0.008933264
0.0107846055 0.011899249 0.004583307 0.004916838 0.005030256 0.0047693304 0.004830057 0.007381409
0.00485002 0.005346829 0.0056076054 0.0050394116 0.004936336 0.007423485 0.006113881 0.00618141
0.0047041043 0.005487888 0.0044300375 0.005124327 0.005255285 0.0048725638 0.0050438377 0.004671762
0.0044563483 0.0054365518 0.0055690785 0.0050251437 0.0057703997 0.005316825 0.004785482 0.005252109
0.00460169 0.004818416 0.0052000685 0.0041468847 0.004978245 0.005192325 0.0055283178 0.0049139773
0.004156059 0.0058334894 0.004705929 0.0057281535 0.005234935 0.0047935955 0.0043849763 0.0058566993
0.004571 0.0052599693 0.0068521085 0.0064638085 0.01614931 0.015956378 0.01612775 0.020104935
0.016740292 0.016733687 0.018261893 0.015010364 0.016002798 0.01580515 0.015754985 0.018441452
0.018991306 0.016664466 0.016252888 0.017100783 0.01651781 0.016693883 0.016315535 0.016001599
0.01646893 0.014409877 0.017686008 0.017757002 0.017795531 0.017784258 0.017032081 0.015733538
0.016402086 0.015507569 0.01659074 0.014089224 0.016232552 0.01462992 0.017046142 0.014680934
0.017263122 0.018180255 0.017475447 0.016433867 0.017958138 0.015404116 0.017347885 0.015764438
0.015857859 0.017585276 0.017644532 0.017714709 0.016745407 0.018676315 0.0085734995 0.007907925
0.00815523 0.00819684 0.008492024 0.007972257 0.008518242 0.008143629 0.007501058 0.008371409
0.0071799736 0.0068996428 0.007466922 0.008209411 0.0079684155 0.008299805 0.007369209 0.007763102
0.008122989 0.008222691 0.0075900066 0.007977089 0.0076205772 0.008010664 0.008435594 0.007969806
0.008277027 0.009030387 0.008150838 0.007750999 0.006888077 0.007847457 0.00862576 0.008470662
0.006759353 0.0058360966 0.006904257 0.007575622 0.007813864 0.007680258 0.008243486 0.0077834497
0.00705977 0.008323397 0.0076551903 0.0076787514 0.007721476 0.008748482 0.008430645 0.008399343
9.4625716e-07 1.2146751e-06 6.399691e-07 6.822789e-07 7.723685e-07 8.201687e-07 6.265961e-07 6.1007086e-07
5.2012643e-07 4.6763958e-07 4.920634e-07 6.0239773e-07 7.095945e-07 6.2762325e-07 6.652459e-07 6.363218e-07
7.835508e-07 6.2779213e-07 7.8414234e-07 9.78017e-07 6.732018e-07 4.868092e-07 6.7399236e-07 4.7504162e-07
5.5793726e-07 8.986975e-07 7.925728e-07 7.995742e-07 7.557655e-07 3.9484942e-07 5.17715e-07 7.287848e-07
5.612058e-07 7.772399e-07 8.4637054e-07 7.7163435e-07 9.905414e-07 8.436141e-07 9.614068e-07 5.711604e-07
7.442303e-07 6.0354125e-07 7.0378576e-07 4.9773854e-07 5.792655e-07 7.790028e-07 5.54749e-07 7.101616e-07
8.1310276e-07 1.1603701e-06 0.017452417 0.01831809 0.016197838 0.018887604 0.019345002 0.017178928
00000000: 0aeb 283c e2a7 213c fef6 223c e3c8 263c
00000010: 0da7 133c 7dd3 123c c886 233c b9c6 0d3c
00000020: 19f7 373c e80e 3e3c bfc1 393c e28a 283c
00000030: 567d 3d3c 570a 563c b5c8 283c eb11 073c
00000040: b6ff 213c a108 083c 4810 253c 593c 293c
00000050: d2a1 2c3c e289 233c c52d 5c3c f8ce 3a3c
00000060: b369 383c b7b8 263c 1dd7 383c ceb1 0e3c
00000070: b370 0b3c 59d1 2a3c 181d 203c fd15 223c
00000080: d977 2b3c 3407 213c fcdf 1e3c 776e 0a3c
00000090: ad00 143c 89e9 273c e1b4 0b3c 47ff 203c
000000a0: 0f23 1b3c d3bd 263c 9abf 1a3c 5bb1 303c
000000b0: c4c7 233c b77b 0f3c 49e7 1e3c d35c 123c
000000c0: eab1 303c 11f5 423c 912f 963b 6d1d a13b
000000d0: d9d4 a43b 0b48 9c3b 7445 9e3b bfdf f13b
000000e0: ebec 9e3b 7434 af3b 01c0 b73b a621 a53b
000000f0: fdc0 a13b b540 f33b f356 c83b 6d8d ca3b
00000100: e324 9a3b bed3 b33b d929 913b f8e9 a73b
00000110: 8734 ac3b 07aa 9f3b c746 a53b 9515 993b
00000120: 8f06 923b 1a25 b23b d17c b63b f6a9 a43b
00000130: 9f15 bd3b c338 ae3b 88cf 9c3b e219 ac3b
00000140: c6c9 963b cee3 9d3b 5665 aa3b 97e2 873b
00000150: 8c20 a33b 6124 aa3b e426 b53b 6e05 a13b
00000160: 8d2f 883b db26 bf3b 3234 9a3b 3cb3 bb3b
00000170: d189 ab3b 9813 9d3b d9af 8f3b 8ee9 bf3b
00000180: 54c8 953b d25b ac3b a787 e03b 5bce d33b
00000190: 8f4b 843c f3b6 823c 581e 843c 1bb3 a43c
000001a0: f022 893c 1615 893c f799 953c 08ee 753c
000001b0: 4d18 833c cd79 813c 9910 813c 8712 973c
000001c0: a893 9b3c eb83 883c c724 853c f116 8c3c
000001d0: 5c50 873c 9cc1 883c 28a8 853c c915 833c
000001e0: d9e9 863c 6817 6c3c 3fe2 903c 2277 913c
000001f0: efc7 913c 4bb0 913c dd86 8b3c 9fe3 803c
00000200: ab5d 863c 7513 7e3c 4ee9 873c 7dd6 663c
00000210: 21fa 843c 55b2 6f3c 5aa4 8b3c 4d88 703c
00000220: 646b 8d3c c2ee 943c ab28 8f3c 51a0 863c
00000230: f21c 933c 8c61 7c3c 271d 8e3c 6c24 813c
00000240: 57e8 813c ff0e 903c 448b 903c 701e 913c
00000250: aa2d 893c 12ff 983c dd77 0c3c 3e90 013c
00000260: 849d 053c 0a4c 063c 2122 0b3c 129e 023c
00000270: 1990 0b3c db6c 053c 6fcb f53b 3c28 093c
00000280: fc45 eb3b 6616 e23b 15ad f43b c480 063c
00000290: f58d 023c e8fb 073c 6879 f13b 9f61 fe3b
000002a0: 4916 053c 77b8 063c 97b5 f83b 56b2 023c
000002b0: 09b6 f93b 293f 033c 7235 0a3c ca93 023c
000002c0: 5e9c 073c 30f4 133c 188b 053c 18fc fd3b
000002d0: 61b5 e13b 9f92 003c 0f53 0d3c 88c8 0a3c
000002e0: 907d dd3b ba3c bf3b 1b3d e23b ec3c f83b
000002f0: b905 003c acaa fb3b b00f 073c 4f0c ff3b
00000300: a555 e73b db5e 083c 64d8 fa3b 099e fb3b
00000310: 6f04 fd3b cb55 0f3c b020 0a3c 669d 093c
00000320: 4c02 7e35 eb07 a335 57ca 2b35 d925 3735
00000330: c254 4f35 9029 5c35 5b33 2835 c0c3 2335
00000340: d19e 0b35 e50f fb34 5716 0435 75b4 2135
00000350: f67a 3e35 f179 2835 5a93 3235 b3cf 2a35
00000360: 3355 5235 8c85 2835 da7d 5235 6944 8335
00000370: 13b6 3435 46ad 0235 67ec 3435 3909 ff34
00000380: 28c5 1535 063e 7135 30c1 5435 52a2 5635
00000390: cfdf 4a35 b1fb d334 1bf9 0a35 b6a1 4335
000003a0: c5a5 1635 85a3 5035 2432 6335 4f22 4f35
000003b0: bef2 8435 b874 6235 b009 8135 d851 1935
000003c0: 1ec7 4735 0a03 2235 caeb 3c35 559c 0535
000003d0: d27e 1b35 aa1c 5135 10ea 1435 efa1 3e35
000003e0: ff43 5a35 03be 9b35 5ff8 8e3c d20f 963c
000003f0: 54b1 843c 2dba 9a3c 6979 9e3c d3ba 8c3c

exp_avg f4 [16]
-1.5191423e-09 -3.1085752e-09 -1.5361556e-08 1.406256e-08 0.0 4.9186473e-09 1.7555283e-08 1.4475282e-10
-9.078073e-09 1.0783077e-08 5.8202276e-10 6.9081507e-10 1.38521346e-08 5.702116e-10 6.2938135e-09 3.900461e-09
00000000: 11ca d0b0 a29e 55b1 6bf4 83b2 cb97 7132
00000010: 0000 0000 e100 a931 7acc 9632 4c28 1f2f
00000020: caf5 1bb2 7940 3932 36fc 1f30 cae3 3d30
00000030: 55fa 6d32 13bd 1c30 f840 d831 d104 8631

exp_avg_sq f4 [16]
4.1854083e-14 7.012134e-13 4.162207e-14 3.2762404e-14 2.4519966e-14 6.6912635e-14 3.750753e-14 2.3880203e-13
1.0620663e-13 4.0802594e-14 8.673848e-14 1.0905499e-13 2.6027303e-14 4.6480205e-14 4.377216e-13 1.8113645e-14
00000000: 797e 3c29 c05f 452b fb72 3b29 7b8c 1329
00000010: 31db dc28 82ac 9629 3deb 2829 006f 862a
00000020: f427 ef29 30c2 3729 5451 c329 ec91 f529
00000030: e06e ea28 0754 5129 556a f62a 3927 a328

exp_avg f4 [16]
-0.13514362 0.10297229 -0.07007974 -0.0012153618 2.0611974e-06 -0.019700358 -0.033414256 0.0675116
0.099976614 0.058789656 0.070130095 -0.02969505 0.04046339 0.02914945 -0.06620544 0.06393223
00000000: 1763 0abe 23e3 d23d f785 8fbd c64c 9fba
00000010: 1a53 0a36 a562 a1bc 63dd 08bd 8643 8a3d
00000020: 8ac0 cc3d 6ccd 703d 5ea0 8f3d 0943 f3bc
00000030: f1bc 253d d4ca ee3c b896 87bd e7ee 823d

exp_avg_sq f4 [16]
0.040705156 0.089356 0.08197131 0.02376305 4.0466257e-05 0.058390513 0.032296833 0.015525247
0.089780636 0.022286192 0.044058044 0.020348953 0.018450057 0.05216643 0.02517696 0.0104073305
00000000: 73ba 263d 4700 b73d 93e0 a73d baaa c23c
00000010: 50ba 2938 e42a 6f3d af49 043d 9b5d 7e3c
00000020: e9de b73d 8891 b63c 3576 343d d9b2 a63c
00000030: 9324 973c 77ac 553d e93f ce3c 8283 2a3c

exp_avg f4 [16]
-0.028641032 -0.015732095 -0.04137525 -0.010140219 -2.442265e-06 -0.0011252768 0.02139935 0.026013393
0.038442124 0.003786113 0.063644074 0.016834501 -0.0004223548 -0.004041544 -0.042146776 0.032292902
00000000: 99a0 eabc 98e0 80bc 1879 29bd 2923 26bc
00000010: cbe5 23b6 067e 93ba b14d af3c 0a1a d53c
00000020: 7d75 1d3d 7020 783b d357 823d 82e8 893c
00000030: 806f ddb9 ee6e 84bb 19a2 2cbd 9045 043d

exp_avg_sq f4 [16]
0.012956407 0.012510304 0.01957784 0.008795193 7.796965e-06 0.018047933 0.009723153 0.00388419
0.025863789 0.0039996332 0.019061353 0.00529199 0.0047237272 0.020266002 0.007948397 0.0023027048
00000000: 1c47 543c 05f8 4c3c b561 a03c b719 103c
00000010: b6cf 0237 42d9 933c dc4d 1f3c e58d 7e3b
00000020: 4ce0 d33c 5b0f 833b 8e26 9c3c 6e68 ad3b
00000030: 7fc9 9a3b e304 a63c fe39 023c fae8 163b
