images/EEG-transfer-learning_results/params.pth (torch_old, 136099 bytes, 17 tensors)

emb.spatial_conv.weight f4 [2, 1, 2, 1]
000000 19 8d 37 bf e2 cc 8a 3e a0 70 e6 3e 9a 1e 48 3f
       -0.7169967 0.27109438 0.450078 0.78171694

emb.spatial_conv.bias f4 [2]
000000 7e 3d 31 be 0b d7 85 be
       -0.17308614 -0.26140627

emb.feature_extractor.0.weight f4 [16, 1, 1, 50]
000000 3f 1d b7 bd 43 a8 e2 3d 56 49 05 3e f7 e9 88 3d
       -0.08941125 0.110672496 0.13016257 0.0668525
000010 a5 e0 41 bd 67 50 b7 3d 46 8d db bd 4a e9 20 3c
       -0.04733338 0.089508824 -0.10720305 0.009821245
000020 13 25 09 be 19 75 f3 bc 74 38 4d 3e ba 4d 1f bd
       -0.13393049 -0.029718922 0.20041066 -0.038892485
000030 e2 35 1c 3e 7a 3b f9 3d 23 63 21 ba 6a 97 35 be
       0.1525493 0.121695474 -0.0006156435 -0.17733541
000040 45 b7 ff bd 50 e3 82 be b8 aa 56 bd c6 40 b1 3c
       -0.12486128 -0.2556405 -0.052408904 0.021637332
000050 b2 22 e5 3c 58 c3 d1 3d 6b 9e 99 3e 6d 0d 6d 3e
       0.027970646 0.10242337 0.30003676 0.23149653
000060 5f 3a 4d bd 2f 0e ea bd d0 32 2e bd ca ff ee bd
       -0.050104495 -0.114284866 -0.042528927 -0.11669882
000070 87 d0 3c bd 46 e8 5b bd 70 d8 37 3e 12 11 8c bd
       -0.046097305 -0.05368831 0.17953658 -0.068391934
000080 01 14 45 3e bf 6b 94 3c 6d 76 15 be 3e 9c f8 bd
       0.19245912 0.018117784 -0.14595957 -0.12139176
000090 5b 56 93 bd ae e3 86 be e2 d2 d4 3d b0 0e a7 b9
       -0.071942054 -0.2634558 0.10391785 -0.00031863665
0000a0 c9 6b 27 3e 77 1d 44 3e d9 ce 50 3e 6b 47 28 be
       0.1634971 0.19151865 0.20391406 -0.16433494
0000b0 9f 82 d1 bd 8f 6c 3c be dc f1 7e be 19 4a 54 be
       -0.10229992 -0.18400787 -0.2489695 -0.20731391
0000c0 d9 8a 82 be 01 d3 0d be d1 04 4f bd 7c 1d 94 3e
       -0.25496557 -0.13850023 -0.050541703 0.28928745
0000d0 5b 87 24 3e 44 ea a3 bd 1b 70 e3 bc d3 a3 36 3e
       0.16067259 -0.08003667 -0.027763417 0.17835931
0000e0 80 c0 54 3e b8 b7 a8 3d 7b ad ab bd f0 4d a3 bb
       0.20776558 0.082381666 -0.08382698 -0.004983656
0000f0 00 69 20 3e c3 15 39 3e 6a 5a 89 bd eb 1c 2b 3e
       0.15665054 0.18074708 -0.06706698 0.1671025
000100 56 80 b1 3b c9 69 31 bb e2 30 c3 bd 4a 78 23 3e
       0.00541691 -0.002707111 -0.09530808 0.15963855
000110 36 de 0b be 96 ab 05 be 8c 60 40 3e 45 aa 44 3d
       -0.13658985 -0.13053736 0.1878683 0.048013944
000120 48 5e bf bd 6e 20 d4 bd 93 54 50 3e 66 e7 a9 bd
       -0.093441546 -0.10357748 0.20344763 -0.08296089
000130 d4 22 c7 bd a5 65 d9 3d b9 b1 37 3e 50 5b 48 be
       -0.0972344 0.1061509 0.1793889 -0.19566083
000140 38 3a ea bd 1c f0 42 bc 49 06 73 3e 25 77 80 bd
       -0.114368856 -0.011898067 0.23732866 -0.06272725
000150 9e a2 96 bd 24 3b bd 3d 9f 6f 0b be 22 b3 78 3d
       -0.073552355 0.09239796 -0.13616799 0.06071771
000160 15 73 29 3e 16 10 95 3d 93 da f5 bd 1a 7c 81 bd
       0.16547807 0.07278459 -0.1200458 -0.063224986
000170 c6 22 82 3c 41 10 26 3e 6e db 66 3e 80 c6 c9 bc
       0.015885722 0.16217138 0.22544643 -0.024630785
000180 ea 8e 11 be b8 73 c3 3d 5a 95 1e 3e 79 ef 3a 3d
       -0.14214674 0.09543556 0.1548666 0.045638535
000190 21 21 0f be 48 5f ef 3d aa 6e 3f 3e 73 81 09 be
       -0.13977481 0.11688095 0.18694559 -0.13428287
0001a0 de 44 bc bd a1 d1 fa 3d b9 56 36 3d 74 84 a1 bd
       -0.09192823 0.12247015 0.0445163 -0.078865916
0001b0 d7 24 6f bd f6 f3 3f bd 1b 27 49 bd a7 ba 82 bd
       -0.058384743 -0.04686352 -0.04910956 -0.06383257
0001c0 8e e4 cd 3c 2f 27 62 bd 1c 3f bd bd b1 99 f1 bd
       0.025133397 -0.05521315 -0.09240553 -0.117968924
0001d0 11 74 73 bd 40 2d a7 bc 15 08 c1 3d ae a0 64 be
       -0.05943686 -0.02040732 0.0942537 -0.2232692
0001e0 da 06 06 3b de 31 1c 3e 66 ab ba 3d e1 f7 0c 3e
       0.0020450861 0.15253398 0.09114723 0.13766433
0001f0 ad 28 9c ba 99 27 94 3d 7c 5e 8b 3e f7 1f 8d bb
       -0.0011913978 0.07234115 0.27220523 -0.004306789
000200 95 fb 01 3e 28 fd 35 3e 67 49 6c 3d 3b 40 f5 3d
       0.12693627 0.17772353 0.05768719 0.119751416
000210 1c 16 19 3e 76 4d 09 3d 9a 61 60 3d 3b 5c 01 3e
       0.1494984 0.033521138 0.05478058 0.1263284
000220 f7 d2 30 bd db 46 56 be 63 21 91 bd 53 cb 40 be
       -0.04316994 -0.20925467 -0.07086446 -0.18827562
000230 a8 e3 af bd c8 df 40 be 59 83 18 be 25 91 e3 bd
       -0.08588344 -0.18835366 -0.14893855 -0.111116685
000240 7a be 90 bd f5 8e 92 bd c7 3c 18 be 8f 86 1b 3d
       -0.070675805 -0.07156173 -0.14866935 0.037970122
000250 a4 36 fd bd 05 5b 9e bd 8c f4 0a 3c 7a 1b 19 be
       -0.123639375 -0.07732204 0.008481156 -0.14951888
000260 d1 ee 8f bd 3f 61 64 bd e3 63 c0 3d 94 b9 7e 3d
       -0.070279725 -0.055756804 0.09394052 0.0621887
000270 79 ea 36 3d 36 d3 01 3d a7 7a e1 3d d4 a4 ab 38
       0.044657204 0.031695567 0.11009722 8.184617e-05
000280 e4 ca 38 3e e0 4f 77 bc b2 5f dc 3d 97 27 d1 bc
       0.18046147 -0.015094727 0.1076044 -0.025531573
000290 8a bc 6a 3e be 77 13 3e 2c 97 cb 3e 8c 52 46 3e
       0.22923484 0.14401147 0.39763772 0.19367427
0002a0 02 c9 2c 3d 23 9f fa bb 93 2d 4e be 51 8b d0 3c
       0.042183883 -0.007648365 -0.20134573 0.025457056
0002b0 41 e0 be 3d 01 14 9e 3e 1b a9 48 3e 6f 78 1e 3e
       0.09320117 0.30874637 0.19595759 0.1547563
0002c0 6b 79 0e be 5d 6e 90 be 7a 0a dd be 25 7d 76 be
       -0.13913505 -0.282092 -0.43172055 -0.24071176
0002d0 70 57 1b 3e 69 6e 99 3e b4 20 6c 3e 8b 94 0b 3d
       0.15170074 0.2996705 0.2305935 0.03407721
0002e0 e4 c4 8c be 42 0b fd be 4d a0 97 be 86 fc 62 be
       -0.27493966 -0.49422652 -0.29614487 -0.22166643
0002f0 36 5e 58 3e 1e 13 51 3e 54 49 2b 3e 33 6f 52 3d
       0.21129689 0.20417449 0.16727191 0.05137558
000300 c5 7f 90 be 53 9d c3 be 34 81 92 be ac 3c d7 3d
       -0.2822248 -0.38205966 -0.286142 0.10509619
000310 1d dd 8b 3e c5 c6 00 3e 37 ec b4 3d b5 96 c7 be
       0.27317134 0.12575825 0.08834117 -0.38982168
000320 6e 9e 5a 3d eb 11 1a 3e 22 b3 d6 bd a6 06 b6 3c
       0.053373747 0.15045898 -0.104833856 0.022219967
000330 2c d9 ec bd 87 89 5e 3d 20 72 ed 3d 15 95 83 3d
       -0.1156486 0.054330375 0.11594033 0.064249195
000340 b7 97 3c 3e f9 1d 3d 3e c8 37 a8 3e 2f bc 0d bd
       0.1841725 0.18468465 0.32855058 -0.034603294
000350 12 0a 1b 3d 6a 63 8d 3d 5d c4 4b be e9 42 2b be
       0.0378514 0.06903727 -0.19899125 -0.16724743
000360 2d 47 7b 3d b7 7a 10 3e ea f4 29 3e 91 89 7b 3e
       0.061347175 0.14109312 0.16597334 0.24564196
000370 9c ff a7 3e e4 96 a3 3e 45 a4 07 bd 95 f7 ee bd
       0.32812202 0.31951058 -0.033115644 -0.11668316
000380 db 14 23 bd 2b 98 da bd 9d 12 5c bd 75 e6 f1 3d
       -0.03981481 -0.10673555 -0.05372869 0.11811534
000390 07 e4 fa 3d 20 30 36 3e ff 3d 27 bb 88 6e 91 3d
       0.12250524 0.17791796 -0.002551913 0.0710116
0003a0 69 37 20 be ba 97 a4 be 4f d7 de be 4d ae 75 be
       -0.15646137 -0.32147008 -0.43523642 -0.23992272
0003b0 3b e3 0c be a5 91 f6 bd 04 d0 e2 3c bb 86 17 3e
       -0.13758557 -0.12039498 0.02768708 0.1479749
0003c0 a8 0a 05 3d 14 c8 b6 bd fa 16 40 be 95 19 9c be
       0.032480866 -0.089248806 -0.18758765 -0.30488268
0003d0 48 95 b1 be a7 6a 94 be 8e 6e 90 be ad 1b 6b be
       -0.34684205 -0.2898762 -0.28209347 -0.22959776
0003e0 46 39 28 bc c3 77 ec bd 06 54 9a be 76 89 73 bd
       -0.010267561 -0.1154628 -0.3014223 -0.059457265
0003f0 6c 6f 45 3d 75 42 5b 3e c7 87 73 3d 1b 0b 5f 3d
       0.048201963 0.2141207 0.05945566 0.05445395

emb.feature_extractor.0.bias f4 [16]
000000 c1 e5 de 3c 19 9e 48 be a9 ce 78 3d 2c 57 b6 bc
       0.027209165 -0.1959156 0.06074396 -0.022258364
000010 e7 30 89 3d 79 b9 a9 3d 31 67 58 bd 5a 9e 0e 3e
       0.066987805 0.08287329 -0.052832786 0.13927594
000020 80 55 c7 bd 57 2b e7 3b 2e 19 c5 3d 22 b8 dc bd
       -0.09733105 0.007054727 0.09623943 -0.10777308
000030 61 ff 0e 3d 43 ed 8f 3d 87 d9 2c 3e 17 a0 11 bc
       0.034911517 0.07027676 0.16879855 -0.008888266

emb.feature_extractor.1.weight f4 [16]
000000 77 cc 24 3f c8 8f 1a 3f 48 69 39 3f 4b 32 c2 3f
       0.6437449 0.6037564 0.7242627 1.5171598
000010 90 ea 14 3f b4 44 3e 3f f1 31 56 3f e2 76 14 3f
       0.58170414 0.7432358 0.83669955 0.579939
000020 91 19 4a 3f 56 f5 b4 3f 48 b2 ab 3f 9c 72 3a 3f
       0.7894526 1.413737 1.3413782 0.7283113
000030 10 0e 7d 3f 12 a1 2a 3f a6 45 3d 3f 5d 68 25 3f
       0.9884958 0.66652024 0.739344 0.6461237

emb.feature_extractor.1.bias f4 [16]
000000 f3 5d d2 bd 27 3f dc 3e 17 ce 7d bf 44 dc 58 be
       -0.10271826 0.4301693 -0.99142593 -0.21177775
000010 e5 48 32 3c 36 d4 44 be 0e 5e a7 bd 48 0b 9f bd
       0.010881637 -0.19221577 -0.081722364 -0.077658236
000020 1e e6 3e bf e6 ad db 3e 87 0d 39 3d 56 30 04 bf
       -0.7456988 0.4290611 0.045178916 -0.51636255
000030 f9 fe d5 3e d6 5e 30 be 18 1e 81 be ca da 02 3d
       0.4179609 -0.17223677 -0.25218272 0.031946935

emb.feature_extractor.1.running_mean f4 [16]
000000 f6 b9 1b 3e a6 fb 0d bf dd 9c 4a 3e 6a 34 5f bd
       0.15207657 -0.5546211 0.19786401 -0.054493345
000010 1b be 82 3e cb 29 0f 3e f9 21 02 3d 76 54 02 bf
       0.25535664 0.13980787 0.03177068 -0.5091013
000020 bf 58 13 3f 97 c0 57 3c 27 c3 18 bd 00 f3 93 3e
       0.5755729 0.013168476 -0.037295487 0.28896332
000030 7d ab e1 bc 67 d2 3e 3f d4 a6 9e be ac b5 4b bf
       -0.027547592 0.745398 -0.30986655 -0.79574084

emb.feature_extractor.1.running_var f4 [16]
000000 4a ac 40 3f 61 56 49 3f 3f d3 6b 3f 0d f6 df 3f
       0.7526289 0.7864743 0.9211921 1.7496964
000010 e0 7b 7e 40 27 04 31 3f bf d9 e4 3f 6b 31 1c 40
       3.9763107 0.6914696 1.7878951 2.4405162
000020 3a fc 1e 40 9e 2d ca 3d a5 58 b9 40 6c 89 71 3f
       2.4841447 0.09871982 5.792071 0.94350314
000030 06 d2 1f 3e 4c c8 19 40 1d 87 ae 3f 19 c8 78 40
       0.15607461 2.4028502 1.3634983 3.887213

emb.feature_extractor.4.weight f4 [16, 16, 1, 50]
000000 a4 b5 a2 3c bb 25 5e 3d a5 c7 19 3c e7 25 99 bb
       0.019862004 0.0542352 0.009385978 -0.0046737078
000010 6a 62 ef bc 49 43 92 3d fe e7 90 3b 76 11 40 3d
       -0.029221732 0.0714174 0.004422187 0.046891652
000020 63 a0 e6 bc e5 4a 8c 3c 19 4e cd 3d f4 eb b3 3c
       -0.02815265 0.017125556 0.100246616 0.021963097
000030 88 00 cc bc 8c 20 7e bd f2 80 e3 bd a4 37 27 bd
       -0.024902597 -0.062042758 -0.11108579 -0.040824547
000040 71 08 44 bd a8 0b a2 bc bb 1c a8 3c b1 4b 00 bb
       -0.047859613 -0.019780949 0.020521512 -0.0019576366
000050 24 89 98 3d 13 23 c6 3c 1d 8a 40 3d 97 79 c5 3c
       0.074480325 0.024186647 0.047006715 0.02410583
000060 37 3a 0b 3d 70 f7 a3 3d 9f ad 93 3c 65 59 12 3e
       0.033991065 0.08006179 0.018027125 0.14291914
000070 4a de 6f 3d 82 c8 11 bc cf ad 54 bd c0 c8 af 3c
       0.0585616 -0.008897902 -0.05192357 0.02145803
000080 7b 1e a8 bc f0 57 96 3d de 41 3c 3d 86 df b2 bc
       -0.020522347 0.073409915 0.045961253 -0.0218351
000090 2f 99 99 3d 16 8c 99 3d 4b 7c b9 3d 45 f4 d5 3d
       0.074999206 0.074974224 0.0905691 0.10446981
0000a0 10 f2 3f bd 0f e8 2c 3a 46 de 5b bb 45 68 98 bb
       -0.04686171 0.0006595859 -0.0033549233 -0.004651102
0000b0 07 80 6e 3d fa 27 20 3d cf 58 85 3d 7e 6e 24 3e
       0.058227565 0.039100625 0.065110795 0.16057774
0000c0 29 d1 20 3e 97 ed af 3d fd f4 08 bc 7a 68 3b bc
       0.15704788 0.085902385 -0.008359191 -0.011438483
0000d0 5f 28 3a 3d 11 5e 0f 3c a3 e7 83 bb 91 03 50 3d
       0.045448657 0.0087504545 -0.004025416 0.05078465
0000e0 b4 fd ab 3d a2 b3 1c bd 1c 8f fc bd d9 7e ed bd
       0.083979994 -0.03825725 -0.123319834 -0.1159646
0000f0 6c 98 0a be a8 2e c1 bd de ae 1b bd f8 3a 2c 3b
       -0.13534707 -0.09432727 -0.038008563 0.0026280265
000100 a9 f4 8f 3c ee 18 f7 3d f2 95 03 3e 55 f8 9d 3d
       0.017572718 0.12065302 0.12850168 0.07713381
000110 81 03 81 3d eb 66 67 bd c1 11 a8 bd 32 43 0e be
       0.062994964 -0.056494635 -0.08206511 -0.1389282
000120 30 14 14 be 7d 1c 16 be 33 ae 23 bd fd 01 6d bc
       -0.14460826 -0.14659305 -0.03996105 -0.014465806
000130 97 2a 45 3d 4f 2f 8f 3c 91 a1 4b 3c 45 8a 7a 3d
       0.04813632 0.017478613 0.012428657 0.06116702
000140 ea 5a 10 3d 6c 13 f5 bd be 8d e2 bd 66 e7 09 be
       0.035242952 -0.11966595 -0.110621914 -0.13467178
000150 32 dc 02 be fd b0 1d bd 19 1c 05 bd 6b 86 9f bd
       -0.1277931 -0.038498867 -0.0324975 -0.0778931
000160 0d 37 38 bd 5e da 71 bd 7b 6e 3d bd c8 15 22 bd
       -0.044974376 -0.05904614 -0.04624794 -0.039571553
000170 03 41 bb ba f2 57 8b 3c 39 32 b6 bd df 07 86 bd
       -0.0014286343 0.017009709 -0.08896298 -0.0654447
000180 0b 43 a4 bc e2 62 d9 bc c0 40 1b bd e7 a7 f5 bc
       -0.0200515 -0.026536409 -0.037903547 -0.029987289
000190 37 25 ac 3d 6e bf c1 3c fe 2e d3 bd bc e4 96 3b
       0.08405536 0.023650851 -0.103116974 0.004604904
0001a0 b7 b8 ac bd 45 4e 9d bd 24 a1 55 3a 64 b2 8f bd
       -0.08433669 -0.07680944 0.0008149317 -0.07016447
0001b0 75 99 29 bd a1 67 cb bc 2c d9 a2 3b bc 13 22 bb
       -0.041406114 -0.024829688 0.0049697366 -0.0024731
0001c0 8a 4e c8 bb 80 78 04 be d4 13 25 be 6c df c8 bd
       -0.006112878 -0.12936592 -0.16120845 -0.09808239
0001d0 20 3f 17 be 43 7a 96 bd 87 e5 fb bd d2 4c 01 be
       -0.14770174 -0.07347538 -0.12299638 -0.12626961
0001e0 c3 21 01 be ca 82 65 bd 9a a9 17 bd 8e 18 6a bd
       -0.12610535 -0.056032933 -0.03702698 -0.057152323
0001f0 f6 40 09 3d af 1e c5 bc ee 3e 24 bd 01 e9 80 bd
       0.033509217 -0.024062483 -0.040099077 -0.06294442
000200 19 69 90 bd 48 bb dc bd b2 21 7c bd 35 80 0e bd
       -0.07051296 -0.107779086 -0.06155557 -0.034790237
000210 da 5d 61 bd 9f 78 f9 3c 11 43 3c bd 23 41 bc bd
       -0.055021144 0.030453024 -0.045962397 -0.09192111
000220 d2 c0 58 bd 53 ab 8f bd c8 50 23 bd 86 f4 61 bd
       -0.052918263 -0.070150994 -0.03987196 -0.055164836
000230 b9 67 e5 bc bb e5 09 3d 08 63 84 bb fe b5 9b bd
       -0.02800356 0.033666354 -0.0040401258 -0.07603072
000240 dc 73 c2 bd 62 e2 d4 bc 75 85 95 bd 6c c6 3a bc
       -0.09494755 -0.025986854 -0.073008455 -0.0113998465
000250 5a ca 0e be b1 97 c5 bc a1 5c bc bd 03 e5 34 3d
       -0.13944378 -0.024120184 -0.09197355 0.044163715
000260 58 a4 16 3c 98 a3 0a bd 36 26 a8 bb 01 70 cf 3d
       0.009194456 -0.03384742 -0.005131508 0.10128785
000270 f6 ed 82 3c 89 f0 1b bd c6 f7 05 bd 5f 28 64 bc
       0.01598261 -0.03807119 -0.032707 -0.013925641
000280 16 ac c1 3b c6 19 4c bd 36 91 08 be c8 57 3d be
       0.005910407 -0.049829267 -0.13336644 -0.18490517
000290 fc 63 54 3d 13 15 cf 3d d8 6d 26 3e 78 99 c8 bd
       0.051853165 0.101114415 0.1625284 -0.09794897
0002a0 8d 9b d8 3b 28 a7 40 3d 45 ff 59 bc 49 e7 a1 3c
       0.00661034 0.047034413 -0.01330549 0.019763606
0002b0 6c 08 98 bd a7 aa 86 bd bd 82 75 bc 15 11 ce 3b
       -0.07423481 -0.06575518 -0.014984784 0.0062886574
0002c0 04 37 65 bd 00 09 14 3d c3 7d 73 3d b0 df 0d 3e
       -0.05596067 0.036141396 0.059446108 0.13854861
0002d0 b1 30 9a bc 5e 14 ba 3b ab 57 d6 3d b8 c1 cb bd
       -0.018822046 0.0056786975 0.1046594 -0.09949058
0002e0 50 d4 cb bc a6 f9 ff 3d ea f9 b0 3d 30 6c 05 3e
       -0.024881512 0.124987885 0.08641417 0.13029552
0002f0 b4 32 29 3d 17 c9 2e 3e 30 84 14 3d aa 3d 93 3c
       0.04130812 0.17068897 0.036258876 0.01797374
000300 97 96 f0 3d a4 71 e4 3d b9 46 28 3d 00 aa ef 3c
       0.11747473 0.11154488 0.04108307 0.029255867
000310 3d 63 3a 3d 95 cd 5a bd 84 26 ae 3d 34 09 b0 bb
       0.045504797 -0.053418715 0.0850344 -0.005372191
000320 d6 77 18 3d 1c 2b 0f 3e 84 47 88 3d c4 d0 65 3d
       0.03722366 0.13981289 0.066542655 0.056107298
000330 fa 37 51 3c 78 23 de 3c 5b 10 fc 3c 90 6b 38 3d
       0.0127696935 0.027116522 0.030769518 0.045024455
000340 1a 74 bb 3d d9 17 c6 3d 41 ce 54 3d a1 79 65 3d
       0.09153004 0.09672517 0.05195451 0.056024197
000350 94 d6 a9 bd d2 60 1d be be 45 09 be 06 0a 91 3c
       -0.08292881 -0.15368965 -0.13405511 0.017704975
000360 c1 16 97 3d 26 58 67 3d 40 25 76 3d 88 32 ba 3d
       0.07377387 0.05648055 0.060094118 0.09091669
000370 ee 43 93 3d 9a ea 65 3d 20 17 94 3c a7 08 66 3c
       0.07190691 0.056131937 0.018077433 0.014040149
000380 f0 17 46 3d 83 b7 ae 3d 1f 2d 2a bd 20 7f c8 3d
       0.048362672 0.08531096 -0.041546937 0.09789872
000390 3c b7 00 3e 8d e7 0b 3e ab 55 31 3d f8 4b 38 bc
       0.12569898 0.13662548 0.04329459 -0.011248581
0003a0 5b 24 3b 3e fb 86 75 3e 54 98 93 3e 69 93 81 3d
       0.18275587 0.23977272 0.28827155 0.063269444
0003b0 99 3a cf 3c c9 e9 82 3c 2b ad 38 39 39 7b 89 bc
       0.025296496 0.015980618 0.00017612118 -0.01678239
0003c0 b4 e1 ef bc 7c d7 74 bd 91 e5 86 3c c9 d3 ce 3c
       -0.029282428 -0.059775814 0.016466888 0.025247471
0003d0 8f 9a 51 3d 6f 7b 08 3e cb cc c7 3d 26 5c a3 3c
       0.05117279 0.13328336 0.09755858 0.0199414
0003e0 e8 d7 7a 3d 9b 5a d1 3d 84 ef b7 bd 75 95 08 be
       0.06124106 0.1022236 -0.08981231 -0.13338263
0003f0 81 68 86 3d d7 28 c2 3b 47 45 62 3d 5a 9a 9d bd
       0.06562901 0.0059252786 0.05524185 -0.07695456

emb.feature_extractor.4.bias f4 [16]
000000 fe 1e 4f bc dc 57 81 3c ff d3 49 bd ec 11 16 bb
       -0.012641666 0.015788965 -0.04927444 -0.0022898866
000010 94 64 0e 3d 83 9e ef bc 5e 12 b8 bb ad 45 01 bd
       0.034763888 -0.029250389 -0.005617424 -0.03156059
000020 1b f6 87 3c 27 56 33 bd dc 17 c3 3c ba c0 04 bd
       0.016596844 -0.043783333 0.023815088 -0.03241036
000030 8c 75 8d 3b bd 48 42 bc 91 7f 26 bd 60 6d 36 bd
       0.004316991 -0.0118581625 -0.040649 -0.044537902

emb.feature_extractor.5.weight f4 [16]
000000 6f 3d 40 3f 00 d2 be 3e 42 98 aa 3e cd 73 bc 3e
       0.7509374 0.37269592 0.33319288 0.368071
000010 49 0d c3 3e e2 74 35 3f 74 ec b6 3e 5d 1c 03 3f
       0.38096073 0.70881474 0.35727274 0.51215154
000020 fa 77 21 3f c8 3d f9 3e c7 4c 41 3f ae af 39 3f
       0.63073695 0.48679948 0.7550778 0.7253369
000030 c4 1e 21 3f a0 e2 14 3f a3 bf ba 3e b5 f4 30 3f
       0.6293757 0.581583 0.36474332 0.69123393

emb.feature_extractor.5.bias f4 [16]
000000 4d 07 0a bf 19 77 71 be 91 d7 28 be 8c bc a4 be
       -0.5391739 -0.23580588 -0.16488482 -0.321751
000010 0b c2 85 be 7f 8d e5 be 20 4b 63 be 53 d6 fc be
       -0.26124606 -0.44834515 -0.22196627 -0.49382266
000020 1c b2 cf be 31 4f 97 be c6 96 f6 be 2e d9 02 bf
       -0.40565574 -0.29552606 -0.48161906 -0.5111264
000030 3e b5 76 be b2 89 8e be 1c ea 56 be 05 13 b0 be
       -0.24092576 -0.27839428 -0.20987743 -0.3438951

emb.feature_extractor.5.running_mean f4 [16]
000000 c9 76 9c c1 3f 06 ac 40 3e 28 ba 40 25 32 1a 41
       -19.558 5.3757625 5.8174124 9.637242
000010 05 12 11 41 31 03 ab c1 b6 ea 8e 40 5d d2 96 c1
       9.066899 -21.376558 4.466151 -18.852716
000020 ec 13 56 c1 54 ad 0d c1 42 fc a9 c1 27 ba a8 c1
       -13.379864 -8.854816 -21.248173 -21.090895
000030 dc b7 5d c1 8a 67 f2 c0 45 6e 47 41 2d 32 4d c1
       -13.857388 -7.575139 12.464421 -12.82475

emb.feature_extractor.5.running_var f4 [16]
000000 8a f9 1a 43 c7 06 11 42 9b bf 3b 42 96 b3 1b 42
       154.97476 36.25662 46.937115 38.925377
000010 45 9a 1e 42 2f e3 31 43 53 7e dd 41 34 e9 70 42
       39.650654 177.88744 27.686682 60.227737
000020 f0 bd e5 42 10 f6 01 42 e7 b6 19 43 85 cf 37 43
       114.87097 32.490295 153.71446 183.81062
000030 e4 04 af 42 95 ac 8c 42 11 09 65 42 00 8b cc 42
       87.50955 70.337074 57.258854 102.271484

emb.fc.1.weight f4 [100, 192]
000000 67 ce 30 3e 0f d9 26 bc 18 7d bb bd 22 c9 ad bd
       0.17266236 -0.010183587 -0.09154719 -0.08485629
000010 11 74 10 bc fb 22 b6 3d 7d b3 cf bd 0d 2b 17 3d
       -0.008816735 0.08893391 -0.101416565 0.03690629
000020 b5 08 f8 bd 40 d0 86 bc e2 ac 91 3d 26 07 90 bc
       -0.12111036 -0.016456723 0.07113053 -0.017581534
000030 56 aa 01 3a b3 49 7f 3d 4b 62 42 3d 76 66 00 be
       0.00049463415 0.062326144 0.04745702 -0.12539086
000040 3a ac 1a 3d 59 b3 7d bc 24 ae 40 3c a4 63 00 3d
       0.037761904 -0.015484654 0.011760268 0.031345025
000050 70 b4 65 bd 90 17 02 3e df 6d 67 be 03 2d 1f 3e
       -0.05608028 0.12704301 -0.22600506 0.15544514
000060 95 67 41 bd 84 8b 45 3d 53 29 8e 3d 6e a8 30 bd
       -0.047217924 0.048228756 0.06941476 -0.043129377
000070 56 72 bd bc 34 0b 11 bd c7 2d ae 3d 43 fd 1f 3d
       -0.023125809 -0.035411075 0.08504825 0.03905989
000080 d6 db 3e be c5 7b 10 bd 07 4c b5 bd 09 23 aa 3d
       -0.18638548 -0.035274286 -0.08852392 0.08307464
000090 d4 8c fd bd 07 9c 23 3e 42 a3 c8 bd ae c4 2e 3d
       -0.123803765 0.15977488 -0.09796764 0.042668037
0000a0 cb 96 43 bd 06 fd cb 3c 10 d9 9c 3c 4f 40 77 3e
       -0.04775123 0.024900924 0.019146472 0.24145626
0000b0 98 7a 29 be aa 6b 3f 3b d3 29 da bb 3f 8c db bd
       -0.16550672 0.002920846 -0.006657818 -0.10720109
0000c0 95 9d 9a bd d5 10 9f 3d e7 b2 af bd 28 ba 0a bd
       -0.07549588 0.07766882 -0.08579045 -0.03386894
0000d0 04 ca 6e bc 01 9f d0 bd a9 82 02 bc 38 94 b8 b9
       -0.0145745315 -0.101865776 -0.007965722 -0.00035205646
0000e0 04 1f d7 bd c4 b6 34 bd e1 a4 8b bd 55 da d4 3d
       -0.10503963 -0.04411961 -0.068185575 0.10393206
0000f0 41 0b 43 bd bc bb c8 3d 00 8e 0d bc 0b e4 90 bc
       -0.047618154 0.098014325 -0.0086398125 -0.017686864
000100 91 32 f8 bc d4 39 22 bd ce 01 76 be 0e 69 e2 bd
       -0.03029755 -0.03960593 -0.24024126 -0.11055194
000110 8e 2c 62 3d 2b 4b 46 3d 1a ad e5 bc 1f 94 ed 3d
       0.055218272 0.04841153 -0.028036643 0.116005175
000120 ae 07 f6 3b f2 5e 04 3e 6d 02 3e 3c f2 6a bd bd
       0.0075082397 0.12926844 0.011597258 -0.09248914
000130 a3 c4 df 3d df 64 51 bd 3a bb 9e be 7e 30 11 be
       0.10926177 -0.05112159 -0.31002218 -0.14178655
000140 fe 2e 03 be 3a fa 85 3d 11 c3 22 3e 7d 85 a5 3c
       -0.12810895 0.065418676 0.15894724 0.020205254
000150 67 1c 98 3d 0b 36 cc bd b5 4b 91 bb 20 8d 10 be
       0.07427292 -0.099712454 -0.004434074 -0.14116335
000160 e3 7b 2d be 82 b3 10 be fd 2e 99 bd 31 d2 12 be
       -0.1694179 -0.14130977 -0.074796654 -0.14337994
000170 4f f6 61 3d 28 03 b9 3d b2 cf 15 bd 9e 8d 27 3d
       0.05516654 0.09033805 -0.036575027 0.04090654
000180 af 21 61 3d a5 94 c7 bd e1 57 92 3e f5 d0 53 3e
       0.054963764 -0.097451486 0.2858267 0.2068518
000190 f2 53 84 3d 35 62 1a bd c9 d5 50 3e e0 f0 d5 3c
       0.06461324 -0.037691314 0.20394053 0.026115835
0001a0 13 a1 d3 bc b9 3e 86 bd f8 aa db ba 20 5d c2 3c
       -0.025833642 -0.06554932 -0.0016759327 0.023726046
0001b0 2f 4d ad 3c c6 e3 ea 3d 4e 4b af bc 6c a3 02 3e
       0.021154968 0.114692256 -0.021398213 0.12757653
0001c0 e9 1e ee bd 06 1b a4 bd 88 a8 2b be b6 be cf bd
       -0.116269894 -0.08012967 -0.16763508 -0.10143797
0001d0 1c f9 62 bd 77 49 dc 3d f1 92 3f 3c 11 65 20 bd
       -0.05541335 0.107562 0.011692748 -0.039158884
0001e0 0a db 5c bd 00 cc 94 3d 13 1a c1 bb ec 93 7a bd
       -0.05391983 0.072654724 -0.005893001 -0.061176226
0001f0 67 6a 3f 3d 4b 75 1f be 45 b2 91 bc 68 d0 f7 3c
       0.046732333 -0.15572087 -0.0177852 0.030250743
000200 c0 14 8a 3d d0 c7 36 be e3 12 43 3e c8 3b 8c 3d
       0.06742239 -0.1784966 0.19050173 0.0684734
000210 c1 b5 46 3d 30 b3 e9 bc 61 9d 54 bd 41 59 04 3e
       0.048513178 -0.028527826 -0.0519079 0.12924673
000220 72 fd 80 bd 58 c7 f4 3d 12 70 1d bc 2d 6c 19 be
       -0.06298341 0.11952084 -0.009609239 -0.14982672
000230 6a e6 fe bb 64 29 90 bc 5d 26 71 bd 6b 07 78 3d
       -0.0077789323 -0.017597862 -0.058874477 0.06055395
000240 6c 2b 91 bd 0a bd 05 be 75 44 0a bd 3d 5c c1 3d
       -0.0708836 -0.13060394 -0.033756692 0.09441421
000250 e6 0f ec bd ff 17 00 3d f9 2a dc 3d c1 90 f0 bb
       -0.1152647 0.031272884 0.10750384 -0.0073414748
000260 60 4b a8 3d 11 a7 73 bd e4 c1 71 be 95 c1 86 bd
       0.08217502 -0.0594855 -0.2360912 -0.065798916
000270 a7 13 ae 3d b5 19 8d 3c b2 34 9b 3c 8a c3 2f 3d
       0.08499842 0.017224172 0.018946026 0.04291109
000280 4d c2 ec 3d ad 20 0f bd 7f c5 f3 bc aa 9a 2a be
       0.115604974 -0.03494327 -0.02975726 -0.16660562
000290 42 62 98 3d bc ae 70 3e 47 6c b3 3c 52 60 2d bd
       0.07440616 0.23504156 0.021902217 -0.042328186
0002a0 52 3d f3 bd c0 50 8e bd 04 ec 25 bd e9 2a 09 3e
       -0.1187693 -0.069489956 -0.040508285 0.13395275
0002b0 5e d1 06 3c 0c a9 96 3c 18 03 1f 3e c1 2c a0 3d
       0.008228628 0.018391155 0.15528524 0.07821036
0002c0 42 50 9b bd b9 93 8b 3d 07 53 89 3d 2e 21 fe bd
       -0.07583667 0.06815285 0.06705289 -0.12408672
0002d0 e9 ed 84 bd f9 5e 98 bd 89 50 cb bd 6b 39 85 3e
       -0.0649069 -0.074399896 -0.0992747 0.2602037
0002e0 20 4d ae bc c8 70 97 3d 35 e5 b8 bc 5a 5b 81 bd
       -0.02127701 0.07394558 -0.022570232 -0.06316252
0002f0 93 c6 28 3e ce 43 bd 3d d7 42 15 3e 1a 13 1f 3d
       0.16482 0.09241448 0.14576279 0.038836576
000300 28 82 5f 3e 59 c8 1b bd d1 d2 57 3d 6a d1 29 3e
       0.21826994 -0.038032863 0.052691285 0.16583791
000310 8d b6 a8 bd ed c7 e7 bd e8 91 8c bd ae 7d 8b bd
       -0.08237944 -0.1131743 -0.06863767 -0.06811081
000320 4b 80 fa 3b 16 bf 7a 3b f1 96 ee 3b 8b ba fe bb
       0.0076446882 0.0038260869 0.007281177 -0.0077737025
000330 58 e1 ec 3d 75 8a 4f 3d b2 87 3f bb f6 bf 42 bd
       0.115664184 0.050669152 -0.0029225168 -0.04754635
000340 fa 06 cd 3d a0 a3 16 3d c0 1f 41 3d b9 60 42 3e
       0.10011096 0.03677714 0.04714942 0.1898221
000350 bf 69 fb 3d 6a dc 9f bd b4 93 23 3d 0f e8 18 bd
       0.12276029 -0.078057125 0.039935783 -0.037330683
000360 e6 07 a6 bd f0 a5 4d 3c 25 3f cf bc 63 f0 81 bd
       -0.08106975 0.01255177 -0.025298664 -0.06344678
000370 63 28 c7 bc d2 0c af bc 27 eb d9 bc 2a 76 09 3e
       -0.02431125 -0.021368418 -0.026601387 0.13423982
000380 69 ee f0 bd 14 99 17 ba 95 b7 42 3e b3 45 0f 3e
       -0.11764223 -0.0005783003 0.19015343 0.13991432
000390 35 d5 68 3d 89 fa 72 3c c1 92 4e 3d 8f b4 24 3c
       0.056843955 0.01483024 0.050432924 0.010052814
0003a0 01 ac eb bd 6b db c9 bd 32 62 ad 3d d9 09 0f 3e
       -0.115074165 -0.09856304 0.08465995 0.139686
0003b0 25 03 83 3d 13 ea b2 3c 9e 20 b4 3c 46 cb 66 3d
       0.06397084 0.02184013 0.02198821 0.0563462
0003c0 ea 70 f6 3d 2d 4a 21 bd b4 e8 cb bd a8 70 d5 bd
       0.120332554 -0.03937738 -0.09956494 -0.10421878
0003d0 2f dc ab 3d 4c f8 ea bc 0d 5c 88 3d e3 6d 8d bd
       0.08391606 -0.02868285 0.06658182 -0.06905725
0003e0 73 a0 15 be 60 4a aa 3c 84 79 82 bd 15 0e f5 3d
       -0.14611988 0.020787418 -0.063708335 0.119655766
0003f0 e5 06 a9 bc de b6 58 3e 77 44 c9 3b 6c e6 5e 3d
       -0.02063317 0.21163508 0.006142195 0.054418966

emb.fc.1.bias f4 [100]
000000 b4 c4 4f 3d a8 99 88 3c 50 e8 3e bd 80 c6 dc bb
       0.0507247 0.016674832 -0.04660827 -0.00673753
000010 2c 5c 3f 3d 2c 01 96 3c 2a 34 2c bd b0 0f 54 3d
       0.04671876 0.018311106 -0.042041935 0.051772773
000020 48 32 83 3d 6d d4 6c bd 00 06 00 3a ec a3 45 3d
       0.06406075 -0.057819773 0.00048837066 0.04825203
000030 34 af 8c 3c 50 76 76 3d 00 43 ed bc ec 67 5b bc
       0.017173387 0.060171425 -0.028962612 -0.013391476
000040 c0 fc 71 3d a6 78 4f 3d b2 38 f0 bc 48 40 77 3c
       0.05907893 0.05065217 -0.02932391 0.015091009
000050 67 2c 0d bd d4 20 73 bd 30 f4 b4 bc 20 04 55 bb
       -0.034466173 -0.05935748 -0.022089094 -0.003250368
000060 9e aa bc bc 64 d2 79 3d 8c db c1 3c f8 df a8 bc
       -0.023030575 0.06099166 0.023664258 -0.02061461
000070 60 2a eb bb 00 54 16 3d 32 d8 07 3d 9c 11 59 3d
       -0.0071766824 0.036701202 0.033165164 0.05299531
000080 7c 9c 7f bc 60 2f 9d bb fe e1 e3 bc 8e 50 10 bd
       -0.015601274 -0.0047969073 -0.027817722 -0.035233073
000090 5e 78 8c bd 08 2d 5d bd f4 ac 50 3d 60 91 25 3d
       -0.06858896 -0.053998023 0.05094619 0.040421844
0000a0 3c c3 9f 3c 18 f6 b8 3c b4 35 74 3d ea 85 90 3d
       0.019502275 0.022578284 0.059621528 0.07056792
0000b0 ac 93 fd bc e0 8f 91 3d 40 71 72 3c e0 ba ff 3b
       -0.030954204 0.0710752 0.014797509 0.0078042597
0000c0 b4 65 3b bd ce a8 09 3d 40 bf 3b bc 5c 09 38 bd
       -0.04575129 0.03360825 -0.011459172 -0.0449308
0000d0 52 f9 8c 3d d8 a4 8a bd 2c 55 10 bd c8 3b de 3c
       0.068834916 -0.06769723 -0.035237476 0.027128115
0000e0 44 d6 5b bc 5c 12 a4 bc 07 d6 3f bd c8 1c 21 3d
       -0.013417784 -0.020028286 -0.04683497 0.03933409
0000f0 af 14 89 bd a0 48 a1 bc 74 01 ed 3c d8 fb 56 bc
       -0.06693398 -0.01968795 0.028931357 -0.013121568
000100 67 da 71 bd 0c a0 03 3d dc 08 76 3d f0 75 e1 3b
       -0.059046175 0.032135054 0.060067043 0.0068805143
000110 d0 dc 85 3b 1e 6a 92 bc 90 4e 3d bc 20 55 39 3c
       0.004085161 -0.017872866 -0.011554375 0.011311799
000120 70 95 06 3c 2e 4e 0e 3d 4a 30 0c bd 16 b9 03 3d
       0.00821434 0.034742527 -0.03422574 0.032158934
000130 d8 f2 7c 3d 3c 0b de 3c f2 b0 9d bc 36 0f 84 3d
       0.06175503 0.027104966 -0.019249413 0.06448214
000140 ff fb 92 bd 97 d2 92 bd 5c e4 65 3d 12 f9 a9 bc
       -0.07176971 -0.07169073 0.056125984 -0.020748649
000150 50 6f 63 3c dc ef 91 3d d4 e9 90 3d 2a 57 d1 bc
       0.013881519 0.07125828 0.07075849 -0.025554258
000160 34 44 66 3d e8 e6 7c 3d f4 08 84 bd 11 9a 8c bd
       0.056217387 0.061743647 -0.0644702 -0.06865323
000170 e0 e7 5d bc 92 d8 ed bc 38 7f 62 bc d8 cc 6b 3d
       -0.013544053 -0.029033933 -0.013824277 0.0575684
000180 d8 c8 49 3d f0 53 60 3d ec 0c 2a 3d 80 4f 62 ba
       0.049263805 0.05476755 0.04151623 -0.0008633062

clf.1.weight f4 [1, 100]
000000 63 00 82 3d 48 a6 7b 3d 0c b1 1a bd 06 5a 21 bd
       0.0634773 0.061437875 -0.0377665 -0.039392494
000010 ec df 06 3d 7f 8d 54 3d c2 c3 c3 3c 63 ab 4a bd
       0.032928392 0.051892754 0.023897056 -0.049479853
000020 31 72 a7 bb 98 5f 1f 3d 72 7b 57 bd 96 48 61 3d
       -0.005110048 0.038909525 -0.05260796 0.055000864
000030 5c ca 65 3d 6c 92 55 3d cb 21 22 bd 77 4a 29 bd
       0.056101188 0.052141592 -0.03958301 -0.04133078
000040 39 49 06 3d 69 72 28 bd d9 8c 03 3d 34 ff 1f bd
       0.032784674 -0.041124735 0.032116745 -0.03906174
000050 49 7c 0c 3d 8e 1d 49 3d 8a 0c 1b 3d 82 a3 3c bd
       0.034298215 0.04910045 0.037853755 -0.04605437
000060 8a dd 02 3d 81 f4 1a bd 24 e6 e8 3c dc 23 27 3d
       0.031949557 -0.037830833 0.028430052 0.040805683
000070 cf d3 27 3d 44 7f fc 3c 58 96 12 3c 6f 71 e0 3c
       0.04097348 0.030822404 0.008946978 0.02739784
000080 e7 84 83 bd ef 79 03 3c 55 3e d0 bc 2a 4c 55 3c
       -0.064218335 0.008024677 -0.025420347 0.013018647
000090 76 9e 5c 3d 6e a1 57 3d 6e 2f 50 3d 32 b2 bb 3b
       0.053862058 0.052644186 0.050826482 0.0057280296
0000a0 5a d0 03 bd 52 39 a2 3c cb c7 7a 3c b2 f5 12 3d
       -0.03218112 0.019802723 0.015306423 0.035878845
0000b0 b8 ce 85 3d a5 22 fe 3b 08 c0 1b bd 3f 97 f5 3c
       0.06533569 0.007755595 -0.038024932 0.029979346
0000c0 c7 32 68 3c 0b 91 35 bd cc b3 0e 3d 67 5b 39 3d
       0.0141722625 -0.044327777 0.034839436 0.045253184
0000d0 ce 80 66 bd 49 7a 2f bd 54 63 2a bd 99 36 c1 3c
       -0.05627518 -0.04284123 -0.041598633 0.023585605
0000e0 3a 0d 71 3d 70 06 50 3d b0 00 b9 3c 10 bc 56 bd
       0.058850504 0.05078739 0.022583336 -0.052425444
0000f0 30 43 2b bd c3 f8 49 3d 62 85 8b 3c af 66 63 bd
       -0.041812122 0.049309503 0.017031375 -0.05551785
000100 e8 bb 75 bd 90 f3 07 bd a9 24 72 3d 50 96 74 bd
       -0.059993654 -0.033191264 0.059116993 -0.05971366
000110 fb 97 44 3d 08 13 23 bd 54 57 30 3d e0 d7 27 3d
       0.047996502 -0.03981307 0.043052033 0.04097736
000120 ff fa 1f 3d 77 39 87 3c 29 c8 51 bd 7e d4 69 3d
       0.039057728 0.016506894 -0.05121628 0.057087414
000130 ba 27 2f bd ef 75 8b bd d8 c8 44 3d 62 1e 67 3d
       -0.042762496 -0.068096034 0.048043102 0.05642546
000140 08 59 f5 3c c4 b8 ef bb 80 23 ec 3b 34 fc ae 3c
       0.02994968 -0.007315727 0.0072063804 0.021360494
000150 df a4 6e bd 36 0d 2d bd 48 b6 f1 3b 34 3f 52 bd
       -0.058262702 -0.042248927 0.007376466 -0.051329806
000160 78 c9 46 3d bb ac af 3d 85 8b fe 3c b8 04 70 bd
       0.04853198 0.085778676 0.031072387 -0.05859825
000170 15 ad 83 3d 43 32 cb 3c 17 10 5b 3d 0b 06 22 3d
       0.06429497 0.02480424 0.05348214 0.039556544
000180 bc 5b 17 bd 94 09 b6 3c 9a 9b 89 ba 95 9e b0 3c
       -0.03695272 0.022221364 -0.0010498643 0.021559993
