images/RRP/prob/x=.25/params.pth (torch, 412117 bytes, 43 tensors)

emb.spatial_conv.weight f4 [2, 1, 2, 1]
00000000: c0c5 11bf a30a 0c3f aa8a f63e 5847 fc3e
-0.5694237 0.5470373 0.48152667 0.4927318

emb.spatial_conv.bias f4 [2]
00000000: d27a 99bd 470f 38be
-0.07494129 -0.17974578

emb.feature_extractor.0.weight f4 [16, 1, 1, 50]
00000000: b6a3 623d 0724 bdbd 2019 e0bc 193e 653d
00000010: aeef 003e 353e fe3c 46e2 f8bc 2a20 0f3d
00000020: 3370 903d b1e5 1b3c bcfb 2eba 6146 afbc
00000030: 2794 9c3c 71f9 9f3c 2110 94bd 4767 0bbd
00000040: 5854 19bd 4ca8 35bd 5ade f0bd 1f1e 5c3d
00000050: 297b 283d f7e2 893d c435 833c 1420 983c
00000060: 63d8 3bbc f96a 05bd efac 89bc f885 b5bc
00000070: 41b5 463d f088 39bd 55ee 8e3d 06f4 ab3d
00000080: f33a 7a3d ec59 953d 2bcd ea3b 7ee7 69bd
00000090: 304a 3b3c fe7e 89bd 9ae5 26bd b38c 623c
000000a0: e58d 8d3d cae0 4e3d 267d 883d a8a1 b93c
000000b0: 094a 093c 9414 b63b cb83 44bd 265b 31bd
000000c0: 67f0 07bd 0061 9bbc 8fa5 08bd a134 2abb
000000d0: ecc2 66bd b8b1 36bc 8279 59bd 988f a1bc
000000e0: 1e77 97bd c96c 8fbd c40c 06bc 0418 813d
000000f0: d05b e33c 4f8c a73c b3f5 adbb ada8 4fbb
00000100: 8609 63bd 2f02 9abc 5670 63bd 54a6 11bd
00000110: 8c67 27bd 455e 77bd 53e3 68bd 939e 723c
00000120: f5af 3fbb 42ea 493d 2686 d13c 8e75 6fbc
00000130: 8776 e93b 4258 3cbd cf90 f7bc fd1c 79bc
00000140: 1d3f cbbc 5988 0f3c 070f 1cbd 7f4b 5ebc
00000150: 3011 33bd e46d 22bc 230f c539 0635 60bc
00000160: 1e43 9d3a 2c0f e83c 5dfa f83c 7385 3c3d
00000170: 8665 bc3c e683 4a3c 88c4 3ebd de13 0b3d
00000180: e1b3 dabb 561b a83c 6265 35bc 5e6f d23b
00000190: 31f1 32bd f705 3a3d 1070 b03c 137b 6bbb
000001a0: 478c 32bd 28a8 363e 616b 32bd d2ae 863d
000001b0: 0970 473c badd a63d cfb7 e1bd 678f 64bd
000001c0: 29b8 2e3e c78b a0bc 5c33 043d 298d 93bd
000001d0: 4ce0 83bd 25d3 823d b730 ddbc 8785 7dbd
000001e0: 14df 123d 4229 b53d 8eb5 a53d 4eb4 29bb
000001f0: 3359 bebd 74b8 7cbc 32a9 e13d 5bca ca3d
00000200: ec8e 233d c2b5 3a3c 4f75 bdbc a3c8 053d
00000210: 3ec3 6abd d493 1ebd 05ed c23c ff60 cc3d
00000220: e8a0 65bd 3af1 abbd a1ea 053d d3cd 02be
00000230: c58d 6a3c e782 0f3d 92ba dbbd 7ae5 733c
00000240: 15b6 d2bd a4f3 323e 66b3 7dbd c045 2e3d
00000250: 3798 1bbe aa50 433d 784c 263b 574e 93bd
00000260: e2bf 9cbd c857 72bc a953 3e3d c919 003d
00000270: c65e 6c3d a7e5 953d 7624 6c3d 56c4 803a
00000280: 2139 1b3c 70eb 743c 1847 dfbc ad9d 46bd
00000290: f9bf d53c d489 76bd 2ee6 49bb 9264 783d
000002a0: 3d16 9f3d 7bc6 843d 806b f6bc 48ac 503d
000002b0: 74e6 6d3d 8325 733d b56e 8dbb 5a45 033e
000002c0: 8645 e2ba 6591 f2bd a1d2 29be 6299 17be
000002d0: f647 edbc f4e1 223d df6f 4b3d 18c8 dbbc
000002e0: e6c4 d7bd 1133 bfbd 320e f9bd 6be9 33bd
000002f0: 9d57 a13d d70c c73d f09b ff3d 1a06 333d
00000300: 4e0d 5e3d aaca f0bd 107e 34bc 6132 0ebd
00000310: 497f 193d 8e9f c2bc 0c7c e83c ae2a 6abd
00000320: 510a 4e3d 7467 e1bb 74b6 383d 1190 07bc
00000330: 81ed cf39 5c2b 4cbc 03cf 5bbd d305 1e3c
00000340: c981 4bba 9659 9cbc 9942 49bd e9fb 21bd
00000350: 3c95 a4bc 62b0 babc b0e5 8abd d161 a2bc
00000360: f7c9 87bd 9d4b 23bb 3f7e 553c 83a0 963c
00000370: fde3 10bd dccf 02bd ce76 b4bb a0fa b5bc
00000380: 7dca 92bc f35a 65bb 6007 4f3d 4039 76ba
00000390: 1f89 32bd 2b22 06bc 9042 82bb 5774 8abc
000003a0: f350 c83b 93aa b2bd 1486 eabc 91b9 013d
000003b0: 2e4f 5fbd 09b7 c3bb c6f3 713b 1686 f33c
000003c0: 95c9 b0bc bb95 c7bc b8c4 0c3c 4ac9 f33c
000003d0: 0b5b a4bc 6b3c 693c 6893 62bc bba9 7c3c
000003e0: 8a81 27bd 4fd6 853b 1e28 d13c b4a3 cb3c
000003f0: e01d 463d 05a7 88bd 8c44 bcbd 0786 b13d
0.05533191 -0.09235387 -0.02735573 0.055967424 0.1259143 0.031035522 -0.030381333 0.034942783
0.0705265 0.009515212 -0.00066750846 -0.021395864 0.019113613 0.019528123 -0.07229639 -0.03403404
-0.037433952 -0.044349954 -0.1176116 0.053739663 0.04113308 0.06732743 0.016016848 0.018569984
-0.011465165 -0.03257272 -0.016806094 -0.022158608 0.0485127 -0.04529661 0.06979052 0.08396153
0.061091375 0.07292542 0.007165571 -0.057105534 0.011431262 -0.06713675 -0.04074631 0.013827491
0.0691183 0.050507344 0.06664495 0.022660092 0.008379468 0.0055566523 -0.04797725 -0.043299817
-0.03318825 -0.018967152 -0.033361014 -0.002597131 -0.056338236 -0.01115077 -0.053094395 -0.019721791
-0.07395767 -0.07003171 -0.0081817545 0.06303409 0.02775374 0.020452647 -0.0053088306 -0.0031686232
-0.055429004 -0.01879987 -0.055527054 -0.035559013 -0.040870234 -0.060392637 -0.05685742 0.014808315
-0.0029249166 0.04929567 0.025576662 -0.01461543 0.0071247253 -0.045982607 -0.030220417 -0.015204665
-0.024810368 0.008760535 -0.03810027 -0.013567804 -0.043717563 -0.009913895 0.00037586046 -0.013684517
0.0011998152 0.028327547 0.03039282 0.046025705 0.022997629 0.012360549 -0.046574146 0.033954494
-0.0066742753 0.020520847 -0.011071535 0.0064219674 -0.04368705 0.045415845 0.02153781 -0.0035931512
-0.04359081 0.17837584 -0.043559436 0.06576313 0.012172707 0.0814776 -0.11021387 -0.05580082
0.17062439 -0.019597901 0.032275543 -0.072046585 -0.064392656 0.06387929 -0.027000768 -0.06189492
0.035857275 0.0884576 0.080912694 -0.0025894823 -0.09294357 -0.015424836 0.110185996 0.099018775
0.039931223 0.0113958735 -0.023127226 0.032662045 -0.057315104 -0.0387152 0.02379466 0.09979438
-0.056061655 -0.0839562 0.032694463 -0.12773828 0.014316027 0.035036948 -0.10728945 0.014886254
-0.10288636 0.17475754 -0.061938666 0.042546988 -0.15194784 0.04768435 0.0025375169 -0.071926765
-0.07653786 -0.0147914365 0.046466503 0.03127459 0.05770757 0.07319193 0.05765196 0.0009824138
0.00947407 0.014948711 -0.02725558 -0.048490215 0.026092516 -0.060190037 -0.0030807364 0.060642786
0.077679135 0.0648317 -0.030080557 0.05094555 0.058081105 0.059361946 -0.004316176 0.12819424
-0.0017263151 -0.11844138 -0.16584255 -0.14804605 -0.028964978 0.039766267 0.049667235 -0.02682881
-0.10535602 -0.09335912 -0.12160911 -0.043923777 0.07878039 0.09719246 0.124809146 0.04370699
0.054211907 -0.11757405 -0.011016384 -0.034716014 0.037474904 -0.023757722 0.028379463 -0.05716961
0.050302807 -0.0068787877 0.045095876 -0.008274094 0.0003965907 -0.01246151 -0.05366422 0.009644943
-0.0007763175 -0.019085687 -0.049135778 -0.03954688 -0.020090692 -0.022789184 -0.06782091 -0.019822033
-0.066303186 -0.0024916895 0.013030588 0.018387085 -0.035373677 -0.03193651 -0.0055073267 -0.022214234
-0.01791882 -0.0034996837 0.050544143 -0.0009392686 -0.0435878 -0.008186857 -0.00397522 -0.016901178
0.0061131655 -0.08723941 -0.028628387 0.03167111 -0.05451887 -0.005972747 0.0036918982 0.029727023
-0.021580497 -0.02436339 0.008591823 0.029759068 -0.020062944 0.014235596 -0.01382909 0.015421326
-0.040895022 0.0040843855 0.025531825 0.024858333 0.048368335 -0.066724814 -0.09192762 0.08668142

emb.feature_extractor.0.bias f4 [16]
00000000: 17e8 aab7 2bbb 9e2f 499f 2137 ff91 d836
00000010: 206a 48b7 108c d937 6e69 5137 d5c7 d935
00000020: e30e ac37 a8b0 d937 5a9d b2b6 c11d ffb6
00000030: 53b8 2bb8 ecd4 8eb3 fc4c 50b5 a7a4 1235
-2.0373654e-05 2.8873023e-10 9.633434e-06 6.454298e-06 -1.1945638e-05 2.5933638e-05 1.2481918e-05 1.6225919e-06
2.051093e-05 2.5950678e-05 -5.3231315e-06 -7.603056e-06 -4.0941242e-05 -6.6511205e-08 -7.7598065e-07 5.462884e-07

emb.feature_extractor.1.weight f4 [16]
00000000: 3041 003e f665 013c 1238 913e 0315 5b3e
00000010: e72f 803d 8d6a 3c3e c83d 453e 08b6 1b3d
00000020: d0c8 823e bf70 753e 3c7c 7c3e ea89 4b3e
00000030: 1d9d 5d3e bbdc dc3a e42b 203e 19f2 273d
0.12524867 0.007897845 0.2836309 0.21394734 0.06259137 0.18400021 0.19261849 0.038015395
0.25543833 0.2396879 0.24656767 0.19876829 0.21641965 0.0016850451 0.15641743 0.041002367

emb.feature_extractor.1.bias f4 [16]
00000000: 6b5d b7bd c0d3 2cbd 5b02 d0be 1518 ee3d
00000010: aff8 4cbd 9e3e 2abe 73fc 3abe 7608 39ba
00000020: 42a2 b8be abd6 10bd c987 56be 189e 7cbe
00000030: d58c 64be bdf5 82bc 2a4b 5fbe ef23 c0bd
-0.08953365 -0.042194128 -0.40626797 0.11625687 -0.05004185 -0.16625449 -0.18260364 -0.0007058451
-0.36061293 -0.035360973 -0.20950235 -0.24669683 -0.22319348 -0.015986318 -0.21806017 -0.09381854

emb.feature_extractor.1.running_mean f4 [16]
00000000: 392b 1cbd e89e 913d 4a93 c0bc daf4 083c
00000010: b5f2 803d 5e82 d3bc a509 a73c f966 82bd
00000020: a421 d4bc 339b 61bc 2012 5d3c 8c10 7fbb
00000030: f91c 283d c55d d33c 8f9d d2bc d3bc 593e
-0.038127158 0.07110387 -0.023507733 0.008359158 0.06296293 -0.025819 0.020390341 -0.06367297
-0.025894947 -0.0137699125 0.013493091 -0.0038919775 0.041043255 0.025801549 -0.025709895 0.21263437

emb.feature_extractor.1.running_var f4 [16]
00000000: 3638 893d 362a 8e3d 8303 e33d 2623 f43d
00000010: 24e1 4f3d b608 8a3d ab06 9b3d 4b14 5b3d
00000020: 3dd8 a53d 2570 fd3d bd7f 493e 017c 863d
00000030: c312 bc3d 421a 0e3d 4764 4b3d e35f 9a3e
0.067001745 0.06941645 0.11084654 0.119207665 0.05075182 0.06739943 0.07569631 0.05348615
0.08097885 0.123749055 0.19677635 0.065666206 0.09183266 0.03469301 0.04965618 0.3015128

emb.feature_extractor.4.weight f4 [16, 16, 1, 50]
00000000: ea07 b33c fe4d ebbc 45c4 eb3a ba34 b8bc
00000010: e593 81bc b392 dcbb f789 39bc 82d8 753b
00000020: 40e1 02bd e499 cb3c e399 d6bc 4dc7 23bd
00000030: ed9e f6bc bf49 bfbb f5d6 37bd 8a4c bdbb
00000040: aa85 5d3c b020 36bc abd5 c8bc 6b89 00bd
00000050: e3b3 45bd 6d6b 84bc 7afb b2bc b0a9 acbb
00000060: 2c48 32bc 453f 81bb 9e3a 7bbc d946 59bc
00000070: c57d 62bc c545 953c fbe1 7b3a 1ca2 3d3a
00000080: c0e1 09bc cc78 9ebc b9ff 073d 0e88 20bd
00000090: 1293 8c3c 656b f1bb 8b77 2dbb 4338 a0bc
000000a0: 22a6 403d 8098 1e3c 5e49 c23c 7d1f c63c
000000b0: 2696 2bbb c556 9839 8cd6 a4bc 88ff 4d3c
000000c0: 8224 45bc 13d4 223d c16b 863b 9009 1d3a
000000d0: 8ade 05bc 38a1 7bbc ef28 79bc 9520 86bc
000000e0: 23c2 10bc 261e 91bb 55d9 c436 292b 00bc
000000f0: 38ac 27bc 8eea debc d8a0 abbc c9d4 b1bb
00000100: 7129 60bc fd0f 82bc 098d a7bb 68f4 92bc
00000110: 2a8a 86bc 18a2 8ebc 441d 98bc cce3 f0bc
00000120: 313f 65bc 7747 9ebc 5061 8abc 03ca 67bc
00000130: 792b fbba e538 9839 6ea2 2fbc b04d b53b
00000140: e4a4 bcbb 144e 94bc 2c8f 97bc 8979 b9bb
00000150: bf3b 0fbc aa9d 6d3b d954 b6bb 47f2 663c
00000160: 4331 0bbc e164 a6bc c8b0 3fbc 571a 2b3a
00000170: b7e7 baba 5811 873b 17b0 b9bb 57eb a8b8
00000180: 5d48 10ba 5550 9b3b 3c8c a03a d9f4 023c
00000190: cd55 483c 4990 f7bc 4ff9 88bc 9ac4 44bd
000001a0: 5581 9a3c 9154 1a3c 4c9e e9bc f6a2 4d3c
000001b0: 6cbb b0bc e4bc 8dbc 0fee 9c3c 162d 00bd
000001c0: 8ee3 10bc 8b94 403d 1910 c5bc 33de 193d
000001d0: ac81 ef3b c26b 2fbd cde3 b4bc 2070 ef3b
000001e0: 8866 f23b acfb c43c 600f 60bc 53b8 ed3c
000001f0: 8f3d e23c e830 2fbc f8c5 4dbc 4289 1abc
00000200: 2150 a63c 961a 85bc 10d8 72bd e71c aa3c
00000210: 18bf 91bc e43c a63a fc98 21bc a3b9 65bd
00000220: c6ca 6ebb 9673 52bd f6a0 c83c 3176 b9bc
00000230: 8534 963c 2a7e 403c 0eae d8bb eb0f 17bd
00000240: 25f1 c6bb 63ab 62bc f83d 273b 2334 7c3a
00000250: 1869 00bd cafa 79bd 37f7 ed3b 0d78 833b
00000260: 46c4 c23c ca37 573d afd8 60bb 1a9a 85bc
00000270: f1e5 223b 1763 47bd 477e aa3c 8b5c debc
00000280: 662a 6bbc ba1f 35bd 63fd 0c3d fb0e 11bd
00000290: c6bb 1dbc b75a f93b 314b 63bd cb6d 61bd
000002a0: 8251 05bd ed4b 0fbd eaff 133d f88f 29bd
000002b0: a581 45bc 90f1 bdbc 6842 4abd 9053 2d3d
000002c0: fc81 33bc 2154 e1bc b245 0abd a8e6 813c
000002d0: b0cb bfbc 729d f93c cd22 11bc 7749 1ebd
000002e0: d5d8 acbc 9c3e ab3c a15d 23bc 1765 81b9
000002f0: 6ff4 43bb 07b5 9b3d 315c 19bb 718a dabb
00000300: b803 fc3c 81c9 e53c 50c0 af3a 82d9 ea3c
00000310: 89ce 41bc 0024 6e3b 2a5f 96bc f9c9 0bbc
00000320: 5bdf a33b 36b8 70bc d47f 0abd ec22 033c
00000330: ea30 c43c 80c2 073b 2262 ddbc 28e8 b6bc
00000340: bbc5 cdbc a379 4abc d53a 303c ca36 2b3d
00000350: 880d 843c 4515 83ba 7d6f bdbc 45d8 d13c
00000360: d6b2 793a 5c7d 93bc bc7e 4dbc ab83 dfbb
00000370: 3fb5 763b e8f9 fdbc cdc5 08bd ab38 a5bc
00000380: e7c5 c1bc b0db 67bc e9e2 863c 7aba a53c
00000390: e628 9e3c 112e 423c 7938 7d3c 7acc ce3b
000003a0: 7d15 e8bc a6aa 973c 316f eb3c a3fe fd3c
000003b0: a85e 05bd f655 3bbd 644f 82bc 72e3 31bd
000003c0: 1a04 123c bdea 123c c3a4 c53c 1bc6 453c
000003d0: 6ce3 623b 0308 0abd e197 db3b d11d 81bc
000003e0: 89f2 22bb 8b2d 28bd abba 2ebd 7f4c 9fbc
000003f0: cb63 0fbd 6a20 c3bc ea12 fabc 076b 47ba
0.02185436 -0.028723713 0.001798757 -0.02248608 -0.015817592 -0.006731355 -0.011324397 0.0037513082
-0.031953096 0.024853654 -0.026196426 -0.03998499 -0.030105079 -0.0058376486 -0.044882733 -0.0057769464
0.0135206375 -0.011116192 -0.024515947 -0.031381052 -0.048267256 -0.016164506 -0.021848429 -0.0052692518
-0.010881465 -0.00394431 -0.0153338 -0.01326152 -0.013823931 0.018221745 0.0009608564 0.0007233934
-0.008415639 -0.01934471 0.03320286 -0.03919225 0.017159972 -0.0073675388 -0.0026468958 -0.019558078
0.047033437 0.0096799135 0.023716625 0.024184937 -0.0026182025 0.00029056348 -0.020121835 0.01257313
-0.01203263 0.03975303 0.0041022007 0.00059904996 -0.008170733 -0.015358262 -0.015207513 -0.016372958
-0.008835348 -0.004428643 5.866556e-06 -0.00782279 -0.010233931 -0.027211454 -0.02095072 -0.0054269773
-0.013681755 -0.015876764 -0.0051132482 -0.017938808 -0.016423304 -0.017411277 -0.018568642 -0.029405497
-0.013992117 -0.019321186 -0.016892105 -0.014147284 -0.0019162736 0.0002903409 -0.010719879 0.0055329427
-0.005756961 -0.018103637 -0.018500887 -0.00566024 -0.008742272 0.0036257305 -0.005564314 0.014095849
-0.008495632 -0.020311775 -0.011699863 0.0006527057 -0.001425973 0.0041219406 -0.0056667435 -8.0547e-05
-0.0005503947 0.004739801 0.0012248824 0.007992947 0.012227488 -0.030220168 -0.016720442 -0.048039056
0.018860498 0.009419576 -0.028517865 0.01255106 -0.021573745 -0.017301984 0.019156484 -0.031292997
-0.008843316 0.04701666 -0.024055528 0.03756542 0.0073091593 -0.042827375 -0.02208128 0.0073070675
0.0073974766 0.024045788 -0.013675541 0.029018557 0.027617244 -0.0106928125 -0.012559406 -0.009432139
0.02030188 -0.016248029 -0.059288085 0.020765735 -0.017791316 0.0012682942 -0.0098631345 -0.05608524
-0.003643678 -0.051379763 0.024490815 -0.022639366 0.01833559 0.01174883 -0.006612546 -0.036880415
-0.006071227 -0.013834807 0.0025519114 0.0009620806 -0.031350225 -0.061030187 0.0072621363 0.004012114
0.023775231 0.05254344 -0.003430884 -0.016308833 0.0024856294 -0.048678484 0.020812167 -0.027143737
-0.01435337 -0.04421971 0.034421336 -0.035414677 -0.009627288 0.007609691 -0.05549163 -0.055036347
-0.032548435 -0.034984518 0.03613273 -0.041397065 -0.012054835 -0.023186475 -0.049379736 0.04231602
-0.010956284 -0.027505936 -0.033757873 0.015857056 -0.023412555 0.030470584 -0.008858395 -0.03864428
-0.021099487 0.020903878 -0.009971053 -0.00024680115 -0.0029900332 0.076028876 -0.0023400898 -0.0066693355
0.030763492 0.028050186 0.0013408754 0.028668169 -0.011829027 0.0036337376 -0.018355925 -0.008532041
0.0050009913 -0.014692357 -0.033813313 0.0080039315 0.023949105 0.0020715296 -0.027024332 -0.022327498
-0.0251187 -0.012358102 0.010756214 0.041800298 0.016119733 -0.0010000846 -0.02312445 0.02561582
0.0009525245 -0.018004112 -0.012542423 -0.006821116 0.0037644652 -0.031002954 -0.033391763 -0.020168623
-0.023653938 -0.014151499 0.016465621 0.02023052 0.019306611 0.011851803 0.015455359 0.0063109966
-0.028330559 0.018513989 0.028739544 0.03100521 -0.032560974 -0.045736276 -0.015906997 -0.0434298
0.008912111 0.008967099 0.024126416 0.012071158 0.0034620417 -0.033699047 0.006701455 -0.015761288
-0.00248638 -0.04105906 -0.04265849 -0.019445656 -0.03500728 -0.023819167 -0.030526597 -0.0007607196

emb.feature_extractor.4.bias f4 [16]
00000000: 68eb e036 49ee 1bb6 0602 dcb6 6e79 7f37
00000010: 6733 28b5 722c 95b5 7229 4e37 dd0a ac37
00000020: 16c9 90b6 2627 1eb7 1ac5 57b8 c750 acb7
00000030: 1a4c 48b6 4d1f 02b6 6efa 6838 f23a 09b8
6.703125e-06 -2.32355e-06 -6.5567465e-06 1.5227457e-05 -6.265968e-07 -1.11143e-06 1.2288207e-05 2.0509056e-05
-4.314944e-06 -9.426649e-06 -5.144356e-05 -2.0541613e-05 -2.984662e-06 -1.938973e-06 5.554634e-05 -3.2718242e-05

emb.feature_extractor.5.weight f4 [16]
00000000: 84f4 003f 26a8 c63e e57c 893e f4b7 873e
00000010: 3c03 8e3e c86c ec3e e18f 883e 5479 873e
00000020: fe9e f93e 9125 923e 9251 053f 0699 043f
00000030: dbcf 033f e385 9d3e b8dd 8c3e 4b86 033f
0.503731 0.38800162 0.268531 0.26507533 0.27736843 0.46176744 0.2667227 0.26459754
0.48754114 0.28544286 0.5207759 0.51795995 0.5148904 0.3076621 0.27512908 0.5137679

emb.feature_extractor.5.bias f4 [16]
00000000: 518a d0bd aa86 a9bd b114 74be 7b68 67be
00000010: 92d0 83be 7e8d ccbd 27bb 8dbe 2671 94be
00000020: 45ce 06be bebe 89be b551 cfbd 3d35 05be
00000030: 24f9 eabd 60a1 f9bd d0f9 60be 810d b8bd
-0.10182632 -0.08277638 -0.23836018 -0.2259845 -0.25745064 -0.09987925 -0.27681848 -0.28992575
-0.13164623 -0.26903337 -0.10123006 -0.1300859 -0.11473301 -0.12188983 -0.21970296 -0.08986951

emb.feature_extractor.5.running_mean f4 [16]
00000000: 0a75 b4be 682c c4be 0f2f 2c3e 35da bb3e
00000010: d4d2 6f3e 9a1e e2be 82ca 353e 9662 1d3e
00000020: 97ec 1fbe 96d2 783e 6563 a6be 03be c4be
00000030: 61da f8be f913 9fbe eea0 a93e bffc e8be
-0.35245544 -0.3831513 0.16814826 0.36689916 0.23420268 -0.44163972 0.17753032 0.15369639
-0.15617596 0.24299082 -0.32497707 -0.38426217 -0.4860411 -0.31069925 0.33130592 -0.4550533

emb.feature_extractor.5.running_var f4 [16]
00000000: 7a83 933c 7af6 083d 315f 983c ebba b33c
00000010: b758 873c 46af 283d 8a1f 883c 0272 833c
00000020: 22d8 873d 251c 8b3c 3f56 943c a818 1c3d
00000030: e941 333d 1cd9 f63c 2ebd 9a3c fe62 083d
0.018007029 0.033438183 0.018600078 0.021939715 0.016521795 0.04118278 0.016616601 0.016045574
0.06633021 0.016981194 0.018107532 0.03810945 0.04376403 0.030132823 0.018889036 0.03329753

emb.fc.1.weight f4 [100, 192]
00000000: 0b24 d3bc 9887 9d3b b665 cebb 78e3 2bbc
00000010: 11e7 e23b 3448 0cbb 0e2f c3bc 6eb3 a23c
00000020: b6e3 bb3b 714a c93b aec0 4dbb 25a4 813c
00000030: 74b8 053c 9ef6 b6bb 52a6 883a a119 d7ba
00000040: 5339 8cbb 7902 8b3c a152 80ba a7a6 8e3b
00000050: 15ac 22bc 0d08 773b d662 6cbb d276 043c
00000060: e0ea 84bb 91ef 0dbb c08c ce3a b511 ad3a
00000070: e6a0 b03b 540d 67bb 7121 4dbc 5134 893b
00000080: a261 2cbc 9761 433a 96a8 22bc 4d0c 413b
00000090: 77da c23b 218d 823c f3bd 0bbc c528 20bb
000000a0: 9617 993c fe42 ea3a 1bee aa3a 0f39 22ba
000000b0: 24b5 9f3b 37e5 1b3c 98b8 c83b bf1d 37bb
000000c0: 5fd7 973b f642 f03b b0a9 233c a701 a93b
000000d0: 669c 053c 5d77 273c 7edd da39 3d43 513a
000000e0: 187b d7bb 8bba a5bb d234 1d3c 2abb 053b
000000f0: c613 8c3b 472a 823a 6779 f3bb 6fec 013a
00000100: da2e 723b 87a9 b73c f097 5dba ba7e 1c3c
00000110: a3a4 8a3b 55b6 b53c ac5e 8cbb a044 713d
00000120: dba7 0f3c 7dc6 12bb f5ee 4b3b ea7e 063b
00000130: 50d2 ab3a 1954 6c3b 4590 3ebb cc88 d7bc
00000140: a5d8 7aba b66c db3b 9e63 9bb9 2ccf 913a
00000150: 8b83 49bb 63ec 053c e7c4 803a 74aa 703b
00000160: 1e75 083c 0281 5f3b bfc0 1dbc 035b 75bc
00000170: d75e 62bb cdf8 2b3c 2451 563b 2ca0 373c
00000180: 9380 1d3d 01b1 943b 918d da3b 4bbb 513c
00000190: 5c91 38bb c67b 9d3b 3b15 533d a850 493c
000001a0: c6b5 46ba f22e 0a3c 790b 26bc 0f07 163b
000001b0: 1ba6 1f3b 9ec0 7a3c a282 573c 55c2 3c3b
000001c0: f411 e03b f913 2a3b 6ec3 26bc 1028 eebb
000001d0: 7e26 40bb a57e 62ba fdfa d83b 0530 453c
000001e0: f618 10bc e172 373c ad25 d53b e747 3ebc
000001f0: f422 25bb a666 e2bc a629 e93b f367 313c
00000200: a53c 033c 0781 ba3b 4e92 f63b 44c2 163d
00000210: 3988 eaba 0a48 aa3c 19bf b83a 551c cb3c
00000220: a555 c3bb f5bc 253d c5a7 563c a937 1dbb
00000230: 63b6 1fbc 31b1 b0bb b277 c33b e911 40bc
00000240: fa97 e63c b926 913c c295 4f3c deab 703c
00000250: f817 56bb ed23 9bbc 48ad 733d 5624 943b
00000260: f726 013b c058 1abb c74e 9e3b 0f1f 76bb
00000270: e70e 373b 399f f9ba f010 aa3a c61a 32bc
00000280: 7e4e a83b 72ae 7f3b d7a3 1f3b 078c d93b
00000290: b75a d13b 892c f93b b7ba 0cbb 8526 6b3a
000002a0: ae3a b93b 2cd3 053c e903 51bc f77c aa3b
000002b0: 7b74 0d3c 3a30 8dba 597c 15bc 5265 063b
000002c0: 67ae 91bb fbd4 3d3c ae36 963c e665 cb3b
000002d0: 740c 693b c1bf c53c 166e bcba 7922 87bb
000002e0: dc95 32bc 5cd9 093d 5e3f c63b bd8f 673c
000002f0: c573 edb9 7337 ab3b 04ff aeb9 0e20 2b3d
00000300: ac84 f13c 546f a23c 1871 f53b 1d5c a73a
00000310: 59ff 3fbc 53bf 86bc 5d16 7abc 8361 493a
00000320: 314d 96bb 3c71 92bb 1e29 923b 7a10 88bc
00000330: d47f 183c ae1b 993c 75b0 8f3c 14ac 59bc
00000340: 290d fcbb 5fc3 6cbc 979b e53b 56ad b0bb
00000350: 915e 4ebc 2cfe b73a 180e c4bb 1436 f43c
00000360: f605 a9b9 fdc2 87bb c88e 04bc e7e1 b5ba
00000370: 0b95 223b 68f0 9f3b 057b 08bb d156 e93a
00000380: 26d4 78bc 6077 8e3c 48a6 ffb8 4fa5 103d
00000390: 96a6 f1bb 540f 06bc fcd7 a0bb 2957 013b
000003a0: 3e84 9cba e0fd 3c3a 4f7e 0cbc a56a 69bc
000003b0: 8526 56bb 37c9 333c d16e db3c 93fc 153c
000003c0: d3c7 663b 4551 5abc 5347 d8bb f1f2 ed3b
000003d0: 2a7a c0bb 28c8 343c 5502 f43a fc55 a93b
000003e0: 6e2d a83b 8861 f7bb 3f50 8c3b ab5e b03c
000003f0: fb8c b63c 4700 373c 7c83 dc3c 37ec a2bc
-0.025774023 0.004807424 -0.006298746 -0.0104912445 0.006924518 -0.002140534 -0.023826148 0.01986095
0.0057339324 0.0061429073 -0.0031395364 0.01582534 0.008161653 -0.0055835983 0.0010425544 -0.0016410836
-0.0042792945 0.016968952 -0.000979025 0.0043533626 -0.009928723 0.0037694008 -0.0036069653 0.00808497
-0.0040563196 -0.0021657685 0.00157585 0.001320413 0.0053902743 -0.0035255747 -0.01252018 0.004187145
-0.010521324 0.00074532017 -0.009927889 0.0029456795 0.005946453 0.015936436 -0.008529174 -0.0024438363
0.018688004 0.0017872748 0.0013040932 -0.0006188312 0.0048738886 0.009515098 0.006125521 -0.0027941314
0.0046338285 0.007332201 0.009989187 0.0051576677 0.008154964 0.0102213295 0.00041745225 0.00079827366
-0.006575953 -0.005057638 0.009595113 0.0020405748 0.004274818 0.0009930813 -0.007430244 0.0004956191
0.0036954195 0.022419704 -0.00084531214 0.009551698 0.004231052 0.02218167 -0.0042837467 0.058903337
0.008768047 -0.002239614 0.0031117771 0.0020522424 0.0013108943 0.0036060868 -0.002907769 -0.026310347
-0.0009569026 0.006696309 -0.00029638124 0.0011124364 -0.0030748572 0.008174035 0.0009824306 0.0036722692
0.008328704 0.0034103994 -0.009628474 -0.014975312 -0.0034541392 0.01049633 0.0032702172 0.011207622
0.038452696 0.004537702 0.006669708 0.012801002 -0.0028162813 0.0048060147 0.05153392 0.012287296
-0.0007580187 0.008434044 -0.010134571 0.002289239 0.0024360481 0.015304713 0.013153704 0.0028802354
0.0068380777 0.0025951846 -0.01017843 -0.0072679594 -0.0029319818 -0.00086400873 0.006621717 0.0120353745
-0.008795014 0.011196823 0.0065047354 -0.011613823 -0.0025197836 -0.027636837 0.0071155606 0.010828006
0.008010064 0.005691651 0.007524765 0.03680636 -0.0017893381 0.020786304 0.0014095037 0.024793783
-0.0059611374 0.040463407 0.013101523 -0.0023989475 -0.009748074 -0.0053922166 0.0059651965 -0.01172302
0.02814864 0.01771866 0.012669982 0.014689414 -0.0032668095 -0.01893803 0.059491426 0.004520933
0.0019707063 -0.0023551434 0.0048311683 -0.0037555133 0.0027932466 -0.0019044644 0.0012975018 -0.010870641
0.00513631 0.003901389 0.002435913 0.006639007 0.006388988 0.007604186 -0.0021473595 0.00089702784
0.005652747 0.008168023 -0.01275728 0.0052028853 0.008633728 -0.0010771819 -0.009123885 0.002050717
-0.004445839 0.011586423 0.01833662 0.0062072156 0.00355604 0.024139287 -0.001437607 -0.0041239825
-0.010899987 0.033654556 0.0060500344 0.014133391 -0.00045290418 0.005225116 -0.00033377868 0.041778617
0.029482208 0.019828476 0.0074902885 0.0012768541 -0.0117185945 -0.016448652 -0.015264121 0.0007682072
-0.0045868387 -0.004469065 0.004460468 -0.01660942 0.00930782 0.018689957 0.017540196 -0.0132856555
-0.0076919985 -0.014450877 0.007007073 -0.005391757 -0.012595789 0.0014037541 -0.0059831254 0.029810943
-0.00032238633 -0.0041431175 -0.008090682 -0.0013876528 0.0024808075 0.0048809536 -0.0020825278 0.0017802363
-0.015187299 0.017390907 -0.0001219032 0.0353139 -0.007374595 -0.008182365 -0.00490856 0.001973579
-0.0011941267 0.0007209461 -0.008575036 -0.014246617 -0.0032676768 0.010973266 0.02678624 0.009154457
0.003521432 -0.01332504 -0.0066002994 0.007261627 -0.005873938 0.011034049 0.0018616418 0.005167721
0.0051323688 -0.0075494684 0.004282027 0.021529516 0.022284022 0.0111695 0.026918165 -0.019888027

emb.fc.1.bias f4 [100]
00000000: ee8b a8b6 1bc7 f132 4063 022f 7bb5 caa7
00000010: e282 c4aa 5d12 7129 0b54 519d 7261 64b6
00000020: 1015 0000 0f43 0000 747d c1a9 7d7f 6dae
00000030: 69e3 2835 5c30 0080 c0da 881d 3d04 b92e
00000040: 3812 0000 e397 f937 dad1 fb9f 84fd e8a8
00000050: b2dc 37b5 8004 0080 e78a 0d38 874d 2fb4
00000060: 6403 c724 331a 0000 efd8 4827 0ba9 d3b4
00000070: fc61 88ad b21f b213 302c 172e 796b 8eb7
00000080: 244a 02aa 20fb df33 d24d 962f c5cf fe37
00000090: 2001 0000 2330 0c1f 50bf f534 6066 0d19
000000a0: a94d f0ab 73c3 061b ea04 0000 8f07 0000
000000b0: 1328 142b 4201 0080 d90a 17a7 3fa1 1e29
000000c0: 4a5b b527 6b75 e030 8af0 d3b4 0c0f 7ea5
000000d0: 3904 0000 6118 0080 879c 41b5 ac64 5337
000000e0: e5ca be2e 4add 3537 5b97 43ab a224 9995
000000f0: 4704 0000 a9c6 f12e 82a3 709e 8279 1eaf
00000100: 4a05 0000 fdcf cb2a e703 0080 34fd 6636
00000110: 8ffa 1a2d 4897 f133 a16e a2b5 4af2 9128
00000120: 5afc 0637 f610 5333 cccd 82b2 593d 9e97
00000130: 461d 0080 b909 f4b4 55d0 60ad e809 0000
00000140: 270c 0000 d40b 0080 33da dc00 e3aa ffa2
00000150: 6cd9 3bb2 ed0b 0000 3a17 0080 f7cb e4b2
00000160: e708 0080 3201 0080 2017 0000 c709 0080
00000170: 47fe 4b2f bda2 d59e 9291 adad 7e65 0080
00000180: 45db 9935 3818 0000 5a63 839d ed87 622b
-5.02308e-06 2.8146635e-08 1.1858692e-10 -5.6263024e-15 -3.4907412e-13 5.3528677e-14 -2.7704369e-21 -3.4031368e-06
7.556e-42 2.4056e-41 -8.5926844e-14 -5.4000793e-11 6.29158e-07 -1.7348e-41 3.6225082e-21 8.413579e-11
6.536e-42 2.975384e-05 -1.06649805e-19 -2.5867119e-14 -6.8493966e-07 -1.614e-42 3.3746383e-05 -1.632635e-07
8.630824e-17 9.399e-42 2.7873176e-15 -3.9424808e-07 -1.5504924e-11 4.496477e-27 3.437267e-11 -1.6977765e-05
-1.1572042e-13 1.0429926e-07 2.7340136e-10 3.037591e-05 4.04e-43 2.968597e-20 4.5774004e-07 7.310204e-24
-1.7074581e-12 1.1147373e-22 1.763e-42 2.712e-42 5.2635777e-13 -4.51e-43 -2.096134e-15 3.5222906e-14
5.0336568e-15 1.6331517e-09 -3.9476828e-07 -2.2036086e-16 1.515e-42 -8.746e-42 -7.212588e-07 1.26000195e-05
8.676241e-11 1.0839964e-05 -6.9487965e-13 -6.1854004e-26 1.534e-42 1.09947e-10 -1.2739307e-20 -1.4413185e-10
1.897e-42 3.6204365e-13 -1.4e-42 3.4420054e-06 8.809522e-12 1.1249955e-07 -1.2102138e-06 1.620331e-14
8.045778e-06 4.914269e-08 -1.5227577e-08 -1.0225997e-24 -1.0501e-41 -4.5455616e-07 -1.2779185e-11 3.554e-42
4.36e-42 -4.243e-42 2.0282084e-38 -6.929882e-18 -1.0934269e-08 4.278e-42 -8.332e-42 -2.6635446e-08
-3.194e-42 -4.29e-43 8.296e-42 -3.507e-42 1.855308e-10 -2.261956e-20 -1.9732469e-11 -3.6409e-41
1.1463204e-06 8.688e-42 -3.477814e-21 8.0479964e-13

clf.1.weight f4 [1, 100]
00000000: 813e 103e 3f68 1a3e 4969 65be b281 73be
00000010: a0a1 173e 108f 023e ccec 033e 7646 70be
00000020: 2c57 133e d2db 0e3e 3edf 6cbe 788f 173e
00000030: a044 163e 2ae5 133e 2b9c 78be d869 5ebe
00000040: 2826 1b3e 6136 65be e745 183e 14aa 71be
00000050: 7076 143e a2b5 0c3e 6ae2 0c3e 5677 68be
00000060: 6167 103e 14da 6dbe 3560 153e d124 043e
00000070: 4748 0e3e c53c 143e 9548 053e 3f2b 153e
00000080: 3c70 63be 26f9 023e 54db 6bbe 9347 153e
00000090: d1cd 123e e59d 173e e2b3 183e 9b57 213e
000000a0: bceb 68be 8f0c 023e 308b 143e 9e8c 0c3e
000000b0: dd5c 123e a2bd 1d3e 5012 6bbe 5891 163e
000000c0: afa2 163e ee7a 66be b511 1f3e 5b65 053e
000000d0: 17bc 66be 17a8 6bbe 2ab5 6bbe d38d 0b3e
000000e0: 4c0e 0f3e 2a9d 123e bcd8 083e 7955 6abe
000000f0: 7232 66be 9464 023e d4ca 133e b18a 77be
00000100: 5c3b 65be 0554 62be f9f5 083e cb4d 67be
00000110: ad54 153e 0b4d 75be ec7f 0c3e 1867 183e
00000120: 38d2 113e 7be1 1d3e 7be0 6abe bb0c 0e3e
00000130: 363c 76be 19b4 5cbe 2acb 163e 2e4f 0b3e
00000140: cd74 133e c100 1b3e bafe 0e3e ac34 0c3e
00000150: 106b 68be 1cfc 74be aad3 163e 29c0 64be
00000160: 7b10 113e 4200 043e 058a 0e3e ad91 75be
00000170: cf75 163e b824 193e d442 0f3e 423d 153e
00000180: bfce 67be eae2 0b3e 83f2 053e f6e1 1e3e
0.14086343 0.15078829 -0.22403444 -0.23779944 0.14807749 0.12749887 0.128833 -0.23464379
0.14388722 0.13951042 -0.23132035 0.14800823 0.14674616 0.14442888 -0.24278323 -0.21720064
0.15151274 -0.22384025 0.14870416 -0.23600036 0.14498305 0.13741162 0.13758245 -0.22701773
0.14101936 -0.23227721 0.14587481 0.1290467 0.13894759 0.14476307 0.13015969 0.14567278
-0.22210783 0.12790355 -0.23032886 0.14578085 0.14336325 0.14806326 0.1491237 0.15756075
-0.22746176 0.12700103 0.14506221 0.13725516 0.14293237 0.1540437 -0.22956204 0.14703882
0.14710496 -0.22507831 0.15534098 0.13026945 -0.22532688 -0.2301334 -0.23018327 0.1362832
0.13970298 0.14317766 0.13363928 -0.22884168 -0.22480181 0.1273368 0.14432842 -0.24174
-0.22385925 -0.22102363 0.13375081 -0.2258827 0.14583082 -0.23955171 0.13720673 0.14883077
0.14240348 0.15418045 -0.22937195 0.13872044 -0.24046406 -0.21553077 0.14725938 0.13604423
0.14400025 0.15137006 0.13964358 0.13691968 -0.22697091 -0.23924297 0.14729181 -0.22338928
0.14166443 0.12890723 0.13919838 -0.23981352 0.14693378 0.14955413 0.13990337 0.14574149
-0.22637461 0.1366078 0.13080792 0.15515885

exp_avg f4 [2, 1, 2, 1]
00000000: 9754 3abe 7f43 8c3e 1052 4dbe c603 a4be
-0.18196331 0.27395245 -0.20050836 -0.3203413

exp_avg_sq f4 [2, 1, 2, 1]
00000000: 3db9 383f 5466 2b3f 159f 493f fb79 6f3f
0.7215765 0.66953015 0.78758365 0.935455

exp_avg f4 [2]
00000000: ac02 9f3d dba2 9ebd
0.077641815 -0.07745906

exp_avg_sq f4 [2]
00000000: 6f35 873d 5b70 853d
0.066019885 0.06515571

exp_avg f4 [16, 1, 1, 50]
00000000: 9ae9 41bc dbaa eaba 2b25 2d3c 4b8d b73b
00000010: ec35 b43c 2c2b ae3c 7e50 203c 1490 8f3a
00000020: 589f e7bb 00e0 abbc e9fc 7cbc 2abc 8fbc
00000030: e967 aa3b e5ce c1bc 2b94 473b 1c03 8d3a
00000040: 4919 89bc 611c 2f3a 0662 2c3c 6c88 84bc
00000050: 3a1f 9539 8aa6 463c 54d8 363c 3ff1 413b
00000060: eba5 13bc 035e 193c 1a0f d7b9 508e 89bc
00000070: 087c 1cbc 4ad3 c83b a1a0 783c b1bf a5bc
00000080: eb1d c03c 27dd 10bd d2e1 8abc 0c81 c4bc
00000090: dbb4 87bc e35e edbc 143a d5bc d9cf c0bc
000000a0: 6695 cabc 933b 36bc 8794 823c f89c 103d
000000b0: 77fe de3c 2768 923c f056 7d3c 5dad 843c
000000c0: 8223 f53c 9678 f53c 4058 adb9 6554 bdb7
000000d0: 1bd3 13ba 2933 e3b8 5eb0 0aba e63a 4cb9
000000e0: 9d18 42ba 0b52 38ba ad6b b0b8 4c37 253a
000000f0: 4e48 8f39 8110 5239 624e 69b8 29d0 18b8
00000100: 5a53 13ba 929a 4ab9 f0ca 13ba ffc7 beb9
00000110: 6671 d8b9 8c8c 1fba 5a93 15ba d79b 1a39
00000120: d56c d8b7 68a8 013a 19dc 8739 52e1 17b9
00000130: 6d9c 9a38 1ec2 f1b9 c1fb 9db9 f888 1db9
00000140: 0d5d 80b9 e76b c238 beea c5b9 2a95 0cb9
00000150: 9ac6 e5b9 438b d2b8 d829 9d35 373c 15b9
00000160: 3a2b 3937 edda 9139 e9d5 9f39 5c72 f139
00000170: 971b 7139 503b 0239 052e f5b9 02dc b139
00000180: 7e66 95b8 cf85 5639 b85f eab8 2af5 8338
00000190: 03b1 623d 4d33 c33d 9590 693b 93d8 1b3c
000001a0: 63c4 7abd a774 223d 77f7 49bc bec6 523c
000001b0: 004c 2b3d 5849 1bbd d965 6d3c 4cdb 693b
000001c0: bd3b b0bd cad5 25bd 910b 80bd 67ed dfbc
000001d0: 42c2 ea3c 1fcf 993c 8a33 18bd eb37 97bd
000001e0: 4217 143d bfd0 f73b de99 f9ba 3fb5 223b
000001f0: 4d65 62bc 3fed 9fbd abac 2bbd 5ec9 71bb
00000200: 8ac4 febc 5dcc 783c de3d 44bd 7db1 9e3c
00000210: 1166 a13c f0fa 153b d730 d83b 11d4 2b3d
00000220: f066 47bd 3aa5 5a3c 804f 95bc cfba 1cbb
00000230: f49b 043c 2a4f ffbb 2bf4 813d 5d2e 0f3b
00000240: cbf2 663c 084b dfbb 0dde 4fbd fd22 453d
00000250: 47a2 543c 082d 0b3d 447c 9bbd 57f5 e73c
00000260: ec57 69bd 6fb4 09bd 5be8 ebbb 1f69 693c
00000270: eebb 32bd c116 32bc 03ac bc3c fcdd 13bc
00000280: 4e75 9abd c6f4 a7bc 3a3b 9bbd 7d5a 8dbb
00000290: cdbc 6cbd 0361 e4bc 6365 0ebd d6d3 cdbc
000002a0: d08d 48bd f1ad cb3b 1ff2 91bc 6749 1cbc
000002b0: 94d1 86bb 5886 3ebd d09c 573c faef 03bd
000002c0: caa9 723c a175 3d3d 2a5e 40bc ca7a d93b
000002d0: 6db2 17bd 5b24 6c3c 0696 263d e809 67bc
000002e0: 8e6d 3c3c 6d36 643c e735 13bd 2121 903c
000002f0: 8be4 003d 74c8 813d 5187 53bc 90dd 673a
00000300: 852a d83b 30de 52bc 0ac7 4cbd ca47 2a3c
00000310: 1acf 20bd 0666 45bd ebc4 c1bb f87c 7c3b
00000320: a6ff 233c 3e7a 543b ab97 c6bb bb88 adbb
00000330: f4b6 4cbc 9228 103c ab07 4a3b 6cd3 a23c
00000340: a9a4 b53a 23bc 8a3c 88a4 893c 4ee7 053c
00000350: 4784 233b fdcb 4b3c da6b 23bb 1936 d8bb
00000360: e322 833b eab2 60bc 00cf 1bbc 48ff a33c
00000370: 7ae4 f8bb db0f 143c e21a 833b ce37 c03c
00000380: 4061 eb3b f413 973b 2a6d 7f3a 7c77 a53c
00000390: 3b90 653c dc65 acbb fff6 e83b 4966 cb3c
000003a0: d486 793b f404 513c aabe 4c3b ddc4 b23c
000003b0: 72da 38bc c862 be3a be25 1b3c 9440 dc3c
000003c0: 243c 8ab8 5ff7 8cba 61c8 c5ba b0dc 20ba
000003d0: 136b 0ebc 4f5c ea3b 347c 063c 30b3 d63b
000003e0: 39ef 4c3c fa82 e73b 47d6 cf3d 9233 e63d
000003f0: 5d84 c33d 9558 9e3d ddf2 d4bc 68e1 2f3c
-0.01183548 -0.0017903702 0.010567944 0.00560156 0.021998368 0.02126082 0.009784816 0.0010952973
-0.007068556 -0.020980835 -0.015441158 -0.017545778 0.0052003753 -0.023658225 0.0030453305 0.0010758373
-0.01673569 0.0006679949 0.0105214175 -0.016178332 0.0002844276 0.012124667 0.011159975 0.0029593257
-0.009011726 0.009360793 -0.00041019247 -0.016791493 -0.009551056 0.0061287032 0.015175016 -0.020233007
0.023451766 -0.035367157 -0.016953383 -0.023987316 -0.01656573 -0.02897591 -0.02602867 -0.02353661
-0.024729442 -0.011122602 0.015939964 0.035305947 0.027220948 0.01787193 0.015462622 0.016195947
0.029924158 0.029964726 -0.00033062883 -2.2569855e-05 -0.0005639062 -0.00010833733 -0.0005290563 -0.00019476897
-0.00074041804 -0.00070312683 -8.41239e-05 0.00063024904 0.00027328957 0.00020033309 -5.562453e-05 -3.643349e-05
-0.00056200253 -0.00019321803 -0.0005637845 -0.00036388633 -0.0004128322 -0.0006086312 -0.0005705856 0.0001474464
-2.5799885e-05 0.0004946054 0.00025913192 -0.0001448442 7.372429e-05 -0.0004611173 -0.00030132945 -0.00015023712
-0.0002448339 9.270739e-05 -0.00037749665 -0.00013407008 -0.00043826253 -0.0001003952 1.170959e-06 -0.00014232179
1.1036924e-05 0.00027819668 0.0003048622 0.00046052306 0.00022993829 0.00012419862 -0.0004676433 0.0003392399
-7.123964e-05 0.00020458478 -0.000111758185 6.292232e-05 0.055344593 0.09531269 0.0035639156 0.009512085
-0.061222445 0.03966203 -0.012327067 0.012864767 0.041820526 -0.037911743 0.014489614 0.003568369
-0.08605144 -0.04048709 -0.06252206 -0.027334882 0.028657082 0.01877552 -0.037158526 -0.073837124
0.036154993 0.0075627263 -0.0019043048 0.002482727 -0.013818097 -0.07808923 -0.041912716 -0.0036893706
-0.031099577 0.015185443 -0.047910564 0.019371742 0.01970199 0.0022885166 0.006597619 0.04195029
-0.048682153 0.013345057 -0.018226385 -0.0023915058 0.008093823 -0.0077914195 0.063453995 0.0021847703
0.014095972 -0.0068143643 -0.050748874 0.04812907 0.012978143 0.033978492 -0.07592061 0.02831523
-0.056968614 -0.03361934 -0.00719933 0.014246254 -0.043636255 -0.010869683 0.02303124 -0.009025093
-0.07541905 -0.02050246 -0.07579656 -0.0043137656 -0.057797242 -0.02787829 -0.03476466 -0.025125425
-0.048963368 0.006215804 -0.017815648 -0.009538985 -0.004114339 -0.04651484 0.013159946 -0.03221128
0.014810989 0.046254758 -0.0117412 0.006636952 -0.037035394 0.014412965 0.040670417 -0.014101483
0.011500729 0.013928992 -0.035940077 0.017593922 0.031467956 0.063370615 -0.01291068 0.0008844966
0.0065968656 -0.012870356 -0.049994506 0.010393092 -0.039260007 -0.048193 -0.005913367 0.0038526636
0.010009682 0.0032421495 -0.0060605607 -0.0052958406 -0.012494791 0.008798735 0.0030827324 0.019876204
0.0013858277 0.016935414 0.016802087 0.008172823 0.002495067 0.012438771 -0.002493611 -0.006598246
0.0040019616 -0.013714531 -0.009509802 0.020019189 -0.007595596 0.009036983 0.0040010074 0.02346411
0.007183224 0.004610533 0.0009743745 0.020198576 0.014011438 -0.005261166 0.0071095224 0.024829047
0.0038074749 0.012757529 0.0031241574 0.021822387 -0.01128255 0.0014525289 0.009469448 0.026886262
-6.591555e-05 -0.0010754875 -0.0015089625 -0.00061364006 -0.008692521 0.0071521173 0.008208323 0.0065521225
0.012508207 0.007065174 0.10148292 0.11240305 0.09546731 0.077317394 -0.025994712 0.010734893

exp_avg_sq f4 [16, 1, 1, 50]
00000000: b4ca 4c3b b83e 6d3b 0434 423b 9250 3b3b
00000010: caa2 243b 0bcd 3b3b 7b80 3d3b 9374 4b3b
00000020: 3d85 293b 996b 283b 2600 2b3b 9ab6 4d3b
00000030: 0882 263b 2b16 333b d5ee 483b 1dff 413b
00000040: 0dd4 403b 4f36 383b c7d4 2b3b b5a9 273b
00000050: aa5d 343b 34fc 2c3b c726 2a3b d244 4d3b
00000060: cae3 503b ba9e 3e3b 6082 3a3b 31be 893b
00000070: 1860 3c3b 15a2 393b 7160 2c3b c3a9 3d3b
00000080: 2e7e 503b 0dd6 403b 6c96 3f3b 9b2c 353b
00000090: f9fc 5b3b fafd 343b 613d 513b b421 4f3b
000000a0: 32b1 573b 569f 663b 2cc3 413b bac1 3c3b
000000b0: 4ff7 3a3b 29dc 3f3b d2b8 413b 0dee 233b
000000c0: 19c1 523b 5452 273b 64af 8639 58e4 9a39
000000d0: 9ecf 8f39 c12c 7339 2f5f 6c39 e0b4 6f39
000000e0: a999 7939 b2ee 9439 82a7 8539 0c0e 8c39
000000f0: 299d 9439 503c a739 703b a839 53a8 af39
00000100: 089e 9339 6c60 8e39 a778 9a39 54c6 9139
00000110: f5a1 8839 8744 8a39 716d a239 980c 9039
00000120: d9ef 9b39 9b2a 8639 d5da 8739 4c86 b139
00000130: 8ea5 a639 73ec d539 834f a139 d580 9039
00000140: 527c 8339 fd81 8a39 ae90 9b39 5380 9139
00000150: 6954 8b39 e492 a939 ee9c 9439 e0b4 aa39
00000160: c2ca a239 e7e8 a539 3b96 9539 29a2 9539
00000170: 0fa5 9939 6128 9539 88b6 9439 a394 b539
00000180: 23a7 8439 b563 7f39 0e10 9139 2557 c239
00000190: 1ad9 033d 60e1 ee3c 21b8 d63c 5ad7 dd3c
000001a0: 4754 0e3d da15 f33c 7142 f23c a92c ce3c
000001b0: 99a2 e03c 177f ee3c d946 d73c 4d99 ef3c
000001c0: 190e e13c 9547 da3c 18d2 dc3c 9610 f73c
000001d0: 1798 e63c 34e9 043d 7f3c 163d 05d1 033d
000001e0: 7468 033d ecdb e53c c48b ed3c 6450 e13c
000001f0: dcee e93c c295 e83c c3e1 ee3c 6e00 da3c
00000200: 86b4 cf3c 7a63 f23c 206b ed3c 1f0b e63c
00000210: 5cab dc3c 22f7 d73c bb6d da3c d11a e43c
00000220: f7d6 013d 1350 d33c 0250 da3c 8ce7 ce3c
00000230: 9cc0 de3c 1226 f93c babf ce3c e738 e63c
00000240: ab42 c23c 7299 d43c ae84 cd3c 5e18 de3c
00000250: bd9f d33c ad4d f03c a860 2d3c 3aff 293c
00000260: aa6e 1e3c 001b 403c c248 2b3c 78c4 263c
00000270: 3c38 373c c099 473c cc99 363c 5087 2a3c
00000280: 1c72 3d3c 76ae 2a3c 0792 293c cedb 1a3c
00000290: 2f1c 253c c51e 1e3c 267d 253c a287 153c
000002a0: 3e39 453c c820 333c a02a 2b3c 1219 1a3c
000002b0: af76 173c e532 2c3c b60d 2f3c e4cb 0d3c
000002c0: c426 2e3c a92a 123c d720 073c d6d4 133c
000002d0: 9dca 393c cf97 3d3c 0c5b 2d3c 32df 133c
000002e0: 361b f53b 490a 0d3c 1148 1e3c 323c 173c
000002f0: 0d8f 313c 9394 2c3c 86b6 1c3c 267f 243c
00000300: 7d97 353c 0bca 1d3c 9e2a 2c3c 65ca 173c
00000310: a001 213c 9f43 203c 11fb 353c ccda 463c
00000320: 1dd0 e839 823f 153a 24de 233a b01a 533a
00000330: 66be 1d3a e8e0 133a 0097 233a 6fcd 0b3a
00000340: 9deb 0a3a 286a 0b3a 0390 df39 b8fc 4f3a
00000350: b7cc 043a 1047 633a ed5c 403a fc69 303a
00000360: 4711 283a bdba 573a 9745 043a 05c8 1b3a
00000370: 9fdf 0f3a 8769 2d3a 6e10 063a 1230 553a
00000380: 5a2c 033a 12e4 1f3a 5b74 fc39 e15a 1d3a
00000390: cb17 523a 59c4 143a 38ef 193a 3557 323a
000003a0: d36d 123a 444d 1b3a 0a6c 333a 4c5a 0c3a
000003b0: fc9c 173a a0f0 223a daf5 183a 80ee 503a
000003c0: 3e6f 613a 0e49 773a b6da 4a3a db85 2f3a
000003d0: 6da4 213a 5ea1 dc39 d2fc fc39 31e6 d439
000003e0: 1ea7 e439 d793 013a d1d0 643c 3153 623c
000003f0: 5c7c 613c e854 5d3c 9362 673c 6d7c 3b3c
0.003124875 0.0036200713 0.0029633055 0.002858196 0.0025121444 0.002865615 0.0028915692 0.0031044825
0.002586677 0.0025698899 0.0026092618 0.0031389357 0.0025407095 0.0027326446 0.0030659933 0.0029601522
0.0029423267 0.0028108542 0.0026219354 0.002558333 0.0027521648 0.0026395442 0.0025963055 0.0031321538
0.0031874054 0.0029086308 0.0028459057 0.004203581 0.00287438 0.0028325368 0.00263026 0.0028940297
0.003181349 0.002942446 0.0029233946 0.0027644995 0.0033567532 0.0027617202 0.0031927454 0.0031605782
0.0032912013 0.0035190186 0.0029565794 0.0028801993 0.0028528755 0.0029275513 0.0029559624 0.0025013715
0.0032158552 0.002553125 0.00025689148 0.00029543298 0.00027429772 0.00023190958 0.00022542173 0.00022860197
0.00023803733 0.00028406602 0.0002549254 0.00026713347 0.00028345853 0.00031897658 0.0003208774 0.00033504012
0.00028155767 0.0002715619 0.00029463062 0.0002780432 0.0002606061 0.00026372468 0.00030980588 0.00027475203
0.00029742604 0.00025590215 0.0002591225 0.0003386013 0.00031785335 0.00040802694 0.00030767554 0.00027561808
0.00025078893 0.0002641826 0.000296717 0.00027752164 0.00026575036 0.00032343634 0.00028345681 0.0003255969
0.00031050114 0.00031644778 0.00028531425 0.00028540313 0.00029305412 0.0002844958 0.00028364756 0.00034633753
0.00025301529 0.00024355839 0.00027668517 0.0003706749 0.032189466 0.029160202 0.026210846 0.027080227
0.034748342 0.029673506 0.029572697 0.02516778 0.027421283 0.029113336 0.0262789 0.029247904
0.027472543 0.026645461 0.02695565 0.030159276 0.028148694 0.032448962 0.036678787 0.03218176
0.032082036 0.028058968 0.02899731 0.027504154 0.02855628 0.028391723 0.029160386 0.026611533
0.025354635 0.02958845 0.028981745 0.028081475 0.02693718 0.02636296 0.026663652 0.027844818
0.031699147 0.025795018 0.026649479 0.025256895 0.027191453 0.030413661 0.025237907 0.028103305
0.02371343 0.025952075 0.02508768 0.027111229 0.025833005 0.029333914 0.010582127 0.010375792
0.009669939 0.011725187 0.0104543585 0.010178678 0.011182841 0.012182653 0.0111450665 0.010408238
0.01156285 0.010417571 0.010349757 0.00945182 0.01007752 0.009650891 0.0101006385 0.009126576
0.012037573 0.010933109 0.010447174 0.009405391 0.009244605 0.010510181 0.010684421 0.008654568
0.01062936 0.008921304 0.008247576 0.009022912 0.011339811 0.0115718385 0.010580789 0.009025382
0.0074800504 0.008608409 0.009660737 0.00923066 0.010837329 0.01053347 0.009565001 0.01004008
0.011083481 0.00963069 0.010508208 0.009264563 0.009827048 0.009781747 0.011107222 0.012137126
0.00044405545 0.00056933623 0.0006251058 0.0008052988 0.0006017446 0.00056411186 0.00062404573 0.0005333041
0.00052993913 0.0005318248 0.00042641172 0.00079340814 0.0005065905 0.0008669952 0.0007338066 0.000672966
0.0006411266 0.00082294253 0.000504577 0.0005942586 0.0005488339 0.0006615151 0.00051141426 0.0008132468
0.00050038623 0.0006099354 0.00048151877 0.0006002617 0.00080144097 0.000567501 0.0005872133 0.0006803156
0.0005585823 0.0005924294 0.0006844407 0.00053540315 0.00057835854 0.00062156655 0.00058349746 0.00079701096
0.0008599645 0.0009433188 0.0007738279 0.0006695666 0.0006166164 0.00042081898 0.0004825355 0.00040607297
0.0004361206 0.00049429893 0.013965801 0.01381378 0.01376256 0.013509013 0.014122623 0.01144324

exp_avg f4 [16]
00000000: d2e1 5d32 3fe3 642a 9089 9232 e4ec a331
00000010: 508d bf31 09d6 98b2 067a e830 8899 75b1
00000020: aa0f 77b1 ad07 e1b2 53f8 27b1 1d1e 6632
00000030: cb36 a832 4a05 332e 1d21 8a32 ad90 deaf
1.2915239e-08 2.032931e-13 1.7059193e-08 4.7708557e-09 5.574897e-09 -1.779246e-08 1.6914903e-09 -3.5739465e-09
-3.5952135e-09 -2.6196938e-08 -2.4442854e-09 1.3394609e-08 1.9582691e-08 4.0704586e-11 1.6080373e-08 -4.0484363e-10

exp_avg_sq f4 [16]
00000000: b7aa cc28 4371 442b 0dc2 6c29 f811 3829
00000010: fd28 f628 da89 9129 b63e 2b29 eef1 862a
00000020: 37ea ee29 c021 5229 4d1e b629 ce88 022a
00000030: 061a 2229 0cbe 0329 fd3b f62a 80ce 8a28
2.2722585e-14 6.979037e-13 5.257084e-14 4.0871793e-14 2.7329262e-14 6.463207e-14 3.802402e-14 2.3971054e-13
1.0609953e-13 4.665864e-14 8.08768e-14 1.1593783e-13 3.5993798e-14 2.9252683e-14 4.3740003e-13 1.5410633e-14

exp_avg f4 [16]
00000000: 7eb4 cc3d 4206 16ba 5539 663d 7afd 103e
00000010: d1d4 fa3c 6485 d4bd 9737 1abe 2e30 b13d
00000020: cb80 d4bc 44a8 bc3d d776 57bc 53b6 c83c
00000030: 08bc f13d f4ee b23b 561f 793c e6fd 71bd
0.09995364 -0.00057229784 0.05620702 0.14159194 0.030619057 -0.10377005 -0.15060268 0.08651768
-0.02594032 0.092117816 -0.013150892 0.024501001 0.11803442 0.0054606143 0.015205225 -0.059080027

exp_avg_sq f4 [16]
00000000: 51a4 023d 68d2 e03b 42ee 8f3d 79ce 7c3d
00000010: 0f8f 1c3c 7a92 443d 3100 2c3d 23e7 d23c
00000020: abb4 a73d 08c9 bb3c 22f2 283d d99e 573d
00000030: f44e 103d f316 4b3c 0fc5 f33c c9bd da3c
0.031894986 0.00686102 0.07027866 0.061720345 0.009555592 0.047991253 0.04199237 0.02574498
0.081887566 0.022923008 0.04124654 0.052641723 0.035231546 0.012395608 0.02975705 0.026701825

exp_avg f4 [16]
00000000: d1d2 3c3c ed08 0dba 1900 2c3d 215c 493d
00000010: 101d 163d 5225 00bd 882f 993c 7a87 75bd
00000020: affe 3ebb 3c91 453d ab19 393c 5de1 8a3d
00000030: 5cc2 a23d 6c9b de3a bed2 9b3c 730f c0bc
0.011524872 -0.0005380053 0.04199228 0.049160127 0.03664881 -0.03128559 0.018699422 -0.059943654
-0.0029143502 0.04823421 0.011297624 0.06781266 0.07947227 0.0016983575 0.019021388 -0.023444867

exp_avg_sq f4 [16]
00000000: 0675 073c 0788 293b b313 8d3c 02c5 793c
00000010: 178a 253b 01e0 9d3c 870b 693c 512a b83b
00000020: a639 c33c eb2f 053c b6b5 5f3c 3592 8f3c
00000030: ec3f 023c d32e 8d3b a633 f13b 8912 ee3b
0.008267647 0.0025868432 0.017221307 0.015244724 0.002525931 0.019271852 0.01422394 0.005620279
0.0238312 0.0081291 0.013654163 0.017525772 0.0079498105 0.0043085604 0.0073608933 0.007265393
