src/params.pth (torch, 412117 bytes, 43 tensors)

emb.spatial_conv.weight f4 [2, 1, 2, 1]
000000 1a 60 12 bf ff 77 07 3f b3 26 02 3f 9b 24 09 3f
       -0.5717789 0.52917475 0.508403 0.5357148

emb.spatial_conv.bias f4 [2]
000000 2b da 55 be 19 e6 72 bd
       -0.20884006 -0.05930147

emb.feature_extractor.0.weight f4 [16, 1, 1, 50]
000000 44 08 ef bc c3 65 91 3c e0 e5 f0 3c 79 72 a2 3c
       -0.029178746 0.01774872 0.029406488 0.019829975
000010 d2 77 c5 bc a1 bb 7c 3d ae 4c d8 bc 08 7e 3d 3d
       -0.024104986 0.061702374 -0.026403751 0.04626277
000020 74 22 b4 bc 8f b7 b0 bb 51 63 5f bd aa 76 30 bd
       -0.021989085 -0.0053929756 -0.054538075 -0.043081917
000030 6a f9 13 bb bd 75 47 3d 93 c3 07 bd 4f 34 87 bd
       -0.0022579082 0.04869627 -0.0331455 -0.06601774
000040 88 4a 69 bd e8 10 10 bd 26 e8 22 ba a5 50 eb bc
       -0.056955844 -0.035172373 -0.00062144024 -0.028724978
000050 21 2a 43 3c ab 19 99 3c 30 72 d5 3c 29 4d 86 3d
       0.0119119 0.018688997 0.026055425 0.06557686
000060 3c 4a 7d 3d b4 ad 7d bd 3d 9e 30 3c 26 f4 51 ba
       0.061838374 -0.061933234 0.010779914 -0.0008009098
000070 ed d4 81 3c fa 12 f4 bd 50 46 42 bd f7 69 51 bd
       0.015848601 -0.11917682 -0.047430336 -0.051126447
000080 dc db 19 3b b2 a7 53 3c 71 50 91 bd c7 f4 14 3d
       0.0023476994 0.0129184 -0.07095421 0.03636625
000090 3d 37 9e 3d 5f f5 8c bd 89 84 e5 3d 62 72 78 3a
       0.077253796 -0.06882738 0.1120692 0.00094774936
0000a0 ff 5e d9 bc 6d 05 9b ba 1d 2c 11 bd 78 d8 18 bd
       -0.026534555 -0.0011827179 -0.03544246 -0.037315816
0000b0 5d 1a b4 bc f9 b2 6e 3d 8e b3 d2 bc 50 ff 00 bd
       -0.021985227 0.05827615 -0.025720384 -0.031493485
0000c0 ab 77 08 bd 25 32 86 bc ba 76 b9 3b cb b0 e0 3b
       -0.03331725 -0.016381333 0.0056599053 0.006857013
0000d0 86 1a 50 3a 06 23 4c 3a 13 31 b0 3a a7 f6 60 3b
       0.00079385226 0.00077872013 0.001344236 0.0034326704
0000e0 ac 42 08 3c 72 db 81 3c ec 52 35 3d b7 90 14 3d
       0.008316677 0.01585171 0.044268534 0.036270823
0000f0 0d 83 1e ba ea 81 1b bb 76 fb 81 3c 92 68 0a 3d
       -0.000604675 -0.0023728558 0.015866976 0.033791132
000100 3c 80 a9 3b fa 0d 52 bc f9 cb c7 bc 03 4b e5 3c
       0.0051727574 -0.012820715 -0.024389254 0.02798987
000110 ad 42 22 bc 75 03 52 bc 08 b1 12 bc de 26 a8 bb
       -0.009903592 -0.012818207 -0.00895334 -0.0051315865
000120 87 19 44 3a de 2b d2 bb cd 75 f4 bb b4 4a ea 3c
       0.00074806105 -0.006413921 -0.007460332 0.028600074
000130 14 b7 c0 3a b7 b0 da 3c 94 ab 40 3c a2 a4 ad 3c
       0.0014702999 0.026695592 0.011759657 0.021196667
000140 c0 18 97 3c 98 36 a9 bc 17 10 24 ba 30 1c ba 3c
       0.018444419 -0.020655915 -0.0006258501 0.022718519
000150 c2 2c 78 bc 05 3c d3 3c 5f 1c af b8 02 81 a4 3b
       -0.01514739 0.025785455 -8.349935e-05 0.0050202617
000160 89 1a af bb 13 8c 89 bc bc 0d df bb 11 69 9f 3b
       -0.0053437394 -0.016790425 -0.006807057 0.00486482
000170 fa b5 b0 bb bd a3 b4 3b fc 62 a3 b9 0c 7d f7 3c
       -0.005392787 0.005512683 -0.00031163532 0.030210994
000180 4b 0d 05 3d 62 b5 77 3c b0 ae 77 3c 90 18 3b 3c
       0.03248338 0.015118929 0.015117332 0.01141943
000190 01 4e da bd 28 0f 21 3d 91 56 8c 3d fd 70 a2 bd
       -0.10659409 0.039321095 0.06852449 -0.07931707
0001a0 19 3b 0e bd 57 ea 7b 3d ee a5 53 bc a5 d2 6c bc
       -0.03472433 0.06150278 -0.012917979 -0.014454518
0001b0 71 71 0e bc 1f c7 00 bd 07 52 f0 bb 59 5f 24 3d
       -0.008694039 -0.031439897 -0.007333997 0.040129993
0001c0 81 4a d1 bc 05 1b bc 3d ef 60 a6 bd 0f 24 a6 bd
       -0.025548222 0.09184841 -0.08123957 -0.081123464
0001d0 26 f5 a9 bc 62 4e bd ba af 6e 29 3e 2a 0e f6 bd
       -0.020746779 -0.0014442916 0.16546129 -0.1201442
0001e0 c1 c2 1d 3c 1f c9 65 3d 76 64 18 3d b0 99 08 3d
       0.0096289525 0.056100007 0.037205182 0.033349693
0001f0 a1 24 6d 3c cd b3 c3 bc 72 c6 1a 3e d0 e0 f3 bd
       0.014474065 -0.023889447 0.15114763 -0.11908114
000200 5e 99 0a bd 46 fa a6 ba 52 6e 4c ba cc 92 01 3e
       -0.03383767 -0.0012739382 -0.00077984214 0.12653655
000210 82 5f 71 3c 61 61 54 bd 48 59 3a bd e3 4b d7 bc
       0.0147322435 -0.05185068 -0.0454953 -0.026281303
000220 86 2e 70 bc f4 54 e8 bd 98 42 24 3e fb 13 df bc
       -0.01465953 -0.113443285 0.16041028 -0.027231207
000230 19 b8 77 3d ff 4c b9 bd 8a 41 8a 3c a7 b2 2a bd
       0.060478304 -0.09047889 0.016876955 -0.041674282
000240 02 f0 01 bc 0b e3 8a bd 04 43 95 bd 52 b8 9c 3c
       -0.0079307575 -0.06781586 -0.07288173 0.01913086
000250 66 b1 84 bd a6 76 ee 3b 8d aa e3 bc 2d 38 20 bd
       -0.064791486 0.0072773276 -0.027791286 -0.039116073
000260 9f 91 3d 3c a6 83 ac bd bb 91 24 3d d9 28 c9 bc
       0.011570363 -0.084235474 0.040178042 -0.02455561
000270 bc 68 d2 3c 27 48 18 bd 0b e8 98 bb 9a bb a1 bc
       0.025684707 -0.037178185 -0.0046663336 -0.019742776
000280 1b 92 30 3e e2 44 fc bd 14 3a 8a 3d ea 5c c6 bc
       0.17243235 -0.12317826 0.06749359 -0.024214227
000290 06 ad 53 3d 83 71 29 bd 2f d8 ce 3d dc f5 47 bb
       0.05167868 -0.04136802 0.100998275 -0.0030511534
0002a0 1b 0c 8c 3d 6f 20 f5 3c dd ab f3 bd 9d f7 1e 3d
       0.068382464 0.029922692 -0.11898015 0.03881036
0002b0 ae 99 26 bc c8 95 e7 3d 52 18 83 3d 3b fb ce bc
       -0.010168476 0.113078654 0.06401123 -0.02526628
0002c0 00 6a d9 bc 9e d2 98 bc 03 d0 e9 bd 98 43 df bd
       -0.026539803 -0.018655118 -0.11416628 -0.10901564
0002d0 09 9e 86 3c 56 44 92 3d 89 47 44 3d 14 de a3 bd
       0.016432779 0.0714194 0.047919784 -0.080013424
0002e0 6d 5c cd b9 00 b4 a8 bd 38 96 dc bc 24 30 0e 3c
       -0.0003916951 -0.08237457 -0.026927099 0.00867847
0002f0 c3 0d 26 3d 41 14 cc 3c cd dc 75 3d 21 9f e2 3d
       0.040540468 0.024912002 0.060025025 0.11065508
000300 4e 5f 6c 3d b3 fc 03 be d8 1d 04 bd 63 bc e1 3c
       0.057708077 -0.12889366 -0.032255024 0.02755565
000310 36 4d 3b 3e 4c 2c 02 bb b5 fb 8d 3a 71 f5 26 be
       0.18291172 -0.0019862829 0.0010832461 -0.16304566
000320 77 78 19 35 a4 39 b2 b6 45 5b 67 b6 ec 9f 3f b6
       5.717224e-07 -5.3115236e-06 -3.4474808e-06 -2.8554305e-06
000330 8d 2d df 35 ed e9 2f b6 0e 8b 91 b7 a3 7f 3c b7
       1.6628052e-06 -2.6213195e-06 -1.73501e-05 -1.1235391e-05
000340 f3 04 4b b7 f0 9e be b7 37 59 e6 b5 41 8f d3 b5
       -1.2100895e-05 -2.2723776e-05 -1.71623e-06 -1.5762417e-06
000350 64 2c d2 b5 65 c1 1c 36 17 aa 31 b7 74 bd f0 b6
       -1.5659139e-06 2.3358382e-06 -1.0589624e-05 -7.1746126e-06
000360 dd b4 6d b6 05 88 a5 36 53 e6 d0 b5 0a 0d d4 b4
       -3.5421028e-06 4.933218e-06 -1.5564241e-06 -3.9497564e-07
000370 21 e4 9d b6 88 92 d2 b6 5c 2d 75 b5 c1 74 93 37
       -4.7055223e-06 -6.275546e-06 -9.133562e-07 1.7578133e-05
000380 21 08 8e 37 cf 1d cf 36 29 62 d1 36 0b 03 6b 37
       1.6931504e-05 6.172551e-06 6.2401127e-06 1.40078e-05
000390 d9 b9 6b b6 6c a4 8e b6 12 3b cb b6 b8 c8 06 37
       -3.5125906e-06 -4.251071e-06 -6.056748e-06 8.033756e-06
0003a0 5f a6 a8 b5 d7 8d 0a b6 77 2c 63 b6 06 39 64 b7
       -1.2565396e-06 -2.0646164e-06 -3.3851518e-06 -1.3603136e-05
0003b0 89 9d d7 b6 35 ce 4e b7 95 1a ca b6 53 9a 45 b6
       -6.425839e-06 -1.2326568e-05 -6.0231637e-06 -2.9445116e-06
0003c0 e3 b8 66 36 fb 46 a8 b6 1d 05 f7 b5 37 c2 6a 36
       3.438029e-06 -5.0150534e-06 -1.8404422e-06 3.4981765e-06
0003d0 18 90 73 35 ee b4 5c 36 8d cb 14 37 ec 3a 11 b5
       9.073424e-07 3.288787e-06 8.86888e-06 -5.410245e-07
0003e0 af e5 df 35 47 4a 95 b5 cc 73 f3 bb 42 e4 5d bd
       1.6681641e-06 -1.1122983e-06 -0.0074295755 -0.05417276
0003f0 ae 9b b3 3c 02 9c 5c 3d f8 3d 95 bd 06 29 dc 3c
       0.02192482 0.05385972 -0.0728721 0.02687503

emb.feature_extractor.0.bias f4 [16]
000000 e4 4f 1e 38 a8 86 8b 36 b1 08 e2 b6 fd a4 1c b6
       3.774454e-05 4.158199e-06 -6.7363367e-06 -2.3341847e-06
000010 12 24 8e 09 7d 2c 17 b8 6c 84 2c 38 62 a2 3e 31
       3.4219177e-33 -3.604264e-05 4.1131323e-05 2.7740943e-09
000020 02 14 4a b6 2a 93 e5 37 36 62 ce b7 99 4f 21 b3
       -3.0111992e-06 2.7367456e-05 -2.4602847e-05 -3.7558127e-08
000030 f6 97 b4 b7 f6 f3 8c 31 1e 37 c2 37 73 f3 f3 34
       -2.1528434e-05 4.1022714e-09 2.3152268e-05 4.543941e-07

emb.feature_extractor.1.weight f4 [16]
000000 5b 18 d5 3d d9 99 5f 3d cf 9b 6a 3e 7a 4e 7b 3e
       0.10405036 0.05459008 0.22910999 0.24541655
000010 10 4d 64 3a 89 a5 07 3e 36 ef b4 3d 17 5b 6a 3c
       0.0008708993 0.1324674 0.08834688 0.014303944
000020 83 b0 07 3e 34 8e 74 3e 49 b8 2d 3e ce 31 c0 3c
       0.13250928 0.23882371 0.1696483 0.023461249
000030 ce 5a 6b 3e 64 4f 19 3c 15 f4 5f 3e 01 29 a0 bb
       0.22983858 0.009357307 0.21870454 -0.0048877005

emb.feature_extractor.1.bias f4 [16]
000000 c2 ea 06 be c7 3e 0b 3d e3 e0 80 be f6 92 3f be
       -0.1317549 0.033995416 -0.25171575 -0.18708405
000010 1f d5 dc ba 53 c4 07 be 52 f5 c1 bd 44 28 43 bd
       -0.0016848183 -0.13258485 -0.09470619 -0.047645822
000020 bb 85 56 bb 79 96 32 be bb 14 14 be 7d c3 9c bd
       -0.0032733518 -0.17440213 -0.14461033 -0.07654474
000030 b0 8b 32 be dd a8 08 bd 76 b7 8a be b9 1e b3 bc
       -0.17436099 -0.033364166 -0.27093095 -0.021865236

emb.feature_extractor.1.running_mean f4 [16]
000000 a2 86 4b 3d 1c 0a 31 bd f7 b1 1d 3d c0 99 b9 bb
       0.049688943 -0.04322253 0.0384998 -0.0056640804
000010 9b 8b 44 37 04 36 23 3d 52 32 01 3d 65 13 84 bc
       1.1715015e-05 0.039846435 0.03154213 -0.01612253
000020 7f af ab bd 22 bf 2b 3c 88 e8 16 bd c7 70 4a bd
       -0.083830826 0.010482581 -0.036842853 -0.04942396
000030 0b 34 de 3c 4b 0d 4e bc 28 08 d5 ba d0 35 b6 3c
       0.027124425 -0.0125764115 -0.0016253041 0.022242457

emb.feature_extractor.1.running_var f4 [16]
000000 b0 bf 6e 3d 35 53 70 3c a6 b9 ab 3d b1 35 de 3d
       0.058288276 0.014668276 0.08385019 0.108500846
000010 d6 73 6a 31 04 4d 56 3d 88 00 08 3d e8 a4 94 3b
       3.4117327e-09 0.05231954 0.03320363 0.00453626
000020 8b a1 a6 3d a0 d0 e3 3d b9 63 02 3e 79 b6 34 3d
       0.081362806 0.111237764 0.12733354 0.044119332
000030 d4 a0 b5 3d 7d 54 1e 3b 60 21 96 3d ba c8 df 3b
       0.08868566 0.0024159246 0.073305845 0.0068293484

emb.feature_extractor.4.weight f4 [16, 16, 1, 50]
000000 a7 2d 6e 3c bf a7 2b 3c 43 c1 fe bc 59 4d d0 bc
       0.014537252 0.0104770055 -0.031098014 -0.025427507
000010 19 6d 28 bc 84 6e a9 3c 57 51 31 bb 17 07 46 bc
       -0.010279917 0.02068258 -0.002705654 -0.012086651
000020 d1 ab c0 3b 2c f3 5a bc af f2 0e bb 93 3c 22 bc
       0.005879857 -0.013363641 -0.002181213 -0.009902137
000030 84 49 e7 bc 12 3d 0f bc 16 1a 7c bc ce e8 6a bc
       -0.028233297 -0.008742588 -0.015387079 -0.0143377315
000040 0f 66 79 3c b2 f9 9a bc 48 6c 2f bc dc e4 36 bc
       0.015222087 -0.018917892 -0.010706969 -0.011162963
000050 31 12 14 bd d9 d3 8e bc 67 1a 35 b9 b9 31 d0 3b
       -0.03615016 -0.017435001 -0.00017271341 0.0063535837
000060 82 69 34 bc c0 95 ee bc f8 96 cc 3c d6 d0 d0 3b
       -0.011011483 -0.02912414 0.024974331 0.0063725514
000070 26 1a 3c b9 b0 34 06 3c 8e ba 27 bc d2 9d c6 bb
       -0.00017938818 0.008191273 -0.010237349 -0.006061294
000080 97 27 50 3a 58 87 33 bb c3 59 6a bc df 05 6b 3b
       0.00079404697 -0.0027393904 -0.014303627 0.0035861654
000090 4a 0a 8c bc 0c 53 95 bc c1 e5 bb 3b b1 a5 b2 bc
       -0.01709475 -0.018228076 0.005734176 -0.021807523
0000a0 28 e1 4a bc 50 c3 65 bc 98 65 1c bc b6 b9 af bc
       -0.012382783 -0.014023617 -0.009545706 -0.021450859
0000b0 e7 ea 8c 3b 2f 8e e7 3b 49 b9 d2 3b 08 0f 84 bc
       0.0043004635 0.00706651 0.006430779 -0.016120449
0000c0 42 ef cc bc 52 d8 6b 3a bd 7d 4a bc be 32 39 bc
       -0.02501643 0.0008996773 -0.01235908 -0.011303602
0000d0 48 6f 39 3c 1f 8f 75 3c 8c 9f 6f 3c 4c e3 a9 3c
       0.011318035 0.014987736 0.014625441 0.020738266
0000e0 21 c0 0d 3b e8 10 0a 3c c5 7c e0 3b 82 eb a9 39
       0.002162941 0.008426882 0.006850811 0.0003240966
0000f0 74 05 48 3b 95 33 92 ba 38 84 0d bc 64 8d db bc
       0.0030520828 -0.0011154289 -0.00863748 -0.026800819
000100 1b 4f e7 bb 63 a0 ac bc 3d 19 ad bc c3 3e c6 bc
       -0.0070589907 -0.021072572 -0.021130199 -0.024199849
000110 38 c9 35 ba 18 2b 8f bc c3 3d 12 ba 95 e9 3a 3c
       -0.0006934586 -0.017476603 -0.0005578661 0.011408229
000120 02 6c 64 3c d5 26 2c bb 41 5d 8d 3a b8 3c 3b 3b
       0.013941767 -0.0026268263 0.0010785238 0.0028570127
000130 90 37 7a bc 3c ad 38 bc f3 a6 88 3c 16 ed c3 bb
       -0.015272036 -0.011271771 0.01668117 -0.0059791906
000140 a6 c4 87 ba 70 95 b5 bc b5 e6 ae bc 93 1d 9a 3c
       -0.0010358288 -0.022165984 -0.021350244 0.01881293
000150 f4 1c 83 3c 77 8b 97 bb 7f 32 0d 3b b2 de 97 3a
       0.016005017 -0.00462478 0.002154499 0.0011586754
000160 dc af 12 3c 6b 44 d4 3b 4f c5 bf 3a 04 34 86 bc
       0.008953061 0.0064778826 0.0014630946 -0.016382225
000170 c0 07 58 bc 12 dc 03 bd 33 77 06 bd 6a 45 1a bb
       -0.0131854415 -0.032192297 -0.03282852 -0.002353991
000180 0b 8f b5 bc e8 66 09 3c bf 76 8a bc 3d ce 86 bb
       -0.022162935 0.008386351 -0.016902326 -0.004113941
000190 34 bb 33 bd 56 d2 ec bc 3f e6 5c bb c7 64 fa bb
       -0.043879703 -0.02890889 -0.0033706573 -0.007641408
0001a0 f8 c6 4b bc 17 55 a2 3c f6 dd 2a bc 53 89 e3 bb
       -0.012437575 0.019815965 -0.010428896 -0.0069438606
0001b0 7c af 8b 3b ca d8 a4 bc fa 0e 9d 3c 4d 35 2a bd
       0.0042628627 -0.020122904 0.01917218 -0.041554738
0001c0 e4 78 0c bd 57 40 7a bd 90 36 e6 bc 31 21 bc bb
       -0.034294978 -0.061096516 -0.02810219 -0.0057412614
0001d0 a8 59 89 bc 70 97 4a bd c2 0d cb bb eb 96 2f bd
       -0.016766384 -0.04946083 -0.0061967084 -0.042868536
0001e0 21 a5 24 3c 91 6b f3 3c 89 e1 fc bc 00 43 c0 bc
       0.010049135 0.029714378 -0.030869262 -0.023469448
0001f0 00 f8 7b bc 3c 57 c3 3c 76 0e 8d bc 2d be 3c bb
       -0.015378952 0.023845308 -0.01721881 -0.0028799877
000200 f9 7d 80 bc ae db c4 bc 66 3c 04 3d 70 12 20 bd
       -0.015685068 -0.024030533 0.032284163 -0.039080083
000210 e3 9b bb bc 7b ff 80 bb ff a8 e1 3c 80 89 62 bb
       -0.022901481 -0.0039367056 0.027546404 -0.003456682
000220 74 c5 02 bc bc da 2b 3a 8b a9 5d bd 35 93 38 3d
       -0.007981647 0.0006555726 -0.054116767 0.045062263
000230 58 88 88 bb e3 45 22 bd 1f 57 60 bb 7f f9 f6 3b
       -0.004166644 -0.03961743 -0.0034231616 0.0075370665
000240 d9 a7 04 bc 60 df ec 3c 37 f1 99 bc 9a 75 c9 bc
       -0.008096659 0.028915107 -0.018791778 -0.02459221
000250 dd 0e 04 bd 3d 82 2c bb 97 5f 3c bc 2d ed 02 3d
       -0.032240737 -0.0026322745 -0.0114974 0.03196447
000260 f9 81 26 3c 24 ce 6f bc a4 59 b9 bc 10 d7 6b 3c
       0.010162824 -0.01463655 -0.022625752 0.014394537
000270 cb 44 c6 3b f4 47 7a bb 3f 6d 3c bd 15 34 ea 3c
       0.006050681 -0.003818986 -0.046002623 0.028589288
000280 3e 29 68 bb 31 1f ec bc 97 68 57 bd 01 d6 78 bd
       -0.0035424973 -0.028823467 -0.05258998 -0.060750965
000290 7a a2 a7 bc ef 24 38 bd 7b a8 23 bc d4 12 4d bd
       -0.020463217 -0.044957098 -0.009988899 -0.050066784
0002a0 89 63 6a ba ba 88 37 bd 40 a8 d1 bc 67 1e 8f bc
       -0.00089412235 -0.044808127 -0.025592923 -0.017470552
0002b0 02 bc 8d bc e2 ae 14 3d 0e 2c 21 bd 86 ae 4b 3d
       -0.017301563 0.036299594 -0.039348654 0.049726985
0002c0 e0 03 a9 bc 56 c1 89 bc 2e b7 08 3c 70 af a7 3b
       -0.02063173 -0.016815823 0.008344455 0.0051173493
0002d0 cb 63 62 bd 76 51 f8 bc df e4 26 3d 28 57 02 3a
       -0.05527095 -0.030312281 0.040745612 0.0004972094
0002e0 00 86 0a bc 62 d9 b6 3c 4d 04 80 bd 91 04 58 bc
       -0.0084548 0.022320453 -0.0625082 -0.0131846825
0002f0 ad 74 d2 bb bc dd 73 bb 49 62 56 bc 4c 9c 3a bc
       -0.0064226002 -0.0037211021 -0.013084956 -0.011389803
000300 87 76 e2 bc cd 06 27 bd ef cb 63 3b c8 ad 28 bb
       -0.027644409 -0.04077797 0.0034759005 -0.0025738347
000310 2a a9 24 bd 3d ba b2 bc e4 d3 7b 3c 7b 09 88 3c
       -0.04020039 -0.021817321 0.015370343 0.016606083
000320 02 c7 0c aa 09 38 1e a6 40 5e 94 a3 5a 1d 00 a7
       -1.2503543e-13 -5.4893204e-16 -1.6086109e-17 -1.777948e-15
000330 4a fa 5e 28 3c 92 3c aa 4a d7 bc ab 8e 83 9e ac
       1.2377748e-14 -1.674849e-13 -1.3417958e-12 -4.5052356e-12
000340 b2 95 29 29 b9 2c c7 28 ab 4e fd 27 78 c6 f8 28
       3.7655378e-14 2.2112834e-14 7.03069e-15 2.7619603e-14
000350 b9 8d d1 29 84 ee 76 ab e0 3a 88 ab 31 f2 f7 26
       9.3060494e-14 -8.7727763e-13 -9.679722e-13 1.7204714e-15
000360 9d b8 cb 28 97 6b 5e 28 73 d3 f3 a7 67 a0 1e 27
       2.261759e-14 1.2346805e-14 -6.7675302e-15 2.201386e-15
000370 e5 8d 44 2a 9a 32 8b 29 3c 60 7e 2a 75 9f cf 29
       1.7457527e-13 6.181618e-14 2.259312e-13 9.220308e-14
000380 d0 fb f6 2a 8a 84 1e ac 18 94 37 2d 2b bb 45 ad
       4.3873108e-13 -2.2526724e-12 1.0435229e-11 -1.1239713e-11
000390 a1 79 d2 a7 2b b4 5e a9 cc 92 93 29 bd 63 c0 28
       -5.841858e-15 -4.9450173e-14 6.5535766e-14 2.1359537e-14
0003a0 aa 9d ad 28 ef 11 cb 28 0e 4d e6 28 e3 d0 7c 2b
       1.9275234e-14 2.2545305e-14 2.5568547e-14 8.9818273e-13
0003b0 8a ca 91 29 d8 a3 88 2a de 11 5f 28 a4 6b 0f a9
       6.4744285e-14 2.4272142e-13 1.2382861e-14 -3.1845742e-14
0003c0 50 c9 76 aa 63 b6 24 25 a9 4c 12 a5 30 97 00 27
       -2.1919033e-13 1.4286528e-16 -1.2689455e-16 1.7845527e-15
0003d0 b5 8d ed 28 e3 48 ad 2a f7 92 3a 27 1b b3 16 25
       2.6373741e-14 3.0781549e-13 2.5892355e-15 1.307111e-16
0003e0 20 4d 5c a6 c3 ae 2d a9 f6 fd 0a 3c 17 67 36 bc
       -7.6432357e-16 -3.8565298e-14 0.008483401 -0.011132977
0003f0 bb c2 01 bd 30 92 c2 bc 1c c9 10 bd 68 76 8d bc
       -0.03167985 -0.023751348 -0.035348043 -0.017268375

emb.feature_extractor.4.bias f4 [16]
000000 36 f4 32 36 a4 d1 c5 37 d1 40 84 b7 9a 7a 42 37
       2.6666216e-06 2.3581852e-05 -1.5765809e-05 1.15918465e-05
000010 6c c1 fb b5 06 ea 31 b8 3e f9 da 37 95 8a 67 37
       -1.875725e-06 -4.241804e-05 2.6103688e-05 1.3800939e-05
000020 e3 23 41 b8 93 65 51 b8 48 21 ef b7 aa 2f 5d b7
       -4.6048208e-05 -4.992408e-05 -2.8506518e-05 -1.3183724e-05
000030 1a 2d 9b b8 ee 91 12 38 aa f3 aa 35 6a 53 a8 b6
       -7.399377e-05 3.494502e-05 1.2736903e-06 -5.016501e-06

emb.feature_extractor.5.weight f4 [16]
000000 56 11 b2 3e 0e 68 b8 3e 6f 6f 9c 3e cd e2 ad 3e
       0.3477885 0.36016887 0.30553767 0.33962098
000010 ba 08 5c 3e e3 00 c7 3e 9c ba af 3e 32 58 ac 3e
       0.21487704 0.38867864 0.3432206 0.33661038
000020 1e cd a9 3e ed ce b5 3e ca 4a 96 3e 00 cf ba 3e
       0.33164304 0.35509434 0.29353935 0.36486053
000030 2e c2 a8 3e 28 16 b6 3e fe a3 96 3e a3 58 af 3e
       0.32960647 0.3556378 0.2942199 0.34247312

emb.feature_extractor.5.bias f4 [16]
000000 8f 13 f4 bb c1 59 30 be a4 aa 29 be c8 a2 69 be
       -0.0074486206 -0.17221738 -0.16569 -0.22816002
000010 4a 89 53 be 7f 5c 87 bd 5d cf 65 be 4e 88 c8 bc
       -0.2065784 -0.06609439 -0.22442384 -0.024479058
000020 96 1c b4 bb 02 7a d4 bc df 12 eb 3a 57 87 4f bd
       -0.005496572 -0.025937084 0.0017934701 -0.05066618
000030 18 d4 59 be cc b4 bb 3b 4c 7f 31 be dc 7e 82 bc
       -0.21272314 0.00572834 -0.17333716 -0.015929632

emb.feature_extractor.5.running_mean f4 [16]
000000 9c 52 d9 be 90 31 81 3e f8 35 6d 3e 56 dc c1 3e
       -0.42445838 0.25233126 0.23165119 0.37863415
000010 76 d8 df be eb 3e db be 81 66 97 3e 35 91 eb be
       -0.43719834 -0.4282144 0.29570392 -0.46009222
000020 56 40 e3 be 0e 8f d7 be 8d ed be be 41 3f f6 be
       -0.44385022 -0.4210133 -0.37290612 -0.48095134
000030 ee 28 88 3e 41 75 c6 be 8a f3 92 3e 8e ee cf be
       0.26593727 -0.38761333 0.2870143 -0.4061169

emb.feature_extractor.5.running_var f4 [16]
000000 22 a5 6b 3c b9 2e 15 3c 92 20 05 3c a0 00 4a 3c
       0.014382632 0.009105378 0.008125441 0.012329251
000010 69 ec 50 3c 7a be 7c 3c 2a 9e 77 3c c0 47 6f 3c
       0.012751677 0.0154262725 0.015113393 0.014604509
000020 5d 3c 93 3c 33 98 7b 3c c6 f9 3f 3c 77 ff 9d 3c
       0.01797312 0.015356111 0.0117172655 0.019286854
000030 0a 31 10 3c a5 c0 2c 3c 6d f4 23 3c 5d 96 58 3c
       0.008800754 0.010543977 0.010007006 0.013219443

emb.fc.1.weight f4 [100, 192]
000000 9b 00 99 bb 99 86 58 3b 06 8a 90 bb dd 33 88 bb
       -0.0046692616 0.003303921 -0.004410985 -0.004156573
000010 38 cb 2b 3c 63 96 82 3c 58 c3 91 bb 89 a5 48 3c
       0.010485463 0.01594085 -0.0044483356 0.012246498
000020 c4 2e 5c bc 27 35 5f 3c bd 3b 4e 3b ca 54 ce 3a
       -0.013438884 0.013623512 0.0031468712 0.0015741822
000030 de e7 ce ba e6 0b a9 bd 42 a8 6b bd a8 ee 44 bd
       -0.0015785655 -0.082542226 -0.05753351 -0.048079163
000040 0a a1 9d bd 96 81 9e bd c3 08 c2 bb a3 49 9a bd
       -0.076967314 -0.0773956 -0.0059214546 -0.07533576
000050 f6 40 68 bd 28 17 8a bd 27 56 84 bd 57 f1 25 bd
       -0.056702577 -0.06742698 -0.06461745 -0.040513363
000060 18 5b ec bc 2b d8 93 bd 0f ee 59 bd 83 e9 7d bd
       -0.02885203 -0.07218965 -0.053205546 -0.061990272
000070 f6 91 76 bd 84 81 51 bd c7 dd 2f bd 08 85 98 bd
       -0.060197793 -0.051148906 -0.042936113 -0.07447249
000080 a4 34 8b bd 68 44 5a bd fb 0e 8e bd 9c f0 25 bd
       -0.0679715 -0.053287894 -0.06936451 -0.040512666
000090 68 c6 7d bd 09 7e 85 bd ad 40 7c bd ca 1b 81 bd
       -0.061956793 -0.0651818 -0.061585117 -0.063041285
0000a0 6b 4e 78 bd 6c ea 9a bc 79 9e a7 bd b9 de 85 bd
       -0.06062166 -0.01891061 -0.08184523 -0.065366216
0000b0 45 71 61 bd 1d 0d 52 bd 0c 25 62 bd 0c 64 1b 3b
       -0.055039663 -0.051282037 -0.055211112 0.0023710756
0000c0 63 48 23 3a ef 8e 09 bd 1b 1b cf bc 60 28 06 bd
       0.0006228743 -0.033583578 -0.02528148 -0.03275335
0000d0 e5 db db bc 87 01 e2 bb 4a 94 02 bc 25 d2 b1 bc
       -0.026838252 -0.0068971547 -0.007969925 -0.02170665
0000e0 12 70 0c bd b3 71 b3 bc fc 58 5e bc 42 5b 90 bb
       -0.034286566 -0.021904802 -0.01357102 -0.00440541
0000f0 c4 49 39 bb 31 85 79 bc 6d 16 82 bc ff 08 74 bc
       -0.0028272728 -0.015229509 -0.015879834 -0.014894723
000100 3e 55 0b bb b5 7b 56 3c cf 7e 1a bb cf be c5 bb
       -0.0021260525 0.0130910175 -0.002357412 -0.006034709
000110 e4 71 2f bc cf 05 42 bc 8a e6 45 bb 15 25 a4 3b
       -0.010708306 -0.011842205 -0.0030197226 0.0050093033
000120 66 83 10 bc 8d 2b 7b bd 07 51 6f bd e1 48 5e bd
       -0.00882039 -0.06132083 -0.058426883 -0.05426872
000130 6b 76 88 bd 3f 63 a0 bd d6 ca 60 ba 4d fe bc bd
       -0.066632114 -0.0783143 -0.0008575147 -0.092281915
000140 ed 55 6f bd 24 a8 42 bd 67 a8 8a bd 31 9a 21 bd
       -0.058431555 -0.047523633 -0.067704014 -0.03945369
000150 fd 75 7c bc 51 fc 19 bc e4 de ae bb 24 be 36 ba
       -0.01540899 -0.009398536 -0.005336629 -0.0006971082
000160 d9 e2 2e 3c 7c 33 ca 38 b4 5c 6e bc 59 87 8d 3a
       0.010674202 9.6417e-05 -0.014548469 0.0010797783
000170 04 31 6b 3b 70 09 63 bb 5d 32 e5 3a 14 76 75 3b
       0.003588737 -0.0034643076 0.0017486323 0.0037454413
000180 cf 4e fe 3b b7 b3 e2 3c 90 73 f4 3a 96 20 19 3c
       0.0077608596 0.027673585 0.0018650163 0.009346148
000190 e8 b1 8c 3c d9 85 13 bc a1 a9 2b 3c 49 45 a0 3c
       0.017174676 -0.00900408 0.010477454 0.019564288
0001a0 36 c5 38 bb 30 d1 84 3c 9c 4e d6 b9 2c b1 a2 bb
       -0.0028193719 0.01621303 -0.0004087583 -0.004964968
0001b0 db 2f b2 ba 0a 30 cd 3c 9d 5c fd ba 39 20 4b bc
       -0.0013594584 0.02504732 -0.0019329969 -0.012397819
0001c0 80 9d f2 ba ee eb 49 3c a3 42 b2 ba ba 1a a7 39
       -0.0018510073 0.012324316 -0.0013600182 0.00031872635
0001d0 c2 19 89 3b 18 d4 81 bc 57 5e 5c bc 39 7f 0b 3c
       0.004183979 -0.015848204 -0.013450227 0.008514219
0001e0 3d bb 4d 3b 11 46 35 bc 87 c9 9f bc 5b bf 80 bb
       0.003139212 -0.011064068 -0.019505275 -0.0039290613
0001f0 05 ea e9 bb 6a c2 7a bc b3 56 37 bc 38 cc 11 3b
       -0.007138493 -0.015305141 -0.011190104 0.0022246968
000200 36 fe d8 3c 3b 25 06 bc eb 9c 0a bc 46 e4 56 bc
       0.026488405 -0.008187587 -0.008460264 -0.013115948
000210 dd 52 e4 bb 4b 2b 4a 3b 97 52 33 bb 07 31 cb bc
       -0.006967886 0.0030848559 -0.002736246 -0.024803651
000220 7c 1b 10 3b 72 e0 8d bb 32 04 f8 bb 32 b8 6c bc
       0.0021989038 -0.0043297345 -0.0075688595 -0.014448212
000230 9e 2b 18 bc 24 95 7f bb 27 d7 a0 3b 9b dd b5 3a
       -0.009287743 -0.0038998807 0.0049084607 0.0013875248
000240 c6 e5 35 bd c1 9d 68 bd 38 37 73 bd b8 64 7c bd
       -0.044408582 -0.05679107 -0.059378833 -0.06161949
000250 30 3f 65 bd c4 52 15 bd 0f 51 35 bd e1 d9 8c bd
       -0.055968463 -0.036455885 -0.044266757 -0.068774946
000260 6d 2d 56 bd 1f 7f 67 bd 3d af a0 bd 35 a5 98 bb
       -0.052289415 -0.056517716 -0.07845924 -0.004658366
000270 b2 05 ea bb c2 0d c5 3b 35 a3 2d bc c5 72 eb bc
       -0.007141792 0.006013603 -0.010597994 -0.02874125
000280 dc 69 5b b9 5d 8b 0f 3c 74 9c 8e 3b 21 45 5d 3b
       -0.00020924903 0.008761254 0.0043521468 0.0033763128
000290 bc bf 52 ba c7 e3 6d bc 9c 2a 16 3b 0b 6f 7b 3b
       -0.0008039435 -0.014519638 0.002291358 0.0038365747
0002a0 72 88 00 bd ac 3f 47 bd db 5f 47 bd a9 f9 3d bd
       -0.031380124 -0.048644707 -0.0486754 -0.046380673
0002b0 ec 34 4a bd bc fa 4f bd 1a e7 35 bd 8c da 93 bd
       -0.049366876 -0.05077623 -0.04440985 -0.07219419
0002c0 55 99 7f bd 61 34 42 bd 58 ef 84 bd 09 b3 14 bd
       -0.06240209 -0.047413234 -0.06490964 -0.036303554
0002d0 f3 65 86 3c 39 ba 7c bb b4 d0 e8 bb 01 2f 61 bc
       0.016406035 -0.0038563146 -0.0071049575 -0.013744117
0002e0 af a0 53 bb d1 3e dd 3b cf 41 32 3a 47 20 54 3b
       -0.003229182 0.006751873 0.00067999674 0.0032367872
0002f0 de 9f 48 3a a3 05 69 bb 65 c7 ba bb ce b9 d1 ba
       0.00076532166 -0.0035556338 -0.005700039 -0.0016000809
000300 b4 0b bf 3a c7 a9 e9 3b 5c a6 28 3c 84 23 b6 3b
       0.0014575631 0.0071308347 0.010293569 0.005558433
000310 da 07 f1 3b 46 81 bd 3b 83 cb be 3b 70 8c d7 bb
       0.0073556723 0.005783233 0.0058226003 -0.0065780208
000320 96 6f ef bb 84 16 7e bb 17 b0 28 bc 4c 57 e9 bb
       -0.0073070033 -0.0038770745 -0.010295889 -0.0071210023
000330 e0 e1 19 3b f6 db d8 bb 7c 32 d4 bb 8f d6 3f bb
       0.002348058 -0.0066180183 -0.006475745 -0.0029272174
000340 41 4e c4 ba a1 83 a2 ba 8e c3 18 3b 69 09 4a 3c
       -0.0014976935 -0.0012398848 0.002330992 0.012331345
000350 4e d2 44 3c f0 f3 6e 3b 96 0b e3 3b 3e 8c 4c 3c
       0.012013031 0.0036461316 0.0069288714 0.012484608
000360 7e 0e 0d bc 99 7f 36 bb 69 de d5 bb e3 55 df bb
       -0.008609412 -0.002784705 -0.0065267575 -0.0068156584
000370 4b 5e dd ba 3a e2 44 ba de 83 0d 3b 64 b8 23 3c
       -0.0016889063 -0.0007510517 0.0021593492 0.009992693
000380 d5 d6 54 3b 45 27 a9 3b 3c f6 98 3b ae 67 d9 3b
       0.0032476683 0.005162152 0.0046680253 0.006634674
000390 af fd 88 bb 6d 99 9c bb 6f f1 cc ba 02 4c ef bb
       -0.004180632 -0.004779032 -0.0015635918 -0.007302762
0003a0 6d 80 50 bc 56 50 22 3b 97 ee 35 3c f2 b2 08 3c
       -0.012725932 0.0024767122 0.0111042475 0.008343445
0003b0 74 e9 08 3c 24 89 a0 3b f7 17 00 3c 2e da 4c ba
       0.008356441 0.004899161 0.007818214 -0.0007814494
0003c0 b0 7b ee 3b 54 5d f0 3a 89 65 fe 39 db ca 3f ba
       0.0072779283 0.0018338361 0.00048522305 -0.00073162996
0003d0 75 72 02 bb db 6f b7 3b fe 79 6b 38 07 97 3a 3a
       -0.0019904647 0.005598051 5.614198e-05 0.0007117842
0003e0 af 07 93 b8 b2 0d 54 ba 16 c3 fe ba a5 2f 61 bb
       -7.0109374e-05 -0.0008089199 -0.0019436802 -0.0034360674
0003f0 7d 06 94 ba 8b 98 c6 3b 1a 90 e6 3b e4 28 da 3b
       -0.0011293438 0.006060665 0.007036221 0.0066577066

emb.fc.1.bias f4 [100]
000000 9a ba 89 b8 58 bc e3 b3 f6 00 d0 30 28 96 5c ab
       -6.567426e-05 -1.0604771e-07 1.5134265e-09 -7.8368085e-13
000010 ef e5 f0 2b 29 b0 41 2b 39 41 b0 a0 37 39 01 37
       1.7116845e-12 6.8811845e-13 -2.985872e-19 7.7023205e-06
000020 de 03 00 80 33 25 00 00 90 8c 3d 2b 8a 04 30 b0
       -1.387e-42 1.3345e-41 6.734136e-13 -6.403488e-10
000030 a0 cb ec 36 1f 07 00 80 29 dc 5d 20 76 33 29 2f
       7.057053e-06 -2.555e-42 1.8792273e-19 1.5388743e-10
000040 45 2d 00 00 41 9a 0d a8 67 b7 b7 a1 9a d3 6e 2a
       1.624e-41 -7.860521e-15 -1.2449109e-18 2.121206e-13
000050 8f a5 98 36 42 09 00 00 da ed 7e ab 32 a4 8a b6
       4.5492266e-06 3.321e-42 -9.0569013e-13 -4.1318353e-06
000060 4b da 68 a7 7c 0c 00 00 bf 5a e5 28 09 58 8d b6
       -3.2314805e-15 4.479e-42 2.5463462e-14 -4.212376e-06
000070 e4 24 0e 2f ed 38 af 15 6b 17 33 af be e9 b5 a3
       1.2927931e-10 7.077175e-26 -1.6288275e-10 -1.9723053e-17
000080 e2 f5 ba 2b a5 94 c7 b5 fe ea be 23 06 71 ca 32
       1.3284341e-12 -1.4869917e-06 2.0699364e-17 2.3567292e-08
000090 32 0c 00 00 22 c9 c6 0e 81 fe d9 36 3d 0a 4b 99
       4.375e-42 4.9004452e-30 6.496732e-06 -1.0496922e-23
0000a0 8d 32 d0 ac e2 23 96 1e ca 04 00 00 63 07 00 00
       -5.917328e-12 1.5896709e-20 1.718e-42 2.65e-42
0000b0 8c 55 0f 2d ce 13 00 00 d4 e8 e8 a8 11 8f 56 2a
       8.147604e-12 7.105e-42 -2.5858147e-14 1.9056654e-13
0000c0 e3 60 1f 2a af 9d 06 b4 57 9f 19 aa 9a a8 10 26
       1.4155651e-13 -1.2537087e-07 -1.3644412e-13 5.0188534e-16
0000d0 1e 0f 00 00 48 15 00 00 e3 51 b0 36 ba 30 88 b7
       5.423e-42 7.634e-42 5.2547416e-06 -1.6235153e-05
0000e0 a3 bd 99 30 11 2a 1e 39 df 54 33 2d 53 71 a2 18
       1.1186113e-09 0.00015083725 1.0193817e-11 4.1990447e-24
0000f0 a6 0f 00 00 da 38 12 af 03 61 12 a0 7d 1d d8 b0
       5.614e-42 -1.329882e-10 -1.239878e-19 -1.572445e-09
000100 94 08 00 80 f0 c4 ef aa 00 17 00 00 09 22 2d 2c
       -3.077e-42 -4.259158e-13 8.251e-42 2.4603672e-12
000110 7b ae b9 aa 62 0c 58 29 37 85 c5 37 2d 8f 5b 28
       -3.2983672e-13 4.7972375e-14 2.3546263e-05 1.2187988e-14
000120 bc f1 9d 38 bd 58 a6 b5 51 a5 17 b4 da 91 83 8c
       7.53137e-05 -1.239379e-06 -1.4123113e-07 -2.0271527e-31
000130 0e 0a 00 00 46 e8 1e 38 10 27 08 9f ac 09 00 00
       3.607e-42 3.7886457e-05 -2.8831432e-20 3.47e-42
000140 83 01 00 00 36 09 00 00 27 2b 00 80 d4 d5 8a a3
       5.42e-43 3.304e-42 -1.548e-41 -1.505255e-17
000150 30 45 a5 34 2e 01 00 00 07 09 00 00 bb bc c3 35
       3.0783985e-07 4.23e-43 3.238e-42 1.458356e-06
000160 b8 08 00 80 35 01 00 80 77 0a 00 00 87 01 00 00
       -3.128e-42 -4.33e-43 3.754e-42 5.48e-43
000170 94 88 79 b2 c8 ed a1 20 11 66 5d a6 e5 1b 00 80
       -1.4524762e-08 2.7431811e-19 -7.6813103e-16 -1.0007e-41
000180 51 ff 33 37 a6 17 00 00 a0 0e 77 9f 21 2b 8d ae
       1.0728677e-05 8.483e-42 -5.2316382e-20 -6.419599e-11

clf.1.weight f4 [1, 100]
000000 e3 3a cc 3e 68 40 27 bd 9f 27 2d be e3 b1 2a be
       0.39888677 -0.040832907 -0.16909645 -0.16669421
000010 e6 9b 2e be d8 73 05 be ba 3e f0 bd db 24 31 be
       -0.17051658 -0.13032472 -0.11730714 -0.17299215
000020 51 52 43 bd 5a e0 24 bd 81 c3 2b be 62 c3 f1 bc
       -0.047685925 -0.04025302 -0.16773798 -0.029512111
000030 b5 9f 8b bc 91 4c 78 bd b0 4a 2e be 62 8e 2a be
       -0.017043928 -0.060619894 -0.17020679 -0.16655877
000040 64 31 1e bd 36 dc 23 be 64 a2 06 bd 11 b2 30 be
       -0.03862132 -0.16001973 -0.03286971 -0.17255427
000050 01 95 09 be b5 f9 c4 bc 67 a2 ab bd ef d9 31 be
       -0.13435747 -0.02404485 -0.08380585 -0.17368291
000060 01 3c 5b bd f6 5f 20 be 1e bf 5f bd 30 26 d8 bd
       -0.05352402 -0.15661606 -0.054625623 -0.10554159
000070 be 89 d7 bc e4 44 02 be dc 32 37 be ba e1 d4 bd
       -0.026310798 -0.12721592 -0.17890495 -0.103946164
000080 04 44 26 be d3 b0 32 be 91 30 29 be 02 67 23 be
       -0.16236883 -0.17450266 -0.16522433 -0.15957263
000090 9b 65 fc bd 75 29 03 be 45 57 5b bd a2 71 33 be
       -0.12324067 -0.12808783 -0.053550024 -0.17523816
0000a0 a3 6e 29 be b8 45 3a bd d0 5b f8 bd 62 da 04 be
       -0.16546111 -0.045476645 -0.12126887 -0.12973931
0000b0 24 cb 8c bd 4b a8 40 be aa 99 27 be db 99 81 bd
       -0.068746835 -0.18814199 -0.16367212 -0.06328174
0000c0 74 a0 1d be ad 2f 29 be d6 fc 2d bd b3 e4 ab bc
       -0.1539324 -0.16522093 -0.04247745 -0.020983076
0000d0 fa bb 23 be c1 85 24 be 5b 00 3f be 9b dd 33 be
       -0.15989676 -0.16066648 -0.1865248 -0.17565005
0000e0 d5 e4 20 bd c6 bd bb bd cf b2 1f be a7 51 30 be
       -0.03928073 -0.09167056 -0.15595554 -0.17218648
0000f0 4f 4d 15 be 1c b5 0f bd 03 10 03 be 7b 7c 27 be
       -0.14580272 -0.03508483 -0.12799077 -0.1635608
000100 3b 4a 26 be a3 9c 28 be bb c3 ee bb 74 f4 34 be
       -0.16239254 -0.16466002 -0.0072865165 -0.17671376
000110 f1 0a b9 bd 32 e6 21 be b4 8e de bc 11 5d 35 bd
       -0.0903529 -0.15810469 -0.027167656 -0.04427821
000120 b6 21 c5 bd 5c 77 2f be 1b 57 3a be 66 4b 98 bd
       -0.096255705 -0.17135376 -0.1819729 -0.07436256
000130 0d e4 2b be d9 ef 21 be e6 20 0c bd ea a0 1c bd
       -0.16786213 -0.15814151 -0.034211062 -0.038239397
000140 97 53 8a bd 8e e3 26 be 55 a1 29 be dd 15 2d be
       -0.06754225 -0.16297743 -0.1656545 -0.16902871
000150 b7 29 0d be 47 21 21 be fd d4 2b be 65 18 2e be
       -0.13785444 -0.1573535 -0.16780467 -0.17001493
000160 12 a2 ac bd 20 8a c9 3e ec 3b d4 bd d4 8e 1a be
       -0.0842935 0.39363194 -0.10362992 -0.15093547
000170 1a 9a cc 3e 03 c6 e2 bd 7d 93 28 bd dc 14 e9 bd
       0.3996132 -0.11072924 -0.04115628 -0.11380932
000180 e5 d0 2b be 40 5a 1f be 00 29 16 be 2d 66 1b be
       -0.16778906 -0.15561771 -0.14664078 -0.15175696

exp_avg f4 [2, 1, 2, 1]
000000 9c af aa bd 0a de 0c 3e 54 49 ae bd d2 5c 35 be
       -0.08334276 0.13756576 -0.0851008 -0.1771119

exp_avg_sq f4 [2, 1, 2, 1]
000000 24 86 07 3f 06 1e ff 3e 34 5a f4 3e 48 a7 1a 3f
       0.5293906 0.49827594 0.4772507 0.604115

exp_avg f4 [2]
000000 20 65 1a be 49 4b 14 3e
       -0.15077639 0.14481844

exp_avg_sq f4 [2]
000000 76 ef 7b 3d c6 5b 7b 3d
       0.061507665 0.06136682

exp_avg f4 [16, 1, 1, 50]
000000 7b f0 6b bc 20 8c bf 3b 76 08 32 3b dd cd 02 bd
       -0.014400597 0.0058455616 0.0027165688 -0.031934608
000010 b2 fe ac bc 49 82 51 bc f9 d6 54 bc fd db 20 bc
       -0.021117542 -0.01278741 -0.012990707 -0.009818074
000020 78 61 6d 3a 15 61 46 3c 7f 0f 0e 3d f5 28 ab 3c
       0.00090553565 0.012108107 0.034682747 0.020893553
000030 35 be cd 3c f5 5b 9f 3b d2 ce 46 bc f7 0e 0c bd
       0.025115112 0.004863257 -0.012134271 -0.03419396
000040 99 5a 40 bc 01 21 b9 bc 48 85 03 bd ee d6 16 bd
       -0.01174035 -0.022598745 -0.03210953 -0.036826067
000050 37 ca 90 bc 78 77 11 bc cd 37 27 3c f7 7a 00 bc
       -0.017674549 -0.008878581 0.010206175 -0.007841817
000060 c4 00 9d bb 7b d9 15 bc 40 e5 e0 bc 7f 20 fd bc
       -0.004791351 -0.00914609 -0.027453065 -0.030899284
000070 f8 14 a8 bc 9a 28 69 bc 24 62 30 3c cf 0c 14 bb
       -0.020517811 -0.014230872 0.010765586 -0.0022590642
000080 3d 75 91 3b c8 0a fe bb eb 66 02 bd e0 6a 06 bd
       0.0044390247 -0.00775275 -0.03183643 -0.032816768
000090 4c 46 48 bd 66 90 29 bd e2 71 53 bd b1 bf 0b bd
       -0.048895165 -0.041397475 -0.05162228 -0.034118358
0000a0 8e ae 95 bc 7d ec 1f bd 1f 35 52 bd 45 dd dd bb
       -0.01827171 -0.039043892 -0.05132019 -0.006770762
0000b0 7a c4 65 bc 3b 9f c4 bc 8b 43 56 bc 52 34 74 ba
       -0.014023894 -0.024001708 -0.013077627 -0.00093156577
0000c0 83 7a 82 bb dc dc f2 bb 6c 2a c8 3c 44 fe a4 3c
       -0.0039818897 -0.0074115824 0.02443429 0.020140775
0000d0 f0 e1 0d 3c 33 39 d6 3c d9 83 d2 3c a2 01 62 3c
       0.008659825 0.026150322 0.025697635 0.013794335
0000e0 d3 4d ad 3b 6c d8 a0 3b d1 5d d7 bc f2 39 ce bb
       0.0052888184 0.004908612 -0.026289852 -0.0062935287
0000f0 c2 df 53 3c c3 66 9b 3c e0 e2 d0 3b f0 dd 4c bc
       0.012931766 0.018969899 0.006374702 -0.012504086
000100 98 f6 1f bc 06 66 96 3b 30 ff 83 3c 80 f2 44 3c
       -0.009763382 0.004589799 0.016112894 0.012020707
000110 11 49 be 3c 6a b7 f4 3c 53 8c 26 3c 2a 3d 52 3c
       0.0232282 0.029872615 0.010165292 0.012831965
000120 9a 82 5a 3c 43 a6 01 3c b0 26 bc 3c 17 8d df 3b
       0.013336802 0.007913175 0.022967666 0.006822239
000130 b9 e7 ee 3c 3c 44 06 bd 5a 50 05 3d 25 ff fb 3b
       0.029163228 -0.032779917 0.032547332 0.0076903277
000140 6f 05 01 bc cb 0c 10 3d 29 f8 fc bb bf 65 95 bc
       -0.007874831 0.03516845 -0.0077200127 -0.018236993
000150 5f 64 26 bb 8f 92 1e bb 41 65 aa 3b 45 39 93 bb
       -0.0025389416 -0.0024196242 0.0052000587 -0.004492911
000160 81 1f 80 bb da 39 c4 3c fd 69 be 3c 8d 21 e7 39
       -0.0039100056 0.023953367 0.023243899 0.0004408475
000170 b2 a9 1e 3c 60 31 84 bc 58 96 e0 3a 18 88 92 bc
       0.009684013 -0.016136825 0.001713465 -0.01788716
000180 b8 03 21 bc 00 8b f7 bb 42 b7 2e bb 39 eb 07 3c
       -0.009827547 -0.007554412 -0.0026659523 0.008295828
000190 32 d7 92 bd 83 ba 00 be 95 fe 05 be 15 d5 f9 bd
       -0.071699515 -0.12571149 -0.13085397 -0.12198845
0001a0 f8 92 87 3b d8 64 fe bd a6 06 78 bd a8 c7 0d be
       0.004137393 -0.12421578 -0.060553215 -0.13845694
0001b0 c3 57 e9 bd ca ba 7a bd e5 8a b7 bd 85 14 d9 bc
       -0.11393692 -0.061213292 -0.08962039 -0.026499042
0001c0 cd 8e bd bc 90 2e be bc a1 45 01 bc e5 56 63 bd
       -0.023139382 -0.023215562 -0.007890136 -0.05550279
0001d0 80 b3 8b bd 5c e7 80 bd 9f 0c 1f bd a6 d4 68 bd
       -0.06821346 -0.06294128 -0.038830396 -0.056843422
0001e0 dc 2a 03 3d 64 e1 ab bc fc bb 87 bd f2 87 79 bd
       0.032023296 -0.020981498 -0.06627652 -0.060920663
0001f0 04 05 45 bc 31 71 43 bd 16 93 8f bd 90 af 6f bd
       -0.012025122 -0.04771537 -0.07010476 -0.05851704
000200 99 14 ae bd 43 3b 3c bd af 2c 86 bd e5 80 79 bd
       -0.085000224 -0.045954954 -0.065514915 -0.06091394
000210 8c 37 af bd 26 17 11 3d 8a a5 d7 bc 63 1f 25 3c
       -0.085555166 0.035422467 -0.026324052 0.010078284
000220 c4 79 f6 bc c3 c9 68 bd 1b 3e 2d bd eb fa e6 bd
       -0.03008736 -0.05683304 -0.042295557 -0.112783276
000230 20 ef 72 3d a2 af 41 bd 5b 62 95 bd 70 53 a0 3d
       0.05931008 -0.047286637 -0.072941504 0.078284144
000240 b8 e0 66 bc e4 ee 7a 3c 1d 9e 51 3d 12 43 37 3d
       -0.014091663 0.015315745 0.05117618 0.044741698
000250 ba a9 70 bc 44 aa 06 3d 95 7c 6c bd 79 e4 b7 bd
       -0.0146889035 0.03287722 -0.057736 -0.089791246
000260 09 92 c0 bd d0 39 5d bc c1 cd 9c 3c c7 92 89 3d
       -0.09402854 -0.013502553 0.01914108 0.06717449
000270 52 41 94 3c 0d 23 8a bb f7 80 5c 3d 7e 83 b7 bc
       0.018097553 -0.004215604 0.053833928 -0.022401568
000280 ab 5d 34 bc ba 17 bb bc 1c a7 a9 bc a3 95 51 bd
       -0.01100866 -0.022838462 -0.020709567 -0.051168095
000290 8a 33 12 3d 86 70 22 bd 5b 7f 82 bc 35 5a 4c bd
       0.035693683 -0.039658092 -0.015929868 -0.049890716
0002a0 97 ef 51 3c fa b9 b9 3d 3c a9 32 3d 2f 06 1f 3d
       0.01281347 0.09068675 0.043618426 0.038824257
0002b0 65 9a fe bc a6 7f 87 3c 9d c7 22 bc 8b 93 ca bc
       -0.03107948 0.01654036 -0.009935287 -0.024728557
0002c0 ac 8e 86 bd c1 99 e1 bc 21 e1 87 bd 33 73 92 bd
       -0.06570181 -0.027539136 -0.06634737 -0.07150879
0002d0 56 aa ae 3c 82 3b 9a bc 52 cb 90 3d 18 52 3c 3d
       0.021321457 -0.018827204 0.0707003 0.04597673
0002e0 81 c0 88 3d 09 1a a1 3d 8a 22 72 3d 7a 3e 7a 3c
       0.06677342 0.07866294 0.05911497 0.015273685
0002f0 39 7b 8e 3c bc b0 65 bc 46 9c 65 bd 4e 1a 9b 3c
       0.017392742 -0.014019188 -0.056057237 0.018933441
000300 cf 27 b6 bd 1d 85 da bb 28 bf 09 3c 28 f4 83 bd
       -0.08894312 -0.0066687004 0.008407392 -0.064430535
000310 b2 d5 9d bd f8 4a 10 bd 25 e9 0f bd 40 11 bb 3b
       -0.07706775 -0.035227746 -0.035134453 0.0057088435
000320 4c 1e d0 31 67 43 71 b3 af 78 1c b3 78 b4 01 b3
       6.057041e-09 -5.6173487e-08 -3.643134e-08 -3.019929e-08
000330 38 19 98 32 c7 8b ed b2 22 88 44 b4 77 7c ff b3
       1.7706597e-08 -2.7653995e-08 -1.8303447e-07 -1.1897003e-07
000340 61 5c 09 b4 b4 a7 80 b4 64 69 9c b2 6d fe 8f b2
       -1.2792727e-07 -2.3963878e-07 -1.8208716e-08 -1.676309e-08
000350 63 43 8f b2 b5 15 d4 32 a8 20 f0 b3 bb b0 a2 b3
       -1.6678035e-08 2.468992e-08 -1.1181811e-07 -7.57586e-08
000360 43 dc 20 b3 54 56 60 33 a2 48 8e b2 9c 59 91 b1
       -3.745323e-08 5.223258e-08 -1.6564005e-08 -4.230243e-09
000370 7f 8a 56 b3 59 a1 8e b3 aa 47 25 b2 0b 63 46 34
       -4.995172e-08 -6.641739e-08 -9.620559e-09 1.8476219e-07
000380 ec ed 3e 34 d3 63 8b 33 5d 48 8d 33 b8 c6 1e 34
       1.7781684e-07 6.49085e-08 6.578987e-08 1.478719e-07
000390 2b 78 1f b3 35 33 41 b3 89 71 89 b3 31 08 b6 33
       -3.7129364e-08 -4.4982887e-08 -6.4002116e-08 8.4765254e-08
0003a0 4a 13 65 b2 ff c9 bb b2 23 1d 1a b3 86 53 1a b4
       -1.333394e-08 -2.1861522e-08 -3.588242e-08 -1.4372753e-07
0003b0 74 ba 91 b3 88 6a 0b b4 e1 1e 88 b3 dc 6e 05 b3
       -6.786004e-08 -1.298414e-07 -6.33861e-08 -3.10673e-08
0003c0 d5 ba 1b 33 18 7c 62 b3 c3 b7 a6 b2 ec 9b 1e 33
       3.6258673e-08 -5.2732588e-08 -1.9408509e-08 3.6929052e-08
0003d0 6b 0c 25 32 1e c0 15 33 32 0d c9 33 89 81 c3 b1
       9.607088e-09 3.4866495e-08 9.362192e-08 -5.6899734e-09
0003e0 82 28 97 32 e3 f1 49 b2 45 10 e7 bd 91 9e bd bd
       1.7597134e-08 -1.17547385e-08 -0.112824 -0.0925876
0003f0 5a ff 97 bd 3e c3 20 3a db a9 a4 bd bc c4 89 bd
       -0.07421751 0.0006132609 -0.0804021 -0.06726977

exp_avg_sq f4 [16, 1, 1, 50]
000000 06 19 0f 3b 30 da 25 3b 3a 4a 20 3b d3 09 1f 3b
       0.0021834983 0.0025307052 0.0024458305 0.002426733
000010 d7 cd 12 3b a2 0f 15 3b f0 6f 0a 3b 00 9b 16 3b
       0.0022400522 0.0022744914 0.002112385 0.002298057
000020 e4 17 0b 3b d2 4b 08 3b e9 d8 13 3b 6e b3 0b 3b
       0.0021223957 0.0020797146 0.0022559708 0.0021316665
000030 5c 96 21 3b 2d bb 0b 3b db e3 1b 3b c1 17 30 3b
       0.0024656272 0.0021321282 0.0023786935 0.0026869627
000040 db 39 f4 3a 84 5a f7 3a 23 de 11 3b b1 e3 28 3b
       0.0018632965 0.001887158 0.0022257648 0.002577048
000050 67 cb 23 3b b7 4d 48 3b 09 82 2d 3b 5a a1 08 3b
       0.0024993063 0.00305639 0.0026475212 0.0020848126
000060 36 4b 0c 3b d5 0d 05 3b a2 8d 1e 3b 6d 69 14 3b
       0.0021407134 0.0020302434 0.0024193306 0.0022645846
000070 d4 23 16 3b 9d 6a 0f 3b a3 c8 08 3b 7a 81 11 3b
       0.0022909539 0.0021883615 0.0020871542 0.0022202418
000080 9d fb 2b 3b 8f 50 1c 3b bd 4a 0d 3b 32 b6 16 3b
       0.0026242502 0.0023851728 0.002155944 0.002299678
000090 31 d6 0b 3b 48 56 1d 3b ac 48 19 3b 34 7b 37 3b
       0.0021337385 0.0024007726 0.0023389263 0.0027997019
0000a0 04 a8 24 3b 2a ae 24 3b 52 fd 18 3b b3 da 19 3b
       0.002512456 0.0025128224 0.002334435 0.0023476302
0000b0 aa 0a 04 3b 6d 77 30 3b 43 6e 34 3b c6 5d 1b 3b
       0.0020147958 0.0026926652 0.0027531541 0.0023707016
0000c0 f9 c8 23 3b f2 03 2c 3b 65 24 a1 38 ea 10 83 38
       0.0024991615 0.0026247469 7.683857e-05 6.249717e-05
0000d0 78 e6 0a 38 f0 53 05 39 05 6a c1 38 e0 da 87 38
       3.3116405e-05 0.00012715138 9.222705e-05 6.47807e-05
0000e0 56 8d 2c 38 c5 62 68 38 a6 8a 44 38 08 11 42 38
       4.1139625e-05 5.5405097e-05 4.6859168e-05 4.6269066e-05
0000f0 bc 1f 19 38 42 0e 2c 38 57 da 36 38 bb 05 16 38
       3.6507598e-05 4.1021274e-05 4.3595526e-05 3.5768124e-05
000100 e8 dc 05 38 03 82 21 38 44 54 0b 38 0d 37 88 38
       3.1915406e-05 3.8506474e-05 3.321866e-05 6.495239e-05
000110 89 42 8e 38 b9 19 83 38 94 6b 3b 38 24 b5 b0 38
       6.783481e-05 6.251358e-05 4.4684464e-05 8.426074e-05
000120 31 ae 6c 38 e6 b9 02 38 4f 67 69 38 39 b8 1f 38
       5.6429013e-05 3.1167547e-05 5.5647743e-05 3.8080125e-05
000130 af b8 a6 38 80 98 9c 38 b8 e0 9d 38 af ef c6 37
       7.949897e-05 7.467065e-05 7.5282005e-05 2.371505e-05
000140 7e ba 2b 38 71 97 29 38 b4 ce 21 38 75 16 40 38
       4.094326e-05 4.043378e-05 3.85779e-05 4.5797282e-05
000150 0e c0 60 38 46 97 92 38 a8 9b 86 38 18 79 af 38
       5.3584627e-05 6.9899994e-05 6.418611e-05 8.367206e-05
000160 35 cd 7f 38 14 3f 9a 38 ba 45 9f 38 b0 ce b4 37
       6.098785e-05 7.3550415e-05 7.5946984e-05 2.1553918e-05
000170 77 bb 15 38 c2 0d dd 37 ec b7 f8 37 dc 57 12 38
       3.569896e-05 2.635166e-05 2.964955e-05 3.4890938e-05
000180 83 81 f1 37 45 c0 0b 38 d2 f9 4e 38 31 d9 ee 37
       2.8789747e-05 3.3319247e-05 4.934689e-05 2.8472949e-05
000190 0f 12 42 3c fb 16 57 3c 18 20 61 3c ac a7 65 3c
       0.011845126 0.013128038 0.013740562 0.014017027
0001a0 0f 48 6c 3c ed 9b 66 3c e4 12 6e 3c 5c cf 56 3c
       0.014421477 0.014075262 0.014530871 0.013110962
0001b0 98 ba 72 3c 9d df 51 3c 33 52 67 3c 9e 5f 58 3c
       0.014814995 0.012809661 0.014118719 0.013206391
0001c0 c8 0c 45 3c d7 f7 3e 3c 05 24 6c 3c f6 36 74 3c
       0.012026973 0.011655769 0.014412885 0.014905682
0001d0 71 5d 53 3c c1 fb 73 3c c8 a8 71 3c 50 f3 49 3c
       0.012900696 0.014891566 0.014749713 0.012326077
0001e0 e8 25 74 3c 87 23 61 3c 54 5e 5f 3c 46 c1 4f 3c
       0.014901616 0.013741381 0.013633329 0.012680357
0001f0 a3 b3 60 3c f7 ca 4c 3c b6 23 4b 3c a1 98 4d 3c
       0.013714704 0.012499562 0.012398651 0.012548597
000200 1d f9 5e 3c 5e ff 4c 3c 40 f0 75 3c 81 ce 46 3c
       0.013609198 0.012512056 0.015010893 0.012134195
000210 55 53 5d 3c 1b f3 53 3c b2 d3 40 3c a7 40 4c 3c
       0.013508637 0.012936379 0.011769222 0.012466586
000220 1e 44 4a 3c c5 24 4f 3c 07 c8 4f 3c 3d ea 4f 3c
       0.012345342 0.012643044 0.012681968 0.012690124
000230 0d 87 73 3c ac aa 62 3c 9d e1 56 3c 21 e7 65 3c
       0.014863742 0.013834637 0.013115314 0.014032156
000240 19 64 57 3c cb 75 44 3c 87 b9 68 3c e0 64 70 3c
       0.013146424 0.011990975 0.014204389 0.014672488
000250 2c 7b 62 3c 63 d4 59 3c 39 7c 45 3c 51 59 44 3c
       0.013823312 0.013295266 0.012053543 0.011984185
000260 c6 e4 54 3c d2 63 43 3c 16 b8 2d 3c af e9 46 3c
       0.012993997 0.0119256545 0.010602972 0.012140675
000270 f0 52 51 3c 65 09 3f 3c 0b 50 45 3c 70 e5 34 3c
       0.0127761215 0.011659955 0.0120430095 0.01104103
000280 78 2e 37 3c 65 90 39 3c a2 8f 45 3c 6b df 4c 3c
       0.011180513 0.01132593 0.0120581705 0.012504439
000290 c8 77 3c 3c 66 3a 41 3c 82 1a 29 3c f6 28 57 3c
       0.011503167 0.011793708 0.010321261 0.013132324
0002a0 84 d2 46 3c d0 b3 3b 3c 28 9d 3f 3c 02 3b 38 3c
       0.012135152 0.011456445 0.011695184 0.011244537
0002b0 a3 72 4a 3c ec 08 48 3c 2f 4f 57 3c b6 39 40 3c
       0.012356433 0.012209158 0.013141437 0.011732509
0002c0 ae 55 5d 3c 11 9a 35 3c 26 51 2c 3c 7f ab 28 3c
       0.013509197 0.011084096 0.010517394 0.010294794
0002d0 87 5c 33 3c 08 da 57 3c 32 08 41 3c 39 1e 23 3c
       0.010947353 0.013174541 0.011781739 0.009955936
0002e0 94 87 34 3c 07 92 1d 3c 5f 03 41 3c 66 a9 3f 3c
       0.0110186525 0.009617335 0.011780589 0.011698103
0002f0 9d 7a 35 3c e2 2a 40 3c a4 2c 32 3c 80 9a 47 3c
       0.011076597 0.011728974 0.010874901 0.012182832
000300 01 32 5e 3c 45 2a 57 3c 6b b4 4a 3c 7e 0c 43 3c
       0.013561727 0.013132636 0.012372117 0.011904834
000310 73 9b 25 3c d1 ad 31 3c 60 5b 35 3c a1 37 32 3c
       0.010107863 0.010844664 0.011069149 0.010877521
000320 21 3f 6a 35 ae f7 77 35 37 7a 7e 35 f8 b9 77 35
       8.726366e-07 9.237509e-07 9.480022e-07 9.228529e-07
000330 c4 8a 48 35 50 c8 86 35 a5 db 86 35 58 2e 6e 35
       7.4707737e-07 1.0042077e-06 1.0047703e-06 8.872935e-07
000340 43 22 7b 35 50 88 88 35 78 d4 5f 35 bb 51 50 35
       9.3554644e-07 1.0172462e-06 8.3383156e-07 7.760497e-07
000350 fa 6d 47 35 23 75 7c 35 51 a8 82 35 b3 a3 82 35
       7.4293314e-07 9.404777e-07 9.734741e-07 9.733398e-07
000360 41 8f 79 35 45 db 6e 35 06 07 4c 35 bb ff 2a 35
       9.296819e-07 8.898099e-07 7.600614e-07 6.370207e-07
000370 88 10 5c 35 ad 18 72 35 8a 62 8e 35 fb d5 99 35
       8.198044e-07 9.0187933e-07 1.0608503e-06 1.1461665e-06
000380 0e c3 9e 35 79 45 97 35 68 bf 89 35 ef d9 83 35
       1.1828686e-06 1.1270596e-06 1.0263002e-06 9.823688e-07
000390 a5 34 7c 35 d8 93 73 35 d0 d6 7e 35 ab 20 86 35
       9.3953923e-07 9.0739695e-07 9.4934967e-07 9.993286e-07
0003a0 88 94 5e 35 33 54 6e 35 1c 60 66 35 79 e6 7f 35
       8.2917586e-07 8.8784435e-07 8.5821534e-07 9.5330284e-07
0003b0 ec 1e 82 35 d1 41 8e 35 68 14 93 35 d8 38 86 35
       9.694754e-07 1.059898e-06 1.0958292e-06 1.0000322e-06
0003c0 34 40 88 35 94 b3 97 35 ef 9a 88 35 95 bd 83 35
       1.0151475e-06 1.1302641e-06 1.0177881e-06 9.815436e-07
0003d0 d4 b0 6e 35 a9 39 65 35 84 ec 83 35 dd 8b 96 35
       8.891923e-07 8.5393054e-07 9.829096e-07 1.1216576e-06
0003e0 48 28 87 35 90 1d 7e 35 32 f2 b6 3b 82 15 b5 3b
       1.0070007e-06 9.466539e-07 0.005583071 0.0055262456
0003f0 8b 50 bc 3b 20 e0 b4 3b 57 70 b5 3b 26 36 b3 3b
       0.005746906 0.005519882 0.0055370736 0.0054691015

exp_avg f4 [16]
000000 ea fb 2b b2 a4 d4 69 b1 e1 8e ca b1 3a 8e 1f b3
       -1.0010789e-08 -3.4026835e-09 -5.895217e-09 -3.7149427e-08
000010 cc 3e 3f 04 7d 8f e2 32 ef b1 c2 b2 01 1d 00 ac
       2.2480777e-36 2.6375114e-08 -2.2665487e-08 -1.8205994e-12
000020 e0 13 09 32 8c af 9d b1 3b df 21 31 e8 fc dc 2d
       7.978969e-09 -4.5892588e-09 2.3555475e-09 2.5123417e-11
000030 a5 9b 17 33 69 2f a1 2c 59 23 ca b2 96 3c 61 af
       3.5298985e-08 4.581159e-12 -2.353197e-08 -2.0485155e-10

exp_avg_sq f4 [16]
000000 9c 88 c0 28 d5 7f 4e 2b 95 62 62 29 3a bd 5e 29
       2.1375527e-14 7.3363304e-13 5.0267587e-14 4.945803e-14
000010 93 30 e8 28 b6 07 7d 29 bc b8 9c 28 4b 22 8d 2a
       2.577824e-14 5.6183973e-14 1.7399595e-14 2.5070427e-13
000020 ec ca ca 29 c0 82 72 29 00 8b bb 29 85 c5 fe 29
       9.0058034e-14 5.3848202e-14 8.328581e-14 1.131413e-13
000030 a1 19 81 29 da bd 06 29 8b f3 02 2b c3 c3 9b 28
       5.733197e-14 2.9918647e-14 4.652326e-13 1.7293355e-14

exp_avg f4 [16]
000000 22 9d 0e bd 8b 65 bf bc 84 fe 28 bc 11 0f be bd
       -0.034817822 -0.02336385 -0.0103145875 -0.092802174
000010 a5 46 13 37 76 9a 18 3e 80 5e 98 bd 19 e2 2a ba
       8.778331e-06 0.14902672 -0.074398994 -0.00065186765
000020 35 93 bd 3d ec e7 35 3d 1a 12 8a bd 70 45 80 39
       0.09256593 0.04441063 -0.06741734 0.00024465797
000030 f5 01 a3 bc ba b8 4d b9 b6 cc 67 3d ea 23 5d b8
       -0.019898394 -0.0001961914 0.056591712 -5.2723954e-05

exp_avg_sq f4 [16]
000000 66 30 87 3c 82 ab 38 3a 36 ea 9e 3c 5a 8e 8c 3c
       0.01650257 0.00070445996 0.01939879 0.017157722
000010 03 ed 28 38 b7 a0 d8 3c 5d 18 28 3c 9c 20 22 3a
       4.0275056e-05 0.026443822 0.010259715 0.0006184669
000020 cf 75 d2 3c 20 74 98 3c 4c b3 9b 3c 03 99 e4 3b
       0.025690941 0.01861006 0.019006394 0.006976248
000030 71 00 99 3c 12 ea cf 39 e8 65 36 3d 87 94 a2 3a
       0.018676968 0.00039656513 0.04453078 0.0012403884

exp_avg f4 [16]
000000 fb bc 35 3c 71 6a fa 3b a8 13 18 bd be 32 d6 3c
       0.01109242 0.0076420833 -0.03712812 0.026147243
000010 ca 7e 8f b7 a9 03 8c 3c f4 2f e0 bc cc da 2b ba
       -1.710597e-05 0.017091589 -0.027366616 -0.00065557356
000020 5b 39 57 3d 19 a3 5d 3b f2 14 a3 bd 04 4c 3e ba
       0.052544933 0.0033819138 -0.079629794 -0.0007259252
000030 ce 47 34 3c e6 d7 d7 b9 4a 00 3b 3d e2 2b 64 b9
       0.011003448 -0.00041168852 0.045654573 -0.00021760122

exp_avg_sq f4 [16]
000000 18 61 b3 3b e4 55 75 39 ed ed ff 3b a9 57 04 3c
       0.005474221 0.00023397018 0.0078103454 0.00807754
000010 fb 0c 3c 37 35 6f 1a 3c 84 e7 20 3b 6b e5 1d 39
       1.12086955e-05 0.009425928 0.0024552057 0.00015058152
000020 ae 4f 62 3b 52 9a ea 3b 55 41 14 3c e6 4e 00 3b
       0.0034532356 0.0071595097 0.0090487795 0.0019578277
000030 87 bc e2 3b 95 2c ec 38 10 02 56 3c 84 c0 b9 39
       0.006919447 0.00011261661 0.013062015 0.00035429385
