src/params.pth (torch, 730133 bytes, 46 tensors)

emb._spatial_conv.0.weight f4 [2, 1, 2, 1]
000000 55 c2 47 36 1a 69 59 bc 8f e9 10 bb 67 9e d1 ba
       2.9766427e-06 -0.013269687 -0.0022111868 -0.0015992642

emb._spatial_conv.0.bias f4 [2]
000000 d4 c1 88 ba 78 0d 7b 39
       -0.0010433742 0.00023942243

emb._temporal_conv.0.weight f4 [16, 1, 1, 100]
000000 a8 61 2c 29 f3 1f c1 2d 65 1b d3 20 f7 d4 95 1b
       3.8276375e-14 2.1955748e-11 3.5762919e-19 2.4787608e-22
000010 7a bb 50 26 a2 2a da 9a 5e f5 c8 9d 4e dd 75 1b
       7.2418575e-16 -9.0231564e-23 -5.3193263e-21 2.0337432e-22
000020 3d 94 a0 09 6f ed fd 21 5b d3 8a 1d 1f 02 4c 19
       3.8658e-33 1.7206795e-18 3.6746832e-21 1.0546981e-23
000030 53 73 10 16 76 b0 f3 26 92 3f 04 1e b5 35 02 1e
       1.1668617e-25 1.6909342e-15 7.001168e-21 6.893249e-21
000040 84 5d eb 8d 66 1d df 13 6a d4 9e 26 f5 a1 81 95
       -1.4505506e-30 5.6322103e-27 1.1021027e-15 -5.235821e-26
000050 72 50 78 94 b5 68 65 1a ed d9 6c 96 bd 27 95 97
       -1.2536665e-26 4.7440672e-23 -1.9132693e-25 -9.638931e-25
000060 a7 91 b4 8e e0 9c 0a 9e cb be e3 0d cf 02 a5 9b
       -4.4513684e-30 -7.3381e-21 1.4035887e-30 -2.7298775e-22
000070 cf e5 08 96 73 a8 49 1b f1 e5 95 9f b9 51 ad 96
       -1.1058507e-25 1.6680759e-22 -6.348436e-20 -2.8001232e-25
000080 b0 ac d1 98 33 6f 11 94 2b 85 d9 9d 53 97 cb 13
       -5.4199604e-24 -7.342559e-27 -5.7577114e-21 5.139362e-27
000090 36 9c 8f 11 a7 fa 98 a4 c1 58 02 11 3a 68 32 09
       2.2657694e-28 -6.6344114e-17 1.0282541e-28 2.1474978e-33
0000a0 91 37 2c 1a d0 b7 0d 15 f6 2d c4 8b 52 41 2c 92
       3.5613653e-23 2.8619726e-26 -7.556561e-32 -5.4354144e-28
0000b0 3e 93 68 92 0c bf 4e 9b 92 65 2f 13 9a 3c 34 95
       -7.338778e-28 -1.7101651e-22 2.2138183e-27 -3.6398517e-26
0000c0 02 35 63 95 c7 8e 74 a1 f9 27 3c 1d 09 51 f7 8e
       -4.58841e-26 -8.285938e-19 2.4902258e-21 -6.0968235e-30
0000d0 60 95 1f 21 14 14 6b a5 fe 40 93 97 5c 68 63 14
       5.406899e-19 -2.0389804e-16 -9.516059e-25 1.14811525e-26
0000e0 a5 5b 47 92 a9 8b 85 1d 10 cc 22 97 58 73 ab 92
       -6.290629e-28 3.5349212e-21 -5.2602586e-25 -1.0820052e-27
0000f0 15 43 b4 0f 30 16 d9 a6 da e4 27 9e 4f 1d 08 8a
       1.777521e-29 -1.5063414e-15 -8.888232e-21 -6.553674e-33
000100 39 64 7d 0d 3f 44 31 96 19 ca 49 a1 bb 64 79 9e
       7.8082283e-31 -1.4319481e-25 -6.8368923e-19 -1.3202781e-20
000110 36 43 d5 96 79 d8 c2 19 b1 63 2e 0c 78 86 b9 25
       -3.4454422e-25 2.0146562e-23 1.3434472e-31 3.2183504e-16
000120 f8 e2 ae a3 3f 03 72 16 d6 9a 6a 15 26 15 0f a6
       -1.8961243e-17 1.9549629e-25 4.7378068e-26 -4.9641753e-16
000130 a7 30 3c 25 09 5c 25 92 10 2c d1 12 3f 17 ac 19
       1.6322885e-16 -5.217826e-28 1.3200617e-27 1.7793772e-23
000140 5f 45 5a 15 65 c1 94 18 39 f8 bd 1d 98 6c 9b 8f
       4.4079474e-26 3.845238e-24 5.028454e-21 -1.5326009e-29
000150 71 56 78 92 16 3c e9 1b 29 9d e2 0a d9 85 05 a4
       -7.836155e-28 3.8585446e-22 2.1822125e-32 -2.895315e-17
000160 df 03 df a3 30 de 77 a1 08 f7 52 1c cf c9 ee 91
       -2.4179348e-17 -8.398092e-19 6.980245e-22 -3.7674153e-28
000170 31 4a cd 92 2f 5e bc 12 fb d9 ab 0c 34 d8 42 90
       -1.2955608e-27 1.1887686e-27 2.6477914e-31 -3.842631e-29
000180 7c 54 2a 91 06 f2 99 9f 1f 7c ce 16 81 13 da 1b
       -1.3436669e-28 -6.5198415e-20 3.3359426e-25 3.607768e-22
000190 5f 99 45 8f be 2f 84 95 57 b6 83 9b 53 ef af 28
       -9.742388e-30 -5.33897e-26 -2.1789966e-22 1.9532693e-14
0001a0 a0 ce 3a 17 0b 62 60 9a 94 65 b8 1e 8d 7c 7b 1d
       6.036064e-25 -4.6401313e-23 1.952377e-20 3.3283965e-21
0001b0 50 2a bf 1e 25 b3 2e 99 9f 66 8a 90 83 ed 83 22
       2.0240412e-20 -9.031767e-24 -5.4589515e-29 3.5759096e-18
0001c0 1f e8 2a 92 28 53 90 93 89 a7 63 24 5f b1 14 16
       -5.3928653e-28 -3.643271e-27 4.9364686e-17 1.2011313e-25
0001d0 5c 9b ad 16 00 4e 55 95 7d f7 80 1d 01 a5 b8 17
       2.8047703e-25 -4.307654e-26 3.4137215e-21 1.1932374e-24
0001e0 7d 97 ec 12 c8 a5 b0 9b f2 de c1 93 49 09 97 90
       1.4931039e-27 -2.922389e-22 -4.893989e-27 -5.9573304e-29
0001f0 44 e6 42 8d 88 ac de 14 fa d1 12 17 2f 18 32 9a
       -6.0058038e-31 2.2484323e-26 4.744017e-25 -3.6829073e-23
000200 a2 c5 30 93 41 eb bf 9a 21 2d d1 23 00 29 e7 11
       -2.2311764e-27 -7.937582e-23 2.2678938e-17 3.6470642e-28
000210 8b e4 10 a9 96 b3 54 9a f7 66 91 9a 4f 4b f7 15
       -3.2172653e-14 -4.398564e-23 -6.013694e-23 9.988132e-26
000220 63 25 0e 17 ca 8f cd 22 e8 ff 0f 0e 9f 96 b8 98
       4.5929863e-25 5.5717604e-18 1.7749325e-30 -4.7714974e-24
000230 64 59 b1 99 0a 41 31 a5 33 15 da 2a c5 fa 58 95
       -1.8337476e-23 -1.5374339e-16 3.873929e-13 -4.3818675e-26
000240 4f 05 64 1c bf a1 3e 9a 8a 2c 12 94 ab ba 99 17
       7.5445733e-22 -3.9421737e-23 -7.3799e-27 9.934515e-25
000250 5c 7d 3b 18 42 a1 7d 16 55 e5 c5 1d df f5 e6 1f
       2.4232474e-24 2.0488061e-25 5.238259e-21 9.781555e-20
000260 0c cb d0 17 2e 66 db 97 29 ae 25 22 05 55 4b 24
       1.3492941e-24 -1.4178337e-24 2.245387e-18 4.4090623e-17
000270 dd 0d 58 13 bc 22 bc 98 ec 04 8b 1b 29 0c 49 2a
       2.7269868e-27 -4.8631934e-24 2.2998802e-22 1.7856605e-13
000280 c4 60 08 9c c5 12 65 27 1d d1 3e 1d 15 fe e8 1a
       -4.512369e-22 3.179031e-15 2.52544e-21 9.636344e-23
000290 74 34 99 a7 72 2a 6d 26 49 19 90 24 89 7e 28 93
       -4.25229e-15 8.2283417e-16 6.249288e-17 -2.1266968e-27
0002a0 69 a0 d0 17 9f ee 97 14 5b 54 47 23 8a ce ff 9a
       1.3482178e-24 1.5341223e-26 1.08056746e-17 -1.0579921e-22
0002b0 87 d5 e9 94 91 99 13 16 d4 8f 3d 94 14 29 18 a3
       -2.361121e-26 1.1923022e-25 -9.5704266e-27 -8.248635e-18
0002c0 a6 3c 3e 94 ee 84 02 13 ec ea ce 21 e5 2b 28 1f
       -9.6045094e-27 1.6473846e-27 1.4021286e-18 3.5611692e-20
0002d0 98 14 a8 1f c5 cc 3b 28 7a 7e 62 0f 38 c2 da 1d
       7.118484e-20 1.0424988e-14 1.1167019e-29 5.7904937e-21
0002e0 84 2f 50 93 ce 3c d3 a7 fd aa 3a 8d 2e 0a 8e 0e
       -2.6276718e-27 -5.863019e-15 -5.7521495e-31 3.5015505e-30
0002f0 1a fc c7 27 be 87 51 23 45 27 9d 94 5a 1a 9a 0e
       5.5506925e-15 1.1358657e-17 -1.5868438e-26 3.7989307e-30
000300 ba 9e 1e 8d 2c 3d a5 1f 78 47 fc 29 94 f5 b5 21
       -4.887857e-31 6.998142e-20 1.1203446e-13 1.2330041e-18
000310 ef cb 2b 18 c9 98 cb 1f 75 50 cb 21 21 5d 86 95
       2.2204192e-24 8.6226606e-20 1.3777112e-18 -5.42691e-26
000320 04 13 76 0c d9 47 e5 1b c2 5f a8 10 fa 24 c6 97
       1.8956873e-31 3.7931303e-22 6.6411854e-29 -1.2804784e-24
000330 6d 4a 2b 13 69 a6 b3 8f 8f 23 14 98 88 2b 83 24
       2.161993e-27 -1.7714862e-29 -1.9146504e-24 5.688594e-17
000340 56 f4 80 18 92 4c 4d 93 e5 e6 b6 11 97 fb ba 95
       3.333394e-24 -2.591239e-27 2.8856837e-28 -7.552174e-26
000350 5e 0d e1 0e 0b e3 87 8f 3d c1 c0 28 a9 1a c8 9a
       5.5479655e-30 -1.3399482e-29 2.1400086e-14 -8.276113e-23
000360 af 81 73 92 4b 82 c6 95 a1 8c a6 0f 3e dc da 0e
       -7.6837127e-28 -8.017713e-26 1.6423032e-29 5.3953235e-30
000370 b6 94 b4 9b a6 8f 2c 0f ab 17 43 93 ef 16 57 15
       -2.9874604e-22 8.5079204e-30 -2.462413e-27 4.3436996e-26
000380 80 e5 54 17 73 2d 43 0f e4 b3 0f 16 f4 11 21 18
       6.8790564e-25 9.6229955e-30 1.1608211e-25 2.0817826e-24
000390 2a 23 17 18 0e 51 36 95 71 64 ac 23 3b 39 80 29
       1.9534046e-24 -3.6818548e-26 1.8690816e-17 5.69427e-14
0003a0 14 dc 69 26 c8 97 2b 90 cf 8d f8 21 d3 16 27 24
       8.1136375e-16 -3.3840732e-29 1.684267e-18 3.6231685e-17
0003b0 ab ca ee 1f d3 48 d1 12 80 25 fa 94 cb 9c 0a 91
       1.01132207e-19 1.3207707e-27 -2.525834e-26 -1.0934596e-28
0003c0 48 83 5b 17 26 47 ce 10 dc c2 a6 26 c5 07 27 29
       7.0928417e-25 8.1362295e-29 1.1571381e-15 3.7088188e-14
0003d0 40 e8 67 9a d0 0d b8 17 1b 73 bc 26 4f 95 7a 99
       -4.795729e-23 1.1894208e-24 1.307632e-15 -1.295485e-23
0003e0 d4 a7 5d 94 89 61 e2 17 72 93 8b 95 db 28 cb 1d
       -1.1190747e-26 1.4629529e-24 -5.637428e-26 5.3775896e-21
0003f0 4c 6e 5d 12 b9 88 a3 9a 53 49 f0 12 8d 7c e4 8d
       6.9871255e-28 -6.763611e-23 1.5164205e-27 -1.4081569e-30

emb._temporal_conv.0.bias f4 [16]
000000 7e 0e 00 00 2f a7 28 06 4e dc c6 84 a6 82 03 8f
       5.199e-42 3.1720115e-35 -4.6751894e-36 -6.483961e-30
000010 ef 57 09 00 7f f1 97 06 15 82 84 91 95 6b e1 82
       8.58064e-40 5.7154734e-35 -2.0906097e-28 -3.3122528e-37
000020 0e 16 00 80 a9 02 47 8b 0a ab 96 06 43 46 1f 80
       -7.912e-42 -3.8328007e-32 5.667505e-35 -2.872106e-39
000030 c9 b0 07 80 8a 0a 00 80 5d 06 00 00 8f ed c0 87
       -7.06267e-40 -3.781e-42 2.283e-42 -2.9028574e-34

emb._temporal_conv.1.weight f4 [16]
000000 71 ab dd 2c 97 7c d5 ad 38 df 1a ab 21 44 2e b4
       6.3002316e-12 -2.4270625e-11 -5.502157e-13 -1.6229798e-07
000010 46 8f 0b a2 e3 3c 63 ae 33 01 1c b8 1d f5 3a b4
       -1.8913861e-18 -5.1667903e-11 -3.7194415e-05 -1.7411772e-07
000020 76 82 90 0e d0 de 62 b2 55 68 96 ad 76 5a 4f 25
       3.562437e-30 -1.3205593e-08 -1.7099358e-11 1.7985037e-16
000030 fb 91 9b 2b b6 4d 91 91 97 3a 98 93 8e 99 c3 b5
       1.105393e-12 -2.292486e-28 -3.842797e-27 -1.4573322e-06

emb._temporal_conv.1.bias f4 [16]
000000 d4 cb 2e a0 d2 f0 58 96 12 cf 52 99 de c3 c0 1d
       -1.4805814e-19 -1.752433e-25 -1.0898563e-23 5.10245e-21
000010 dd d9 47 13 a9 53 9e 17 b7 0f 74 30 2f df 82 ad
       2.5224746e-27 1.0231629e-24 8.8789015e-10 -1.4878402e-11
000020 42 64 d1 85 19 63 e3 20 d0 64 82 98 aa e4 99 91
       -1.9691094e-35 3.8520873e-19 -3.3706007e-24 -2.428007e-28
000030 ab 9e b4 9a 7d c5 b4 0c b8 d9 57 07 04 ef 2b b1
       -7.47026e-23 2.785225e-31 1.6238784e-34 -2.501964e-09

emb._temporal_conv.1.running_mean f4 [16]
000000 46 52 a7 29 be 6a 29 27 58 cc d6 2a ae d4 48 ac
       7.430562e-14 2.3511326e-15 3.8155828e-13 -2.853977e-12
000010 f5 78 45 28 ca e6 31 9e 67 c6 6b 2d 06 04 0b ae
       1.0961925e-14 -9.418028e-21 1.3402258e-11 -3.1608514e-11
000020 1f 3f 3c 95 ce 2a 24 a8 a2 3d 03 2a e1 af d6 28
       -3.801609e-26 -9.113111e-15 1.165652e-13 2.3835048e-14
000030 40 0f c4 29 c8 5d ba 18 cb 90 09 a0 ad c1 4b 29
       8.706794e-14 4.8174568e-24 -1.1652259e-19 4.5243042e-14

emb._temporal_conv.1.running_var f4 [16]
000000 51 b8 c9 14 84 b1 49 0f 10 d9 22 17 78 ac 0f 1a
       2.0368513e-26 9.9442534e-30 5.2618995e-25 2.9711026e-23
000010 ce 61 0c 12 a9 f1 01 00 a4 34 47 1c 0b 0f e6 1c
       4.4296764e-28 1.78527e-40 6.5911613e-22 1.5224012e-21
000020 04 00 00 00 42 61 bd 11 1b 8e ff 14 3f 0f 25 13
       6e-45 2.9878882e-28 2.580447e-26 2.0833445e-27
000030 b6 44 07 15 04 00 00 00 c0 af 8c 01 7b f9 06 14
       2.7317236e-26 6e-45 5.1680067e-38 6.8144725e-27

emb._temporal_conv.4.weight f4 [16, 16, 1, 100]
000000 68 6d 12 18 4c f2 57 09 47 ae 03 00 e8 db bd 12
       1.8925294e-24 2.5993611e-33 3.38025e-40 1.1981788e-27
000010 a0 9d 98 89 7c f2 d5 00 64 52 79 00 81 d6 12 88
       -3.67409e-33 1.9647948e-38 1.1141651e-38 -4.4187425e-34
000020 bc f2 57 0e a0 b2 a2 9b 72 31 2b 84 be 94 02 80
       2.6617668e-30 -2.6916086e-22 -2.0123658e-36 -2.3703e-40
000030 11 3f 3c a2 d7 b6 92 00 b1 88 80 83 82 b8 24 81
       -2.5512138e-18 1.3473573e-38 -7.554547e-37 -3.025442e-38
000040 65 57 82 0e 8a 2b 35 95 c9 3a 61 12 10 a0 94 8a
       3.2131632e-30 -3.6587005e-26 7.106994e-28 -1.431209e-32
000050 40 73 ad 88 5d fe 5b 8c bb 96 08 80 ce 52 c9 08
       -1.0439154e-33 -1.6947691e-31 -7.88756e-40 1.2116715e-33
000060 bb 5a 8d 12 88 50 06 95 45 15 fa 9e a2 6f a3 96
       8.920718e-28 -2.7124612e-26 -2.6478576e-20 -2.640452e-25
000070 f4 95 b7 8a a8 fa 08 80 84 87 7e 02 10 8a f0 90
       -1.7678665e-32 -8.24602e-40 1.8699864e-37 -9.487603e-29
000080 00 66 ee 02 58 37 90 87 07 db 07 05 31 41 07 00
       3.5029502e-37 -2.169924e-34 6.3878985e-36 6.66235e-40
000090 6a 1c d2 88 2a 46 a9 02 6d dd bd 90 4f 8b dd 07
       -1.2645595e-33 2.487259e-37 -7.4888516e-29 3.3334262e-34
0000a0 6c 04 70 1a 3f 39 00 80 d5 a7 4c 07 74 c9 0e 00
       4.963441e-23 -2.0536e-41 1.5396576e-34 1.357965e-39
0000b0 27 cf 23 01 9c 5a 4b 8b 79 44 5b 84 a4 08 a6 04
       3.0086996e-38 -3.9164545e-32 -2.5774767e-36 3.9034348e-36
0000c0 40 d8 a3 0d 64 59 54 0d 5b e8 83 01 81 9e 24 00
       1.0097711e-30 6.5435144e-31 4.8455214e-38 3.362938e-39
0000d0 b7 a5 d8 04 51 48 59 82 29 be 49 12 1a 8c 0f 05
       5.093354e-36 -1.5963396e-37 6.3658807e-28 6.74956e-36
0000e0 68 d1 0a 00 f0 fc 4d 18 46 8f 41 00 38 bf 3c 83
       9.93476e-40 2.662333e-24 6.020704e-39 -5.5467743e-37
0000f0 e9 19 b5 86 4e 03 0d 86 b1 67 53 8a 7b dd e1 92
       -6.8122704e-35 -2.652158e-35 -1.0178783e-32 -1.4254095e-27
000100 1c 57 02 a6 d5 3b 5c 0c 71 f5 c7 11 ca ab b8 99
       -4.5220866e-16 1.6966189e-31 3.154793e-28 -1.9094539e-23
000110 f3 e3 bf 85 ff 67 0b 03 d3 ad 2c 83 77 b4 04 80
       -1.8045289e-35 4.096781e-37 -5.0745798e-37 -4.3208e-40
000120 48 13 02 80 f4 a1 6e 17 27 a0 c1 17 5d 65 22 0d
       -1.90588e-40 7.710636e-25 1.2512761e-24 5.0042116e-31
000130 a0 85 5e 16 37 2f 01 00 de 02 80 03 13 36 96 19
       1.7975182e-25 1.08773e-40 7.523822e-37 1.5531477e-23
000140 0f d3 96 8b 92 3e 04 02 50 6f 26 96 0e 33 2a 89
       -5.8095464e-32 9.715785e-38 -1.3444497e-25 -2.0487011e-33
000150 c0 0a e9 00 18 b5 07 05 93 36 21 00 14 21 4f 9b
       2.1401527e-38 6.380931e-36 3.050149e-39 -1.7133327e-22
000160 c3 09 b5 93 fa ea a9 01 8f 15 e7 88 5d 5f 6a 17
       -4.570045e-27 6.241797e-38 -1.3907875e-33 7.5729843e-25
000170 b8 cb 33 8b 8a 65 7a 82 4c f3 c7 83 00 dc 6d 91
       -3.4627407e-32 -1.839624e-37 -1.1752027e-36 -1.8763796e-28
000180 98 59 9a 07 88 12 a8 02 73 db 9d 9d 1d 16 aa 96
       2.3224003e-34 2.4696018e-37 -4.178446e-21 -2.7478937e-25
000190 4b 25 a5 0d 44 0f ad 14 b2 28 f5 95 c6 20 92 8c
       1.0177888e-30 1.7474557e-26 -9.901892e-26 -2.2514587e-31
0001a0 cd 4b c8 9f d5 70 ed 08 77 32 6f 0d 3c 20 e0 10
       -8.4828697e-20 1.4290445e-33 7.3708306e-31 8.8402086e-29
0001b0 44 87 8b 0b 0f 81 06 98 6e e5 61 15 a3 29 ff 07
       5.374438e-32 -1.7384252e-24 4.5619376e-26 3.8392607e-34
0001c0 2e bb 7c 06 15 cc 25 8a 3d 50 58 0d 43 92 6a 8b
       4.753345e-35 -7.9828446e-33 6.665672e-31 -4.5176796e-32
0001d0 ea d5 ab 0a 7d 63 98 86 cf 46 93 14 c6 dd ac 1b
       1.6547167e-32 -5.732223e-35 1.4871136e-26 2.859833e-22
0001e0 cc 20 05 8c 3f 67 56 0f 46 50 f4 92 a6 ce 12 08
       -1.0255817e-31 1.0570899e-29 -1.5418354e-27 4.417819e-34
0001f0 c3 c9 d3 88 3b 09 8a 0d 81 6b e5 8a a9 9b 45 a5
       -1.27465345e-33 8.507129e-31 -2.2092336e-32 -1.7139766e-16
000200 a7 35 a8 9b 1b 9e c2 92 64 c4 fc 89 b2 2f 0e 13
       -2.782794e-22 -1.2282097e-27 -6.0851478e-33 1.7946435e-27
000210 64 48 41 0a fc 7d 35 19 b4 15 84 07 af b9 42 10
       9.306227e-33 9.382923e-24 1.9873909e-34 3.84028e-29
000220 20 28 28 87 e5 a6 06 0a d2 57 33 13 7e 0b 7d 0a
       -1.2650707e-34 6.483255e-33 2.2636275e-27 1.2183668e-32
000230 0e c9 4a 91 40 d7 67 8b 81 dd 8c 06 aa a4 df 0c
       -1.5996945e-28 -4.4650918e-32 5.298762e-35 3.4457694e-31
000240 ab 3b aa 00 9e db 8f 88 31 29 1d 98 45 18 ff 89
       1.5633439e-38 -8.658131e-34 -2.031257e-24 -6.141184e-33
000250 63 73 a2 87 38 f1 9d 0f 18 12 0a 8a 6a d5 ab 92
       -2.444287e-34 1.557431e-29 -6.647861e-33 -1.0844228e-27
000260 ba 25 64 0d 61 b6 e6 8b a3 69 ae 0c 12 c1 fe 07
       7.0303336e-31 -8.886719e-32 2.6872523e-31 3.833115e-34
000270 f6 3c 6a 89 e9 34 3b 15 25 20 ac 0f fe 97 fe 12
       -2.819539e-33 3.7806088e-26 1.6972891e-29 1.6067123e-27
000280 7b d9 c7 08 b2 c1 99 92 26 f0 ad 89 f7 da 24 88
       1.2028006e-33 -9.703407e-28 -4.187407e-33 -4.9609347e-34
000290 e3 95 0f 1a 43 00 89 1b fe a0 16 87 cd ec 82 05
       2.9692784e-23 2.2664918e-22 -1.1332057e-34 1.2312128e-35
0002a0 94 d0 80 92 4a f9 25 8d 65 73 82 06 07 39 ae 0c
       -8.129354e-28 -5.114462e-31 4.907012e-35 2.6843267e-31
0002b0 7c 81 46 08 8a 32 ad 0a 89 de e2 07 4e 15 37 8c
       5.9735666e-34 1.6678305e-32 3.4135495e-34 -1.4104218e-31
0002c0 c1 39 aa 86 26 23 88 0a a9 ae 29 14 8f 21 3a 11
       -6.4031754e-35 1.3109545e-32 8.566765e-27 1.4683154e-28
0002d0 f6 8f 44 8a f8 54 85 15 36 d7 bf 88 99 37 94 88
       -9.464133e-33 5.385233e-26 -1.154599e-33 -8.920497e-34
0002e0 00 ff ff 89 ca 02 4e 87 3e 43 56 8c 74 08 a6 10
       -6.1628818e-33 -1.5498537e-34 -1.6506195e-31 6.548848e-29
0002f0 6e 1c 0a 9e 37 5c 89 96 8c 6d ba 0e 8a e6 0a 91
       -7.311538e-21 -2.219174e-25 4.595803e-30 -1.0957321e-28
000300 50 91 8f 15 0e 49 45 10 6a ed 46 93 79 21 77 10
       5.79865e-26 3.890768e-29 -2.5108168e-27 4.8737947e-29
000310 41 99 94 0d 05 40 fc 0d df cb fd 92 81 dc ba a0
       9.158099e-31 1.5546111e-30 -1.6016803e-27 -3.1655543e-19
000320 d4 f6 df 14 84 fa e3 8d bc ff 77 8b 8d 7d 48 a1
       2.2614602e-26 -1.4050265e-30 -4.7762863e-32 -6.79288e-19
000330 a7 4d 16 15 6f df c8 a3 c0 d2 67 8e a1 2c fb 90
       3.0353516e-26 -2.1778671e-17 -2.857442e-30 -9.9070805e-29
000340 74 68 ce 86 02 50 38 8e 01 1e 87 11 d9 1e 01 15
       -7.764207e-35 -2.2718273e-30 2.1317736e-28 2.6075677e-26
000350 95 98 93 14 f2 ab fa 0e 2f 3d f9 a2 e1 ac 3b a5
       1.490339e-26 6.1795336e-30 -6.7556366e-18 -1.6278238e-16
000360 8d 76 88 19 a1 e4 fe 19 81 6f 20 a0 e1 df b9 19
       1.4109953e-23 2.6355327e-23 -1.3589421e-19 1.9218976e-23
000370 7b 92 80 9e 48 48 d7 0c 1e 32 1c 86 55 61 8a 91
       -1.361311e-20 3.3169498e-31 -2.937716e-35 -2.1832546e-28
000380 32 2b b0 1b d9 20 93 14 ff aa 12 8d 26 70 54 8e
       2.9144672e-22 1.4856163e-26 -4.5195553e-31 -2.6185015e-30
000390 dc 1e 2e 15 8a 25 48 9e b1 9e e7 a2 b3 79 dd 97
       3.5163364e-26 -1.0595675e-20 -6.2780697e-18 -1.4312511e-24
0003a0 48 4f ba a8 d9 03 4e ac b1 97 92 ac f3 7c 5d a8
       -2.0684531e-14 -2.9276497e-12 -4.1664107e-12 -1.22950585e-14
0003b0 f5 ff 8d 9c 1c 40 45 ab 7a 51 4b a4 8a db 1f ab
       -9.396761e-22 -7.007743e-13 -4.408762e-17 -5.679282e-13
0003c0 8f f5 07 a0 1c ed b8 1a 67 9b b0 97 b5 b0 67 0c
       -1.1516193e-19 7.648369e-23 -1.1412962e-24 1.7848769e-31
0003d0 5c 1c a0 8b 20 58 09 0d 4a 6c ac 8e 81 1e ab 8e
       -6.167243e-32 4.232246e-31 -4.2505552e-30 -4.218413e-30
0003e0 da 24 c0 14 1b 5e 50 18 26 9e 7c 19 f9 77 19 0c
       1.9401581e-26 2.6930881e-24 1.30600325e-23 1.1822794e-31
0003f0 ba 80 17 06 11 b4 45 85 f1 95 86 92 1a 93 99 1b
       2.8494517e-35 -9.2959685e-36 -8.493552e-28 2.540679e-22

emb._temporal_conv.4.bias f4 [16]
000000 6f e7 78 07 94 89 92 05 b0 07 b3 32 9d 41 23 33
       1.8725459e-34 1.3780312e-35 2.0841838e-08 3.801107e-08
000010 47 ae 03 00 a6 0d dc 2f dc ea ad 05 68 79 3d 85
       3.38025e-40 4.0027465e-10 1.6355116e-35 -8.909036e-36
000020 8e 1b 4f 8b 72 db 7b 0d be 03 38 34 a1 23 43 1d
       -3.988748e-32 7.7609494e-31 1.7137697e-07 2.5826455e-21
000030 48 48 30 80 1d 5e a8 2a 0e 28 3e 89 87 3a a6 8e
       -4.434033e-39 2.99081e-13 -2.2889252e-33 -4.097852e-30

emb._temporal_conv.5.weight f4 [16]
000000 5a ac 6e 39 e9 b2 b2 35 57 95 79 34 6a a5 b6 37
       0.00022761655 1.3314103e-06 2.3244262e-07 2.1773118e-05
000010 23 c3 3d 35 3e c7 d2 36 b4 d6 18 39 d4 3e 96 37
       7.069195e-07 6.2816825e-06 0.00014575833 1.791065e-05
000020 98 96 b4 38 67 62 a4 3a 0b f2 30 37 c9 04 56 38
       8.611119e-05 0.0012541533 1.05467725e-05 5.1026032e-05
000030 67 be 5a 37 b0 0b 55 39 6e 46 a4 39 38 77 07 39
       1.3038144e-05 0.00020317617 0.00031332992 0.00012919016

emb._temporal_conv.5.bias f4 [16]
000000 f7 91 69 b7 9c d2 30 b4 bd 0b cb b0 9a 80 e5 35
       -1.3921867e-05 -1.6467897e-07 -1.477353e-09 1.7099258e-06
000010 51 f5 9a b3 ed e2 43 b5 37 ab bc b6 8d ac 05 b5
       -7.2158066e-08 -7.297338e-07 -5.6227686e-06 -4.9797455e-07
000020 cb ac b9 b5 f8 e2 26 b9 87 c6 83 b4 cb 21 fb b3
       -1.3833863e-06 -0.00015915546 -2.45451e-07 -1.1694245e-07
000030 c1 14 2e b5 f7 49 00 37 a7 54 92 b6 c5 77 69 b4
       -6.485025e-07 7.646616e-06 -4.360994e-06 -2.1743388e-07

emb._temporal_conv.5.running_mean f4 [16]
000000 a3 8b 2d 1f be 2c 94 0d 10 17 f4 b0 99 be 08 b1
       3.674968e-20 9.1319755e-31 -1.7759891e-09 -1.9898947e-09
000010 8a 33 b5 89 fa 37 3e ae 67 dc f5 04 29 03 cf 11
       -4.3622632e-33 -4.3250716e-11 5.780163e-36 3.266079e-28
000020 e9 7a 78 93 80 d1 84 91 21 fa 77 b2 d5 b8 11 9b
       -3.13626e-27 -2.0955042e-28 -1.4434165e-08 -1.2053841e-22
000030 bc ea 32 96 18 01 01 a9 d4 c4 3a 8b 3c ec bf 96
       -1.4452795e-25 -2.8644703e-14 -3.5970374e-32 -3.10068e-25

emb._temporal_conv.5.running_var f4 [16]
000000 04 00 00 00 04 00 00 00 75 95 22 0e 0e 46 d1 0e
       6e-45 6e-45 2.0040003e-30 5.1589938e-30
000010 04 00 00 00 ac 83 68 08 04 00 00 00 04 00 00 00
       6e-45 6.996974e-34 6e-45 6e-45
000020 04 00 00 00 04 00 00 00 bd 4c eb 10 04 00 00 00
       6e-45 6e-45 9.280939e-29 6e-45
000030 04 00 00 00 6a 2d 07 00 04 00 00 00 04 00 00 00
       6e-45 6.5914e-40 6e-45 6e-45

emb._affine_layer.1.weight f4 [100, 320]
000000 be 6b c0 0c 2d 78 b2 8b bd f1 f3 0a e2 47 31 0c
       2.964713e-31 -6.8743926e-32 2.349098e-32 1.3657215e-31
000010 05 10 8a 8b b5 65 86 0c 48 b2 96 0c bd 34 14 8b
       -5.317977e-32 2.0707182e-31 2.3218458e-31 -2.854344e-32
000020 7a 76 ac 0b 26 d4 7a 8c 9d 1b 8d 22 36 f8 2a 18
       6.6430254e-32 -1.932314e-31 3.8247363e-18 2.20973e-24
000030 33 b2 9c 93 e9 c5 84 10 22 2c 1f 15 82 00 4a 99
       -3.9555654e-27 5.236975e-29 3.214461e-26 -1.0443258e-23
000040 52 9d 32 1a c0 be 9a 93 3c 72 7a 16 b2 27 67 15
       3.693662e-23 -3.906316e-27 2.0230885e-25 4.6681393e-26
000050 1c 23 8e 88 96 6f 9b 0c 2f b8 03 8a a7 d3 12 8d
       -8.554568e-34 2.394869e-31 -6.342062e-33 -4.524449e-31
000060 b4 f3 fd 8c 03 7d 97 89 0e 6d c6 8b 3c 5c 92 0d
       -3.9127496e-31 -3.6469488e-33 -7.6430913e-32 9.020149e-31
000070 05 f1 77 0a 1d 84 85 0d e3 0c 09 88 62 b3 5b 07
       1.1937948e-32 8.228563e-31 -4.1242086e-34 1.6528445e-34
000080 e2 de 0e 08 21 eb 88 88 c6 de 98 86 2f ef 70 87
       4.299357e-34 -8.240481e-34 -5.750338e-35 -1.8125883e-34
000090 8c cd 89 07 4a b4 6a 87 dc e8 c0 05 a9 7d 6f 86
       2.0734279e-34 -1.7657186e-34 1.8141132e-35 -4.5043224e-35
0000a0 37 1a 5a 8a 87 1a 60 09 c6 59 ea 08 cf 04 fb 88
       -1.0501249e-32 2.6975492e-33 1.4104468e-33 -1.51076435e-33
0000b0 69 60 7e 0b c8 c6 6c 89 98 2a ca 08 a0 29 09 8a
       4.8991152e-32 -2.8500933e-33 1.21674465e-33 -6.604139e-33
0000c0 9c 5f 50 89 7d d4 6d 07 b3 96 ef 89 e1 54 b1 8a
       -2.5082045e-33 1.7892343e-34 -5.7678874e-33 -1.7076408e-32
0000d0 15 be b2 0a e0 7a 0a 8b f1 e0 71 8a 49 6e af 89
       1.7212277e-32 -2.6670274e-32 -1.1646035e-32 -4.223343e-33
0000e0 04 aa 68 89 5c 71 91 8a d6 0d 2a 8b c2 32 b0 87
       -2.8005925e-33 -1.4005633e-32 -3.2751218e-32 -2.651137e-34
0000f0 c3 33 19 af dd fe 68 ae 80 1c 43 af 20 21 dc 2e
       -1.3933658e-10 -5.2977057e-11 -1.7745272e-10 1.0010326e-10
000100 b3 13 d8 af 66 e3 4a 2e 0e 0c f0 ad cc 3e 25 2f
       -3.9304168e-10 4.6131453e-11 -2.7290194e-11 1.5028973e-10
000110 23 e4 ff 2d 1a 5c 83 af 6e a3 b1 ad 4c 6c 41 af
       2.9091457e-11 -2.3894203e-10 -2.0195148e-11 -1.7591723e-10
000120 27 48 a3 2f e6 16 12 30 1f 18 9f af 51 7f ac ad
       2.9700795e-10 5.314703e-10 -2.893907e-10 -1.9610676e-11
000130 00 49 fe 2f 6b 31 3a b0 7e 4f aa af 61 46 66 2e
       4.62542e-10 -6.7736633e-10 -3.0979302e-10 5.2358454e-11
000140 16 fc 02 88 9a dc 26 06 7f aa 6c 82 c6 c0 92 88
       -3.9416778e-34 3.1383202e-35 -1.7387472e-37 -8.832376e-34
000150 8b 44 04 09 9c 00 17 88 ef 8e ac 85 ad ef a1 09
       1.592115e-33 -4.5440626e-34 -1.6227308e-35 3.898473e-33
000160 04 f5 10 89 5e e6 d2 82 9c 53 3e 81 d2 f5 ca 81
       -1.7448575e-33 -3.098895e-37 -3.4957475e-38 -7.4555816e-38
000170 79 6f d0 82 fa 66 15 83 69 7b 31 02 ed f8 6e 82
       -3.0626835e-37 -4.3905376e-37 1.3039323e-37 -1.7556917e-37
000180 71 1a 92 03 c6 b1 0a 83 c5 f1 5c 83 e4 e0 91 81
       8.587179e-37 -4.075863e-37 -6.4929727e-37 -5.358729e-38
000190 e8 78 b6 87 97 64 91 09 eb 2a ff 88 cd e2 4e 0a
       -2.7455379e-34 3.5002074e-33 -1.5357344e-33 9.961196e-33
0001a0 df 57 b0 05 9f a0 cf 06 24 a6 f0 02 7c 96 20 8b
       1.6583239e-35 7.810076e-35 3.536019e-37 -3.092809e-32
0001b0 ac 1b 21 05 22 cd fa 87 36 e4 01 00 fe 18 2f 80
       7.575266e-36 -3.7736385e-34 1.73702e-40 -4.325234e-39
0001c0 7c 55 0e 80 e2 df 1f 80 e6 78 25 00 5d 96 22 00
       -1.316363e-39 -2.927214e-39 3.441284e-39 3.176347e-39
0001d0 2e 2f 10 00 54 e7 16 00 c2 72 19 00 df 16 11 80
       1.486293e-39 2.103366e-39 2.337055e-39 -1.569408e-39
0001e0 27 b1 ec 8c 7d ea 8b 0c 96 9f 0b 8c 06 e4 94 0c
       -3.6468177e-31 2.1557468e-31 -1.0756194e-31 2.2940247e-31
0001f0 c8 e5 1a 8b 2e 49 46 0a 1b 29 e2 8a a1 7e d4 8b
       -2.983219e-32 9.547117e-33 -2.177847e-32 -8.184996e-32
000200 9f 31 f0 8c ab 03 ab 8b 30 cd 81 11 c5 a7 e5 90
       -3.700772e-31 -6.5872323e-32 2.0479068e-28 -9.0583064e-29
000210 7f f2 fa 12 aa 96 3a 93 5b 77 1a 8f 77 f3 88 93
       1.5836998e-27 -2.3550784e-27 -7.615773e-30 -3.45713e-27
000220 2b 3f 41 98 cc f6 c9 0d c2 ea 0a 90 c8 cd c7 11
       -2.4976557e-24 1.2446996e-30 -2.7396552e-29 3.1523487e-28
000230 52 2f 9a 09 46 c6 1e 0a cb f0 18 89 0e 74 1d 86
       3.711865e-33 7.6447144e-33 -1.8409555e-33 -2.9613682e-35
000240 7d b7 01 88 7d f8 14 89 2b a2 4f 89 99 6d a6 09
       -3.9035215e-34 -1.793169e-33 -2.499297e-33 4.006611e-33
000250 b4 9b 8e 0b 02 aa dc 08 75 82 ed 08 93 78 a4 87
       5.4930686e-32 1.3280737e-33 1.4294589e-33 -2.4746845e-34
000260 c9 ce 1a 04 4f 5a 28 07 02 1d 0d 08 11 81 8a 89
       1.8197564e-36 1.2665455e-34 4.2464743e-34 -3.3343665e-33
000270 03 c9 81 09 e3 34 a1 97 3a 15 0e 88 20 d9 0f 08
       3.124465e-33 -1.0417732e-24 -4.2756522e-34 4.3287726e-34
000280 c3 6a 9e 0e d7 6e 08 0f 7c 8c 1d 0e 3a 57 e6 0e
       3.9052815e-30 6.726665e-30 1.9419385e-30 5.6783374e-30
000290 e3 d1 87 8f b2 54 72 0e ba 4b 68 8e 4f d1 0a 8f
       -1.3392873e-29 2.9869582e-30 -2.8632669e-30 -6.844237e-30
0002a0 3b bb 9c 8c 44 cb 0b 8f 92 38 ad 19 bf 25 83 95
       -2.414829e-31 -6.892377e-30 1.791063e-23 -5.297003e-26
0002b0 00 e4 17 12 95 75 8b 9c 4c 79 9b 18 20 27 07 94
       4.792823e-28 -9.228643e-22 4.018904e-24 -6.823474e-27
0002c0 c9 28 47 19 a7 f3 3b 9b 75 d7 e3 98 a3 6e 89 14
       1.0296295e-23 -1.5547006e-22 -5.889568e-24 1.3877103e-26
0002d0 ae 2b 12 11 36 13 33 11 72 1a 06 12 c1 ea 2c 10
       1.1530829e-28 1.412653e-28 4.231554e-28 3.4101867e-29
0002e0 ef 4b c1 91 bd 9a e1 11 6b a8 0e 11 46 28 fd 91
       -3.0496829e-28 3.5594106e-28 1.1253723e-28 -3.9941182e-28
0002f0 19 24 b7 91 de 84 19 12 06 75 d3 15 c3 b8 13 1c
       -2.8894556e-28 4.844206e-28 8.540685e-26 4.887702e-22
000300 6a 42 78 94 ae 72 70 17 e2 34 6a 9e ef e8 e2 1a
       -1.2533898e-26 7.769293e-25 -1.2398793e-20 9.3847734e-23
000310 42 a5 ac 98 53 39 ff 18 6b 5f 87 9b 61 28 ef 97
       -4.4627826e-24 6.5973838e-24 -2.239554e-22 -1.5455206e-24
000320 73 fb a1 89 d3 f4 9e 88 35 ee b3 09 82 3a f5 09
       -3.8995802e-33 -9.566837e-34 4.331669e-33 5.9036625e-33
000330 a4 47 82 0a 1f 2c 12 89 d3 70 8d 09 f9 aa 4d 89
       1.2545493e-32 -1.7594856e-33 3.4050615e-33 -2.4756368e-33
000340 15 ca d1 08 60 b8 57 89 84 20 1c 15 2d d0 48 12
       1.2626239e-33 -2.5966376e-33 3.15296e-26 6.336547e-28
000350 e1 f4 65 0d a0 38 dd 0e 80 e6 16 18 56 6b d6 91
       7.0860835e-31 5.4535234e-30 1.9503418e-24 -3.3829398e-28
000360 ee 55 69 8f 46 98 44 0d dd e0 4f 94 3c d5 46 90
       -1.15043364e-29 6.0580456e-31 -1.0495176e-26 -3.9212885e-29
000370 8a 60 35 9e d9 2a 60 9f 50 7f 44 9f ea 12 25 9e
       -9.602024e-21 -4.7469288e-20 -4.1609925e-20 -8.738939e-21
000380 90 d6 43 9f c4 14 b4 9e af 80 29 1f ee 9d a5 9f
       -4.1470338e-20 -1.906683e-20 3.5893587e-20 -7.014149e-20
000390 c7 75 18 a0 bc 72 b2 1d c6 cc 0a 1f ed ad 10 9f
       -1.291387e-19 4.723484e-21 2.939202e-20 -3.0637054e-20
0003a0 4e 54 1f a0 b7 9c d5 1e 6c 70 4d 20 9d 78 7b 1f
       -1.3495718e-19 2.2617068e-20 1.7401373e-19 5.3251086e-20
0003b0 ce ce 0c a0 7c a3 a0 1f dc a9 78 9d 04 dc 58 9f
       -1.1926887e-19 6.80331e-20 -3.2910342e-21 -4.5921772e-20
0003c0 11 c1 dd 02 34 2f 22 84 a8 35 e1 00 9d 74 e2 02
       3.2583846e-37 -1.9064683e-36 2.0682235e-38 3.3274648e-37
0003d0 0d c1 9e 84 45 fe bd 85 fd 84 80 83 fb 27 ab 84
       -3.732291e-36 -1.7866878e-35 -7.5536965e-37 -4.0238623e-36
0003e0 b8 fd 99 03 a7 39 cd 03 d1 a1 aa 08 72 d5 2c 02
       9.050783e-37 1.2062053e-36 1.0269546e-33 1.269782e-37
0003f0 25 47 82 81 5b df 1c 82 e0 d1 b7 11 d2 53 20 8b
       -4.7856545e-38 -1.152517e-37 2.9001655e-28 -3.0877939e-32

emb._affine_layer.1.bias f4 [100]
000000 2d d3 96 1e d1 b7 f4 38 f4 7a b0 b7 31 16 00 00
       1.5969208e-20 0.00011669065 -2.103809e-05 7.961e-42
000010 a6 02 00 80 86 15 00 00 36 78 31 ac 48 f9 00 00
       -9.5e-43 7.721e-42 -2.5219943e-12 8.9425e-41
000020 15 e0 89 21 71 0f 00 00 46 0c 00 80 d6 ae f3 24
       9.342795e-19 5.54e-42 -4.403e-42 1.05680635e-16
000030 26 1b a5 39 b2 ff 00 ba 44 26 00 80 70 0c 00 00
       0.0003149148 -0.0004920914 -1.3727e-41 4.462e-42
000040 ff 07 00 00 54 0e 00 00 d4 0a 00 00 71 0c 00 00
       2.868e-42 5.14e-42 3.884e-42 4.463e-42
000050 31 0b 00 80 df ba c4 36 94 0f 00 00 5f 0a 00 80
       -4.015e-42 5.86301e-06 5.588e-42 -3.72e-42
000060 49 0b 00 00 f0 08 00 00 18 07 00 80 64 07 00 80
       4.048e-42 3.206e-42 -2.545e-42 -2.651e-42
000070 e2 04 00 00 88 06 00 80 28 05 00 80 c7 01 00 00
       1.752e-42 -2.343e-42 -1.85e-42 6.38e-43
000080 07 0b 00 00 03 03 00 00 89 02 00 80 0e 0a 00 00
       3.956e-42 1.08e-42 -9.1e-43 3.607e-42
000090 e0 d5 62 39 dd 08 00 00 66 07 00 00 a8 22 00 00
       0.00021632714 3.18e-42 2.654e-42 1.2432e-41
0000a0 ae 02 00 00 9b 0e 00 00 b2 87 57 86 91 05 00 00
       9.61e-43 5.24e-42 -4.05367e-35 1.997e-42
0000b0 e4 0c 00 80 69 05 00 80 02 08 00 00 5a 02 00 00
       -4.624e-42 -1.941e-42 2.873e-42 8.44e-43
0000c0 77 0a 00 00 2e 07 00 00 b5 08 00 00 01 cd 02 9b
       3.754e-42 2.576e-42 3.123e-42 -1.0819588e-22
0000d0 70 0d 00 80 f7 0a 00 80 89 00 00 80 ce 03 00 00
       -4.82e-42 -3.933e-42 -1.92e-43 1.365e-42
0000e0 1d 03 00 80 fb 02 00 00 d4 02 00 80 5f 04 00 00
       -1.117e-42 1.069e-42 -1.015e-42 1.568e-42
0000f0 39 05 00 80 67 09 00 80 38 0f 00 00 7c 02 00 80
       -1.874e-42 -3.373e-42 5.46e-42 -8.91e-43
000100 f0 0f 00 80 ea 0e 00 80 5b 0c 00 80 b8 51 55 39
       -5.717e-42 -5.35e-42 -4.432e-42 0.00020343706
000110 e2 70 16 ac 3d 00 00 80 25 03 00 80 22 00 00 80
       -2.1378945e-12 -8.5e-44 -1.128e-42 -4.8e-44
000120 d7 07 00 80 02 02 00 80 80 0e 00 80 c7 07 00 80
       -2.812e-42 -7.2e-43 -5.202e-42 -2.79e-42
000130 bb 02 00 80 0b 06 00 00 ba 04 00 00 a5 36 8a a2
       -9.8e-43 2.168e-42 1.696e-42 -3.7462832e-18
000140 1c 05 00 00 98 07 00 00 8c 01 00 80 58 03 00 00
       1.833e-42 2.724e-42 -5.55e-43 1.2e-42
000150 11 17 00 00 29 00 00 80 4a 02 00 80 b3 0a 00 80
       8.275e-42 -5.7e-44 -8.21e-43 -3.838e-42
000160 03 06 00 80 93 06 00 00 6a 03 00 00 34 0b 00 00
       -2.157e-42 2.358e-42 1.225e-42 4.019e-42
000170 bc 0d 00 00 a1 0b 00 00 a9 07 00 80 4d 01 00 00
       4.927e-42 4.172e-42 -2.748e-42 4.67e-43
000180 56 08 00 00 02 02 00 80 c3 e8 32 b1 8e 52 15 9e
       2.99e-42 -7.2e-43 -2.6034719e-09 -7.905066e-21

clf.1.weight f4 [2, 100]
000000 9f e7 00 3b 57 8a 5b bb e1 f9 82 3b 64 97 b9 3b
       0.0019669307 -0.0033499205 0.003997073 0.005663799
000010 e2 ae 1e ba d6 48 11 3a e4 7a 86 bb 2d ee 84 3b
       -0.0006053281 0.00055421644 -0.004104005 0.004056713
000020 7a 1b f6 b9 22 ea 9c ba 4c 59 2a b9 81 a1 ae 3b
       -0.00046941248 -0.0011971632 -0.00016245729 0.0053293114
000030 41 70 1e 3b 10 d2 81 bb 86 fc 30 39 0c fc 11 bb
       0.0024175795 -0.003961809 0.0001687874 -0.0022275476
000040 ed 8c a6 ba 32 b7 19 ba 42 1e 7a 3a 71 d6 0a ba
       -0.0012706794 -0.0005863785 0.0009541252 -0.00052962365
000050 7e ff bd ba 63 8f 97 ba ae 61 ca 39 a4 bb 95 ba
       -0.0014495698 -0.0011563118 0.0003860122 -0.0011423719
000060 f9 92 ee ba 4f 14 69 3a 0c 9e f0 3a 66 1f c9 3a
       -0.001820176 0.0008891271 0.0018357649 0.001534444
000070 88 02 8e 3b ce cf 26 3b 2c 1e 49 ba 85 35 b0 b9
       0.004333798 0.002545345 -0.00076720375 -0.0003360921
000080 38 06 e8 3a 6a 92 03 bb 47 ed ce 3a 94 64 aa b9
       0.0017702049 -0.0020076283 0.0015787267 -0.00032499863
000090 f4 59 98 3a 4d 9a 07 3b 21 5f 5d 3b 9b 73 e7 3a
       0.0011623488 0.0020691336 0.0033778625 0.0017658354
0000a0 0f e9 5d 3b 71 d2 e9 ba 15 2b 98 bb fb f7 70 ba
       0.0033860838 -0.0017839206 -0.0046438077 -0.00091922254
0000b0 f5 eb 12 3b 74 df 98 ba ed 5e b1 3a 37 c2 a0 b9
       0.0022418473 -0.0011663274 0.0013532318 -0.0003066228
0000c0 e4 b4 72 3b 38 f5 53 3b a9 26 4f 3a 28 f2 ff ba
       0.0037034089 0.0032342207 0.0007902184 -0.0019527124
0000d0 b4 98 9f ba de 48 34 bb 0c d8 19 3a a0 d1 28 3a
       -0.0012176246 -0.0027509253 0.00058686803 0.0006439928
0000e0 d0 bf a0 ba 02 bf 77 b9 28 aa f9 3b 03 39 3d 3b
       -0.0012264196 -0.00023626912 0.007619161 0.0028873093
0000f0 df 55 53 3b 32 88 07 3c b0 73 21 3b 09 50 b1 3a
       0.0032247228 0.008272218 0.0024635606 0.0013527881
000100 92 42 86 3b 7d 34 50 3a 6f 9b 0a 3b f4 22 50 bb
       0.0040972913 0.00079423917 0.0021149775 -0.0031759115
000110 d1 ae 7f 3b 48 0a 0b ba 0a 60 36 39 a6 41 20 b9
       0.003901411 -0.0005303961 0.0001739265 -0.00015283245
000120 db 50 0d 3c 8b f3 3b bb 2d 2f c7 3b 0d 5a c0 39
       0.0086252345 -0.0028679098 0.006078622 0.00036688187
000130 af 4c 35 ba 29 33 cc 3b c9 de b2 3a a6 72 08 bb
       -0.0006916029 0.0062316847 0.0013646717 -0.002082029
000140 af 40 db ba a6 64 c8 3a 5f fc 3b 3b f2 26 07 3a
       -0.0016727651 0.0015288785 0.002868436 0.00051556446
000150 2a d0 0c 3b 4b 0f 0b 3b f9 15 d9 3a f5 74 14 bb
       0.002148638 0.0021218832 0.0016562334 -0.002265272
000160 c2 51 b2 3a bd c3 62 39 bf 1d 8a 3a fd 9f 07 3b
       0.0013604688 0.00021625958 0.001053743 0.0020694726
000170 6e dd 0a bb ad 92 e9 3a 73 3e 6d 3b 8f 15 e1 ba
       -0.0021189111 0.0017820202 0.0036200553 -0.0017172563
000180 9f 4c 6e 3b e3 7b 5a bb 9e 83 30 bb b4 3c 12 3b
       0.0036361588 -0.0033338002 -0.0026933919 0.0022314014
000190 15 27 03 3b 76 de 58 bb a6 77 9a 3b 3f 22 8a 39
       0.0020012308 -0.0033091581 0.0047139702 0.00026346926
0001a0 ab e8 95 39 6d f5 47 3b b9 13 87 bb c7 fc 96 3b
       0.00028592846 0.0030511275 -0.004122224 0.00460777
0001b0 5f 45 94 ba ec fe b1 ba 28 6f be bb 25 5d bd ba
       -0.0011312178 -0.0013580001 -0.0058115907 -0.0014447315
0001c0 6a 06 20 3b 53 a7 fc 3a 1b bb 04 ba d1 9d 0a bb
       0.0024417886 0.0019275941 -0.0005063281 -0.0021151195
0001d0 93 61 de ba 03 27 d2 3a 00 bb 14 bb 42 00 38 b9
       -0.0016966335 0.0016033355 -0.0022694468 -0.00017547703
0001e0 b6 25 c2 ba f6 19 96 ba 2e d6 72 bb ac a8 95 ba
       -0.0014812264 -0.0011451829 -0.003705393 -0.0011418066
0001f0 24 de 87 bb 87 41 61 3a 2b 85 55 3a fb d1 a7 39
       -0.0041463543 0.0008592833 0.0008145149 0.0003200917
000200 e1 67 96 3b a1 6a 95 3a 72 33 00 3b e4 40 75 b9
       0.00459002 0.0011399576 0.0019561914 -0.00023389194
000210 1e f2 fb ba 2c b4 9c 3a 4e ac a5 3a 91 e2 af b9
       -0.0019221937 0.0011955551 0.0012639852 -0.00033547406
000220 72 20 47 bb 8b 7d 07 3b 85 29 c6 3a 83 93 ba 3a
       -0.003038433 0.0020674195 0.0015118575 0.0014234636
000230 ac 8d 6b 3b 02 bd 74 bb 2a 93 01 bc f8 4e ed ba
       0.0035942597 -0.0037344103 -0.007908622 -0.00181052
000240 68 ec 9d 3a 6f dc ae bb 04 d0 ac 3a 25 2d ad b9
       0.0012048604 -0.0053363363 0.0013184552 -0.00033030767
000250 3c 07 25 3b e8 4e 37 3b f2 ea 64 bb 72 33 d7 ba
       0.0025181314 0.0027970616 -0.0034930077 -0.001641853
000260 47 73 f5 3a a6 a4 ae bb 64 eb 31 bc 54 35 03 3a
       0.0018726372 -0.005329686 -0.010859344 0.00050052
000270 66 97 a9 ba d1 b8 cf 38 cc 91 0a bc 81 a9 df ba
       -0.0012938797 9.904954e-05 -0.008457612 -0.0017064066
000280 39 3b 53 3b a3 08 db 3a c1 8c 12 3b 9c 47 57 3a
       0.0032231344 0.0016710948 0.0022361728 0.000821227
000290 44 90 3c ba 24 45 b4 b9 8d c6 19 3b f9 e3 17 3b
       -0.0007193128 -0.0003438379 0.0023464293 0.0023176654
0002a0 bd ee 69 bb 6a a8 cf 39 42 9f e4 39 a0 ea f4 39
       -0.0035695278 0.00039607595 0.00043606205 0.00046714116
0002b0 ce f1 e5 3b 78 b5 27 bb 1a 57 1a 3a f0 a2 c0 39
       0.0070173508 -0.0025590342 0.0005887613 0.00036742492
0002c0 00 d2 87 b9 32 82 1e 3b cc 44 c1 3a 22 ab 6e bb
       -0.0002590567 0.002418649 0.0014745235 -0.003641792
0002d0 ac e2 bb bb e6 45 8e 3a 85 0d fd 39 11 7b 03 3a
       -0.0057338085 0.0010854572 0.00048265993 0.0005015592
0002e0 8c 54 9c 39 15 13 0b 3b 9b f9 2e 3b 44 47 64 bb
       0.0002981763 0.002122109 0.002669907 -0.0034832517
0002f0 81 64 80 bb f1 0f b2 3b 45 08 84 3a a3 79 80 3a
       -0.003918231 0.0054340293 0.0010073265 0.0009801876
000300 b2 f1 21 bb 23 92 03 3a 89 e5 37 3b 7c c5 82 bb
       -0.0024710712 0.00050190295 0.0028060398 -0.003990827
000310 39 77 18 bb 84 34 2a 3b 83 1f f0 b7 4f 16 4e 3a
       -0.0023264422 0.0025971243 -2.8624903e-05 0.00078616006

clf.1.bias f4 [2]
000000 9e ce 6d 3e 99 a7 62 be
       0.2322335 -0.22134246

exp_avg f4 [2, 1, 2, 1]
000000 ad 32 0e 33 62 37 0f b9 55 2b c2 b7 d6 7c 8d b7
       3.310804e-08 -0.00013658174 -2.314678e-05 -1.6866641e-05

exp_avg_sq f4 [2, 1, 2, 1]
000000 2f b6 df 37 42 43 99 39 bb b3 ff 38 a2 ec c0 38
       2.6668507e-05 0.00029232545 0.00012192825 9.19935e-05

exp_avg f4 [2]
000000 9b 49 39 b7 67 e8 27 36
       -1.1043997e-05 2.5020215e-06

exp_avg_sq f4 [2]
000000 c8 c3 aa 38 31 45 09 39
       8.142699e-05 0.00013091114

exp_avg f4 [16, 1, 1, 100]
000000 69 4b 1a 26 f7 2f 9a 2a 8f 21 ff 1d 83 30 68 1a
       5.3531683e-16 2.7389178e-13 6.7532637e-21 4.8015663e-23
000010 a3 02 48 23 e6 fd e6 97 4a 71 4d 9b 05 7b 31 18
       1.084258e-17 -1.4927495e-24 -1.6993808e-22 2.2938823e-24
000020 9b fe 19 88 c4 76 11 1f 32 a9 e7 1a e2 e4 8b 16
       -4.634105e-34 3.0803185e-20 9.581271e-23 2.2601107e-25
000030 6f 83 88 13 10 9e e7 23 fa 35 67 1b f5 c3 3c 1b
       3.446083e-27 2.5112012e-17 1.9125313e-22 1.5614313e-22
000040 7d b9 77 8a 94 7c 6a 11 dd f2 97 23 2d 31 0c 92
       -1.1927504e-32 1.8497734e-28 1.647431e-17 -4.4236825e-28
000050 34 9e 0f 15 b7 68 51 17 83 bc 95 93 d8 4c 54 94
       2.900342e-26 6.766371e-25 -3.7798775e-27 -1.07184195e-26
000060 5e 56 6d 8b 12 d6 5f 9b 50 95 0c 0b 9b 86 1e 18
       -4.5709515e-32 -1.8515298e-22 2.707535e-32 2.048898e-24
000070 e5 58 38 93 97 4a 46 18 27 bf ce 9c 9f eb ce 93
       -2.3267893e-27 2.5628558e-24 -1.3681348e-21 -5.223405e-27
000080 cc f9 99 96 0e 00 09 90 a0 db 27 9b 90 b1 96 11
       -2.4876127e-25 -2.7018528e-29 -1.3884881e-22 2.3775258e-28
000090 ea 55 26 0e 1e a8 99 a1 b6 5e 82 0e 60 b8 66 85
       2.0502446e-30 -1.0412184e-18 3.2138678e-30 -1.08484124e-35
0000a0 28 5d 17 17 94 33 a2 15 c6 ae 4f 89 0b 72 41 90
       4.890831e-25 6.5512655e-26 -2.4998897e-33 -3.8150394e-29
0000b0 79 78 c4 8e e3 8b 25 98 9f 9f ca 10 8d 64 98 91
       -4.843374e-30 -2.1396375e-24 7.9920887e-29 -2.404334e-28
0000c0 72 8b 61 92 2d 0d 82 9e aa 54 81 1a 16 43 80 0d
       -7.116936e-28 -1.3769735e-20 5.348993e-23 7.904759e-31
0000d0 9c 40 3f 1e 53 a3 65 a2 74 43 57 94 b0 03 30 90
       1.0124817e-20 -3.112175e-18 -1.0868029e-26 -3.471272e-29
0000e0 66 3e 6d 12 58 fb b1 1a 62 0f 89 94 8e f1 15 8f
       7.4860926e-28 7.361155e-23 -1.3839532e-26 -7.392789e-30
0000f0 f2 04 3a 0c a8 57 cb a3 e0 bb 85 9b b8 03 1f 87
       1.4330407e-31 -2.2046428e-17 -2.2124416e-22 -1.1962923e-34
000100 73 e1 e9 0b 2e ce 9e 92 ab e3 6a 9e 57 5c c7 9b
       9.0087554e-32 -1.0022029e-27 -1.24349375e-20 -3.2981462e-22
000110 be d4 f0 93 69 d1 96 17 34 0e 56 09 cb ae b8 22
       -6.0794298e-27 9.746385e-25 2.5765991e-33 5.005837e-18
000120 78 00 b7 a0 0c 82 8d 13 54 45 d0 11 22 6c 09 a3
       -3.1001716e-19 3.572164e-27 3.285934e-28 -7.449683e-18
000130 2e 7a 39 22 f7 41 50 0f 2e ab 9a 10 f9 28 23 17
       2.5136857e-18 1.0267896e-29 6.1006034e-29 5.2719855e-25
000140 86 0f ce 92 04 32 c6 15 a3 fa 04 1b bf 26 42 0d
       -1.3004255e-27 8.0050474e-26 1.0999769e-22 5.9827504e-31
000150 10 86 d4 8e f4 40 8a 99 9c fc 98 06 63 3b 0c a1
       -5.2391132e-30 -1.42951e-23 5.754722e-35 -4.7512443e-19
000160 c2 d8 f0 a0 37 c4 8a 9e 1a a8 2b 18 8b d8 9f 8e
       -4.080102e-19 -1.4692471e-20 2.2186102e-24 -3.940505e-30
000170 3a 23 41 0e ab 72 53 10 3c 07 64 88 28 05 68 8e
       2.3806048e-30 4.170075e-29 -6.861976e-34 -2.859869e-30
000180 1f cd 90 8e 5a 96 a8 9c e9 c3 a8 15 1a ef 8a 18
       -3.5696265e-30 -1.1156172e-21 6.816375e-26 3.5913595e-24
000190 56 a1 01 8c 5c 23 a1 13 50 0f 80 96 78 d5 9e 25
       -9.986349e-32 4.067698e-27 -2.068918e-25 2.7553283e-16
0001a0 90 7a 40 14 41 cf 8e 97 98 f1 f9 1b 24 ca ea 1a
       9.717694e-27 -9.228853e-25 4.134972e-22 9.710671e-23
0001b0 cb 99 0a 1c cf 7a 68 96 66 cd 85 8d ce 2e 8e 1f
       4.5859143e-22 -1.8779562e-25 -8.246206e-31 6.021677e-20
0001c0 34 f7 d9 0c 4b c2 c3 0e ed df 64 21 cb 71 78 13
       3.3582924e-31 4.825831e-30 7.754577e-19 3.1358105e-27
0001d0 6c 4a ef 13 8e dd 28 12 ba 89 ed 1a 31 68 89 14
       6.0405468e-27 5.328454e-28 9.824341e-23 1.3874561e-26
0001e0 94 c5 93 8f aa 69 36 98 95 c4 d7 90 9a ed 22 8e
       -1.4571423e-29 -2.3576295e-24 -8.510543e-29 -2.0082443e-30
0001f0 d9 9b f6 89 48 34 17 13 82 f1 4e 14 ea e1 7b 97
       -5.9368904e-33 1.9084656e-27 1.0447971e-26 -8.138762e-25
000200 b5 9f fc 90 ca 3b 00 98 a1 d1 d7 20 87 ee 02 0f
       -9.964254e-29 -1.6573798e-24 3.6561138e-19 6.4554336e-30
000210 a2 d7 fc a5 22 ae 72 97 33 6e a5 97 75 64 49 13
       -4.386115e-16 -7.8414204e-25 -1.0690693e-24 2.5419296e-27
000220 d8 90 18 14 e1 b0 d7 1f e9 43 53 8c f8 21 7a 96
       7.702604e-27 9.1348663e-20 -1.6275285e-31 -2.0205558e-25
000230 54 d7 d3 96 43 cb 2c a2 75 a7 b7 27 4f 61 7c 91
       -3.422478e-25 -2.3417953e-18 5.097426e-15 -1.990928e-28
000240 0d ec 0b 1a 6a 3c 6f 97 18 8d 69 91 cd bd cd 13
       2.8935207e-23 -7.730132e-25 -1.8423937e-28 5.1936433e-27
000250 87 56 1d 15 96 1a d3 13 75 eb 13 1b c1 ff 0e 1d
       3.1774156e-26 5.3290104e-27 1.2235635e-22 1.8925765e-21
000260 d2 f3 97 94 26 34 f6 95 82 b7 3c 1f 82 38 50 21
       -1.5343274e-26 -9.9440884e-26 3.9962343e-20 7.054793e-19
000270 99 65 10 0f 03 f6 a5 95 d5 39 41 19 8d 51 2d 27
       7.119315e-30 -6.703111e-26 9.989545e-24 2.4052782e-15
000280 99 98 4e 98 86 52 50 24 92 6b be 1a 7d 0c b2 17
       -2.6701918e-24 4.517271e-17 7.875595e-23 1.1506133e-24
000290 f9 c2 86 a4 cb ac 5e 23 2c 3f 91 21 06 53 b4 90
       -5.844353e-17 1.20712344e-17 9.842304e-19 -7.11254e-29
0002a0 57 18 80 15 c7 0a 5d 11 47 09 4a 20 4a 33 e1 97
       5.173719e-26 1.7437147e-28 1.7113135e-19 -1.4553231e-24
0002b0 5c e7 91 12 fb 82 27 13 83 af 79 91 bb 96 22 a0
       9.207821e-28 2.1142942e-27 -1.969672e-28 -1.3771806e-19
0002c0 91 e8 7b 91 eb fc 81 8e e7 27 ed 1e b4 38 6c 1c
       -1.9872074e-28 -3.2044506e-30 2.5109854e-20 7.8159137e-22
0002d0 1f c7 de 1c ea ac 29 25 cf 78 87 0b a4 1c 2e 1b
       1.4742199e-21 1.4716999e-16 5.218188e-32 1.4402197e-22
0002e0 e0 d4 13 91 9e f3 b8 a4 f5 00 b5 09 86 93 29 0e
       -1.1661852e-28 -8.0209983e-17 4.3575065e-33 2.0901888e-30
0002f0 a8 8b b5 24 86 e2 58 20 b2 01 a0 91 3b 72 de 0b
       7.8732824e-17 1.8370862e-19 -2.5244594e-28 8.5683164e-32
000300 e2 5f 06 0b ae 67 cf 1c d6 1e da 26 dc d2 bf 1e
       2.5879595e-32 1.3724912e-21 1.5135147e-15 2.0310121e-20
000310 ae 3f c8 94 17 f1 00 1d 50 26 e3 1e 59 1f 83 91
       -2.0219956e-26 1.70653e-21 2.4050406e-20 -2.0687475e-28
000320 d4 58 88 09 1f d5 4e 1a 3e 17 ab 0e 54 13 f9 95
       3.2824343e-33 4.277196e-23 4.2177136e-30 -1.00600793e-25
000330 1e 6e 3d 90 b2 ce 5a 8d cd b0 56 96 37 6a 87 21
       -3.735851e-29 -6.7425237e-31 -1.7342571e-25 9.176071e-19
000340 53 a0 f4 13 87 5d 0d 91 24 da 14 0f 69 7d 78 92
       6.175235e-27 -1.1151759e-28 7.338976e-30 -7.840958e-28
000350 e7 c5 8b 8b 2a b1 47 8d 0c 0c ae 25 fd 4d 0b 98
       -5.383862e-32 -6.1534863e-31 3.0192352e-16 -1.8004703e-24
000360 14 ce e6 90 f0 3d ec 12 78 f3 31 0b bd b8 e1 0b
       -9.103652e-29 1.4908963e-27 3.4272126e-32 8.694481e-32
000370 b3 aa 7c 98 01 07 a3 8a 93 91 46 91 0b 3c 9c 13
       -3.2656418e-24 -1.5698964e-32 -1.5664304e-28 3.9439143e-27
000380 7d 72 9b 14 dd 91 15 0c 9f 9f cd 13 5f 7d 11 15
       1.5696158e-26 1.1522437e-31 5.1906674e-27 2.9381417e-26
000390 38 b3 1b 15 27 70 3d 92 c7 79 b5 20 20 bf 60 26
       3.144338e-26 -5.9776123e-28 3.0743178e-19 7.7974634e-16
0003a0 5f 8a 60 23 ba f7 fc 0e 64 68 0f 1f 19 55 2e 21
       1.21723656e-17 6.236135e-30 3.0367778e-20 5.906612e-19
0003b0 ec e3 16 1d 13 a8 10 10 32 81 34 92 4d 98 03 8e
       1.9970168e-21 2.8528472e-29 -5.695723e-28 -1.6220327e-30
0003c0 0a b3 94 14 35 a7 f0 0e b5 70 9d 23 77 89 14 26
       1.50148e-26 5.9325582e-30 1.7069707e-17 5.1534114e-16
0003d0 9e 9b b0 97 18 06 e9 14 d7 1f ae 23 d8 59 d4 96
       -1.1413017e-24 2.3529391e-26 1.8878602e-17 -3.4307147e-25
0003e0 15 84 e2 11 61 73 0b 15 53 39 51 92 2f b8 54 1b
       3.5737915e-28 2.8161844e-26 -6.601943e-28 1.7595742e-22
0003f0 16 09 a0 0f 00 9b a8 94 62 7c e5 8c 53 cf e9 8a
       1.5780718e-29 -1.7024802e-26 -3.5357897e-31 -2.251507e-32
