src/params.pth (torch, 412117 bytes, 43 tensors)

emb.spatial_conv.weight f4 [2, 1, 2, 1]
000000 01 f8 26 bf 11 cb 15 3f 7f 7b 0f 3f 75 77 18 3f
       -0.65222174 0.5851298 0.56047815 0.59557277

emb.spatial_conv.bias f4 [2]
000000 d1 67 08 be 4e c8 8d be
       -0.13320853 -0.27691883

emb.feature_extractor.0.weight f4 [16, 1, 1, 50]
000000 4a ad 0d be 43 0e e8 3d 57 50 5d 3d 3c b6 a1 3c
       -0.13835636 0.11330845 0.054031696 0.019740216
000010 23 69 1d bd b8 71 80 3d ff 20 9c 3c 44 8f a5 3d
       -0.038430344 0.0627169 0.019058703 0.080839664
000020 4c ff 68 bb 34 f6 34 3c 19 dc d0 3d 34 72 a6 3c
       -0.003555256 0.0110450275 0.1019823 0.020318128
000030 bf 8a 4e bc 77 c8 ee 3d 42 f0 92 bd 30 08 32 be
       -0.012606322 0.116593294 -0.07174732 -0.17385936
000040 e3 52 1b be 9a ff 04 be 1f 1f c4 bb 9c 53 86 bc
       -0.15168338 -0.1298813 -0.0059851552 -0.01639729
000050 bd af 22 bd c0 dd c2 3d dc 5a 34 3d 6c e2 70 3d
       -0.03971838 0.09514952 0.044031963 0.058809683
000060 6d 45 cf 39 73 ec 80 bd e4 37 13 bc a4 a7 6e bd
       0.00039533843 -0.06295099 -0.008985493 -0.058265343
000070 5d 25 55 bd d7 6b 7f 3d da ee 19 3e b1 cf 8e bd
       -0.052037586 0.062358703 0.15032521 -0.06973208
000080 31 15 da 3d 82 0c ec 3d 0d 22 0c be b4 b7 3b bc
       0.10648573 0.11525823 -0.13684864 -0.011457372
000090 a8 08 7b bd b5 99 e8 bd a9 cc 3b 3e 83 5d 8d 3d
       -0.061287552 -0.11357442 0.1833979 0.069026016
0000a0 21 07 22 3d cd 3f 5c 3d ff 0f b8 3d 00 48 88 bd
       0.03955758 0.053771783 0.08987426 -0.06654358
0000b0 79 a9 95 3d 02 3d 25 3c 76 d4 24 be 04 dc 3e be
       0.07307715 0.010085346 -0.16096672 -0.18638617
0000c0 c2 ab f3 bd 45 f4 b7 bc c7 98 14 be d6 6e 10 3c
       -0.118979946 -0.022455344 -0.14511405 0.008815488
0000d0 3b 47 8c 3c a6 3f cc 3c 82 72 8e bc 01 f1 8f bb
       0.01712381 0.024932694 -0.017388586 -0.0043927436
0000e0 5c 50 63 bd 50 02 6a 3a 98 1c 1d bd 30 31 91 3d
       -0.05549656 0.0008926736 -0.038357347 0.0708946
0000f0 ce 65 8a bd 43 00 e8 3d 4c f5 92 3c 6a 34 d2 bb
       -0.06757699 0.11328175 0.017939232 -0.0064149396
000100 94 4d fc 3c c8 42 d2 3d f0 ef 03 3d 52 a1 8d 3d
       0.03079871 0.10266644 0.032211244 0.06915535
000110 72 19 d4 bb 63 49 64 bd 91 e5 ab 3d 68 6e 0f bb
       -0.00647276 -0.05573405 0.08393396 -0.0021885876
000120 66 1a 49 bd c2 93 be bd fc 0e 11 3d 4d 2d e0 bd
       -0.04909744 -0.09305526 0.03541468 -0.109461404
000130 3c ce 22 3d 2e 89 07 bd 49 1f 3f 3d e2 66 e5 bd
       0.03974746 -0.03308981 0.046660695 -0.11201264
000140 37 6f 9b bc f4 48 0a be ec 4f b7 3d a3 d4 75 bd
       -0.01897393 -0.13504392 0.08950791 -0.06001724
000150 83 d2 30 be 97 87 bd bd 78 89 11 bd 80 3c b8 bc
       -0.17267804 -0.09254377 -0.03553149 -0.022489786
000160 56 c4 12 3e d4 be 02 3d ea 3a 95 bd 65 c3 63 bd
       0.14332709 0.03192027 -0.072866276 -0.055606265
000170 dc 36 3c 3c 26 5d a3 3d 8b 40 d7 3d 9a bd 5c bc
       0.011487689 0.07976751 0.105103575 -0.013472939
000180 de f6 48 bd e1 52 8b bc e0 c6 6e bb d7 64 4b 3c
       -0.049063556 -0.017007293 -0.0036434457 0.012414179
000190 8d 90 f0 bd 48 87 ae 3b 94 eb 02 3e 73 6e 9b bd
       -0.11746321 0.0053261854 0.12785178 -0.07589426
0001a0 5a e8 2e be a7 f4 61 3d 9b 08 c8 3d d2 62 95 3c
       -0.17080823 0.05516496 0.09767266 0.018235598
0001b0 38 72 14 be ad 21 80 bd 54 4c ab bd c9 3e 35 bc
       -0.14496696 -0.06256423 -0.08364168 -0.011062332
0001c0 20 97 af 3c 06 9c f1 3c 28 8f 13 3e 4f cd 1e bd
       0.021434367 0.029493343 0.14410079 -0.038770016
0001d0 7c f1 ba bd d6 38 84 bc 5d 1c 7b 3d 41 19 27 bd
       -0.09128091 -0.016140383 0.061306346 -0.04079557
0001e0 0a 21 89 bd a6 7a 13 3e 7f 18 b0 3d 12 7c 8c 3c
       -0.06695755 0.14402255 0.08598422 0.017149005
0001f0 51 bf 90 bd de a8 0d 3d 87 ae e9 3d f9 b2 07 be
       -0.07067741 0.034584872 0.114102416 -0.13251866
000200 27 e5 73 3d fc fb 8e bd b8 25 04 bd 1d 76 81 ba
       0.05954471 -0.06981656 -0.032262534 -0.000987712
000210 98 d9 95 bc 1f 7f aa bd 98 e2 48 3d fc 2c ed 3d
       -0.018292233 -0.08325028 0.04904422 0.11580846
000220 31 2f f3 bc fc ad b7 bd 43 6e 4a 38 df 44 dc 3d
       -0.029685589 -0.08968732 4.8263242e-05 0.107553236
000230 3b 70 a7 3d a3 78 a2 bd 77 43 94 3d 9d b4 f1 bc
       0.08175703 -0.07933166 0.072394304 -0.029505068
000240 d8 00 5b 3d 40 c5 f2 bc 13 1d 82 3c ed 91 91 3d
       0.0534676 -0.029635072 0.015883004 0.07107911
000250 38 9d 5f be d1 77 00 3d a9 e8 40 be 56 4b 06 be
       -0.21837318 0.031364266 -0.18838753 -0.13114676
000260 07 19 7f be 9b 07 2c be d6 ab d9 bc 3f 4f 41 be
       -0.24911891 -0.16799776 -0.026571196 -0.18877886
000270 14 7c 0b 3d b1 32 8c 3d c2 df 47 3e 89 db 3f bd
       0.034053877 0.06845606 0.1951895 -0.046840224
000280 b1 0e 57 3e 14 fd 09 3e 68 91 19 bc bf 83 1f bd
       0.21001698 0.13475448 -0.009373046 -0.038944002
000290 64 48 d5 3c e2 f1 f0 3d 7d 58 3a 3e 9a 54 9a 3d
       0.026035495 0.117648855 0.18197818 0.07535668
0002a0 1a 70 f9 ba ad 6e ae bc 89 41 1c be c5 55 d4 bc
       -0.0019030601 -0.021293009 -0.15259375 -0.025919804
0002b0 8c 20 6c 3e 5f 9b cf 3d 58 d6 df 3d 9e 52 ad 3d
       0.2305929 0.101370566 0.10929555 0.084630236
0002c0 04 9c be bd 24 0a 8e bd 79 a5 90 be e6 ce 6f be
       -0.09307101 -0.06935528 -0.28251246 -0.23418769
0002d0 2c 1e 07 bb a1 9b 45 3e 0c 01 41 3e 9c 44 a6 bd
       -0.002061735 0.19297649 0.18848056 -0.08118555
0002e0 4f 97 29 be 92 f7 a0 be 68 28 d5 bd c7 01 07 be
       -0.16561626 -0.3143888 -0.104080975 -0.13184272
0002f0 55 7e 0f 3e b3 9b 08 3e 37 19 38 3c a1 5c 24 ba
       0.14013036 0.13340645 0.01123648 -0.00062699063
000300 b0 ea a1 be 76 3b c3 bd 99 81 6f be af 47 72 3d
       -0.31624365 -0.09532826 -0.23389281 0.059150394
000310 e9 f5 a2 3e 36 d8 dd 3d a6 a1 9c 3d 0c dc c6 be
       0.3182824 0.108322546 0.076480195 -0.38839757
000320 ad 45 8a 3d 5a ee 80 ba 7c bb 36 be 56 c8 67 bd
       0.06751571 -0.0009836659 -0.17844957 -0.05658754
000330 53 f0 7e bd 20 61 79 bd ef f7 00 3d 0c 05 7e 3d
       -0.06224091 -0.06088364 0.031486448 0.06201653
000340 dc 3c 16 3e 64 90 d4 3b f1 b9 e1 3c 79 aa e7 bd
       0.14671654 0.0064869393 0.027554484 -0.11311812
000350 4a d2 df bd 4b b7 df bc c6 f8 fb bd 48 f5 e5 bd
       -0.10928781 -0.02730908 -0.12303309 -0.11228424
000360 51 11 a0 3c 0d 1e 6b ba a2 8d d4 3c 1c 32 55 3e
       0.019539507 -0.00089690165 0.025946442 0.20819896
000370 cd 7d 3c 3e 8c 05 e3 3d 28 8b a2 bd 75 18 b0 bd
       0.18407364 0.11085042 -0.07936698 -0.08598415
000380 79 20 c2 bc bd e9 b9 bd 40 91 03 bd 6c ac a6 3d
       -0.023697125 -0.09077785 -0.032120943 0.081383556
000390 a0 0e 80 3d 3d 6d 75 3d 0e 16 88 bd 06 d8 6c 3d
       0.062527895 0.05991863 -0.066448316 0.057823204
0003a0 ca c9 e1 bb f6 4f 16 be 0c 05 c4 bd 7b 59 af bd
       -0.00689051 -0.1467894 -0.09571275 -0.08561989
0003b0 16 62 a5 bc 07 a7 b6 3c e5 4a 61 3d 18 7f 00 3e
       -0.020188373 0.022296442 0.055003066 0.12548482
0003c0 0b b0 31 3e 03 46 83 3d ec 3e 93 3d c7 a1 26 3d
       0.17352311 0.06409838 0.07189736 0.040681627
0003d0 e0 87 c6 b9 e0 a5 7f bd f8 66 55 bd b2 f3 aa bd
       -0.00037866738 -0.06241405 -0.05210015 -0.083472624
0003e0 7b e7 d9 bb 82 03 12 be 69 a9 8f 3c bc 5c 26 3d
       -0.006649909 -0.1425915 0.017536836 0.040615782
0003f0 4e 04 73 3d 44 30 d8 3c b1 f2 07 3d cd 78 e0 3d
       0.059330277 0.026390202 0.033190433 0.10960541

emb.feature_extractor.0.bias f4 [16]
000000 97 e8 a2 37 90 bc f3 38 c6 68 08 b8 06 e5 29 b7
       1.9420213e-05 0.000116222654 -3.2522505e-05 -1.0126509e-05
000010 be be 72 b7 dd ee 23 b9 f8 c5 77 38 c1 3e f3 38
       -1.4468735e-05 -0.00015633875 5.907376e-05 0.00011598832
000020 10 67 68 37 54 fb e0 b7 81 91 1d b9 12 28 98 38
       1.3852274e-05 -2.6819915e-05 -0.00015026891 7.2553885e-05
000030 19 07 a5 37 e1 ef 97 b8 1c fd 8a b8 4f 20 ea 37
       1.9672838e-05 -7.244922e-05 -6.627498e-05 2.7910019e-05

emb.feature_extractor.1.weight f4 [16]
000000 ce c9 ce 3e a2 a8 7f 3e 31 43 da 3e 76 f9 7b 3f
       0.4038834 0.24966672 0.42629388 0.9842752
000010 75 f2 c9 3e fc 2c e7 3e 53 2d 0b 3f f4 3b d6 3e
       0.39442793 0.45151508 0.54366034 0.41842616
000020 ee 6f e5 3e 88 10 62 3f ff 31 78 3f 6d 83 e2 3e
       0.44811958 0.88306475 0.9695129 0.44240895
000030 fd 8f fa 3e 3d ed ca 3e 74 a9 ba 3e 39 ee cf 3e
       0.4893798 0.39634123 0.36457407 0.40611437

emb.feature_extractor.1.bias f4 [16]
000000 a6 65 ba be 9e 8b 63 3e 5d 27 01 bf c7 58 e9 be
       -0.36405677 0.22221228 -0.5045069 -0.45575544
000010 fc f7 94 be 7a 74 bb be 11 c0 a5 be b5 07 d9 be
       -0.29095447 -0.36612302 -0.32373098 -0.42388692
000020 30 5d fa be ee e1 9c 3e 83 8b b2 be 10 08 f0 be
       -0.4889922 0.3064112 -0.34872064 -0.4688115
000030 1e b9 20 3e 5d 64 b3 be 1e d3 ac be e7 59 d8 be
       0.15695617 -0.3503751 -0.3375482 -0.4225609

emb.feature_extractor.1.running_mean f4 [16]
000000 57 55 05 3d df 83 98 3d ed 87 1c 3d a8 0c 4e 3e
       0.03255209 0.074470274 0.038215566 0.20122015
000010 9d ef 33 3d 9e 6e 93 bd ab 09 f6 3c 9e 51 f8 bc
       0.043929685 -0.07198833 0.030033907 -0.030312356
000020 53 0d 8d bd ce 2b 86 be b2 0b 5f 3e 0f 35 a9 bd
       -0.06887307 -0.26205295 0.21781805 -0.08262073
000030 e1 e2 bc be 0f 8a 06 be 4d 1b d2 bd eb 7b bb bd
       -0.36891845 -0.13138603 -0.102591135 -0.09154495

emb.feature_extractor.1.running_var f4 [16]
000000 a9 3a 81 3e 91 d5 25 3e b1 05 24 3e ae cf 63 3f
       0.25240067 0.1619475 0.16017796 0.8898877
000010 85 76 8a 3e d3 89 6d 3e 24 05 b0 3e bf 74 4d 3e
       0.27043548 0.23197107 0.34378922 0.20064066
000020 17 01 47 3e 6e df 27 3f 62 ba df 3f 65 48 3f 3e
       0.1943401 0.655753 1.7478755 0.1867996
000030 e1 0f 5f 3f 9c 10 57 3e a7 2a 30 3e d1 4f 56 3e
       0.87133604 0.2100243 0.1720377 0.20928885

emb.feature_extractor.4.weight f4 [16, 16, 1, 50]
000000 bb 2e ab 3d 87 32 15 3d 99 0c 0b 3d 19 9a 9d 3c
       0.083585225 0.03642514 0.03394756 0.019238519
000010 c1 b3 e2 ba cb 1f da 3c 0f 61 02 bd 55 76 97 3d
       -0.0017296002 0.026626488 -0.031830844 0.07395617
000020 54 a6 e2 3c fa 6a 7a 3d ff f9 5f 3d 22 54 2b 3d
       0.027667202 0.061137177 0.054681774 0.041828282
000030 a0 8f db bc d9 94 cc bb 66 d6 3e 3c a0 ca a9 bc
       -0.026801884 -0.00624333 0.011647796 -0.020726502
000040 8f f3 65 3d d6 a7 05 bc bd 00 88 3d fd 51 4b 3d
       0.05614048 -0.008157691 0.06640766 0.049638737
000050 9f 3a 9f 3c c0 33 a3 3c 63 66 39 3c dd cb 42 bb
       0.019437132 0.019922137 0.011315915 -0.0029723563
000060 7c 21 93 3d ee d5 ca 3b 99 9c 59 3c 1d 7c f3 3c
       0.07184121 0.006190053 0.013281965 0.029722268
000070 73 ad 4b 3c 7c 50 88 3c a9 02 16 3c 0d b8 78 bc
       0.01243149 0.01663994 0.009155908 -0.0151806
000080 83 44 56 3d 73 eb e0 3c 64 a6 77 3d d1 98 12 3d
       0.05231143 0.027456021 0.060461417 0.03579027
000090 25 d1 94 3d 5c df 81 3b 82 25 33 3d e0 3e 72 3b
       0.07266454 0.003963394 0.043736942 0.0036963746
0000a0 f2 45 ce 3b 90 d2 c9 3c 35 24 fb 3c c8 91 28 3d
       0.006294959 0.024636537 0.030656913 0.041154653
0000b0 56 2d 25 3d 33 39 ce bc c2 34 98 bc 75 a9 48 3c
       0.04032644 -0.02517376 -0.018579844 0.012247433
0000c0 ac e5 04 3d 46 b7 bd bb 04 94 c8 bc 78 92 99 3c
       0.032445595 -0.00578967 -0.024484642 0.0187466
0000d0 97 b3 e6 ba 43 1c 32 3c cc 7c 9e 3b d1 a5 8d b9
       -0.0017601129 0.010870996 0.0048366543 -0.0002701716
0000e0 f9 d4 e5 3c 84 67 f4 bc 16 94 4d 3c 34 6c 38 bd
       0.028055655 -0.029834516 0.0125475135 -0.045025066
0000f0 a8 b8 a0 3c 07 45 75 3c e3 f5 75 bb 88 18 89 3b
       0.019619301 0.014970071 -0.0037530593 0.0041838326
000100 4a 3e 1d bd 63 a1 22 bb 61 d4 83 3b 2b 25 cf 3c
       -0.03838948 -0.0024815432 0.0040231203 0.025286278
000110 5a 0a b6 bb 2f e6 28 3c 70 75 0c 3b 77 c9 57 3c
       -0.005555433 0.010308786 0.0021432303 0.013170592
000120 5d 70 bf bc b2 5b 57 39 74 e8 c2 bc 8b 1b 95 3c
       -0.023369009 0.00020538157 -0.023792483 0.01820161
000130 5e d3 57 3c 5f 03 06 3d 17 5c 77 3c c4 7f b4 3c
       0.013172952 0.03271806 0.0150976395 0.02203358
000140 93 37 12 3c 5a 42 a9 3c 7d 55 b8 3b 50 aa e2 bb
       0.008924383 0.020661522 0.0056254254 -0.0069172755
000150 db 43 61 3c a3 b5 c1 3a 4a 76 34 bc bf 42 c5 3c
       0.013749088 0.0014778863 -0.01101453 0.024079679
000160 50 68 9d 3c ff a5 12 bc 5f f5 60 3c 31 08 93 bc
       0.01921478 -0.008950709 0.013730376 -0.017948242
000170 6e fa 91 ba b2 a6 47 bb aa 77 7c bc f7 70 6d 39
       -0.0011137256 -0.0030464348 -0.0154093895 0.00022644164
000180 98 20 5f 3c 45 cb a6 bb cf 96 c9 3b 1e 00 35 3c
       0.013618611 -0.0050901496 0.006152011 0.011047391
000190 51 af 76 3d 75 f4 08 3c 57 f4 8f 3d 86 5e 3b 3c
       0.06022579 0.008359064 0.07029026 0.01143611
0001a0 e7 e5 1c 3d 09 d2 c5 3c e9 f5 0f 3d fd d5 29 bd
       0.03830519 0.024148004 0.035146628 -0.04146384
0001b0 61 60 77 3c 65 10 8c 3b 49 f4 8d 3c 94 62 5a 3d
       0.015098662 0.0042744153 0.017328398 0.053316668
0001c0 c7 30 9e 3d b5 00 06 3d 83 60 df bc b3 51 0e 3d
       0.07724147 0.032715518 -0.0272677 0.034745883
0001d0 c0 fb 05 3d ee 87 13 bc 50 c5 38 3d 40 85 02 3c
       0.03271079 -0.009004576 0.045110047 0.00796634
0001e0 78 8e f6 b8 90 3a 86 bc 9c 18 a4 3d 5b d4 91 3d
       -0.00011756731 -0.016385347 0.08012506 0.07120582
0001f0 6f 12 d8 3c 33 88 c1 3c 44 25 a3 3c c6 91 c1 bc
       0.026375977 0.023624515 0.01991523 -0.02362908
000200 62 92 b0 3b 7b ac c7 3c a9 62 ed 3c 38 a4 04 3d
       0.005388544 0.024374237 0.028977709 0.032383174
000210 ca 58 81 3d 50 61 71 3d 81 02 32 3d 2d 47 6e 3d
       0.06315763 0.058930695 0.04345942 0.058173347
000220 00 6e d4 3d cd 20 47 3d 4b 9a 41 3d 91 fc 44 3d
       0.10372543 0.048615266 0.047266286 0.04809243
000230 7f c5 24 3d ea b4 4e 3d a6 5e 63 3d 2a e9 b7 3c
       0.04022741 0.0504655 0.055510186 0.022450048
000240 b9 ba 1f 3c 55 bc da 3c 89 85 01 3d 7b 81 08 3d
       0.009749108 0.026701132 0.03162149 0.033326607
000250 36 ff 87 3d 7b 8d 5e 3d 75 2c 20 bd 11 cc 5c 3c
       0.066404745 0.054334145 -0.039104898 0.013476388
000260 36 f7 35 3d 05 5b 57 3d 52 9e e1 3d e3 08 34 3d
       0.04442521 0.052577037 0.11016525 0.043953788
000270 ef 51 a2 3d d2 9a 9f bc da 19 7a 3c 3c ec 43 3d
       0.07925784 -0.019483004 0.015264953 0.047832713
000280 3e 56 76 3d 53 61 bf 3b bf a8 2a bc 28 51 3a 3d
       0.06014084 0.0058404594 -0.010416209 0.045487553
000290 a9 29 50 3d b6 94 4a 3d c8 35 9c 3d e7 93 87 bc
       0.05082098 0.049458228 0.076274455 -0.016550018
0002a0 8e b7 b7 3d f9 25 0e 3d d2 9b 4e bc 8e 13 d2 bc
       0.08970557 0.034704182 -0.012610393 -0.02564409
0002b0 af 6a cc bc b2 9a b9 3d e6 09 5e 3c c1 3b 2e 3e
       -0.024953214 0.09062709 0.013552165 0.17014982
0002c0 2d 6f 53 bb 9d 01 94 3d 65 0a 61 3d db 56 44 3d
       -0.003226231 0.0722687 0.054941554 0.047934394
0002d0 07 4c 2a 3d 43 8e 95 3d 31 8d 99 bc e1 c0 90 bb
       0.04157641 0.07302525 -0.018744083 -0.004417524
0002e0 52 69 53 3d 7b 8a 89 3d 59 36 97 3d 9c df de 3d
       0.051614113 0.06715866 0.07383413 0.10882494
0002f0 8f cd 2f 3d 87 6a c4 3d 65 40 80 3d 68 b8 82 3d
       0.042920645 0.09590631 0.06262282 0.06382829
000300 07 78 d9 3d 2a a9 61 3c 5e b8 c4 3d d7 09 bf bc
       0.106185965 0.013773242 0.09605478 -0.023320122
000310 35 d0 57 3b fa 50 1f 3c de c0 0d 3d bd 46 81 bb
       0.0032930498 0.009723896 0.03460776 -0.0039452002
000320 5f e8 a2 3c cf 1a 88 3d 6d 23 24 3d ae 15 65 bc
       0.019886194 0.06645738 0.040072847 -0.01398222
000330 a9 f9 78 3d 05 64 7d bc e3 a7 26 bc 48 34 dd 39
       0.06078497 -0.015465741 -0.010171863 0.00042191357
000340 d8 1d 71 3d b9 a4 3a bc dd 59 ca 3c 2f f7 7a 3d
       0.05886635 -0.011391812 0.024701053 0.06127089
000350 90 e1 16 3d e8 df da bc c3 c1 74 bc 5d 59 8a 3c
       0.036836207 -0.026718095 -0.0149387745 0.016888315
000360 ef ca 94 3c 4c 60 5b 3c 42 9c dd 3c 15 c6 46 3d
       0.018163173 0.013389658 0.027052049 0.04852875
000370 62 d9 80 3c 26 ff 17 3d e5 17 ee ba fe 7c e0 3b
       0.015728656 0.037108563 -0.001816508 0.0068508377
000380 ad 07 12 bd f9 a2 0f 3d 96 d9 87 bd 21 a7 87 3c
       -0.03565185 0.035067532 -0.06633298 0.016559185
000390 24 1c 2a bd d6 0f 08 3d bf 4e 24 3d 40 30 d2 3b
       -0.041530743 0.033218227 0.04011416 0.0064144433
0003a0 76 c1 3b ba b8 8e cb 3c fd f1 52 3d 9b e9 b9 3b
       -0.0007162312 0.024848327 0.05150031 0.0056736
0003b0 88 6e 82 3d a1 5d 9b 3c b6 36 36 3c 2c 29 0a 3d
       0.063687384 0.018965544 0.011121443 0.03373067
0003c0 75 ff c0 bc 57 bc 2f bc 8d c2 3c bc fe 9f 98 3c
       -0.023559311 -0.010726056 -0.011520994 0.018630978
0003d0 fd c9 00 3c 34 db 97 bc 45 33 96 bc 33 31 59 bc
       0.007860658 -0.018537141 -0.018334994 -0.013256359
0003e0 de 4c 97 bc 6a ec 58 3c 7e 32 58 3d 5e d8 d0 3c
       -0.01846927 0.013239959 0.052782528 0.025493797
0003f0 e0 2a a5 3d 46 ba ac 3d ce 5e 54 3d 25 3b 1b 3d
       0.080648184 0.08433966 0.051848225 0.0378982

emb.feature_extractor.4.bias f4 [16]
000000 0e 32 3f 37 01 08 17 37 5e 36 6a 38 f2 ce bc b7
       1.1396141e-05 9.002165e-06 5.584058e-05 -2.2507713e-05
000010 01 5f 86 b8 e4 4b 77 b7 f7 83 dc b7 a7 33 11 36
       -6.407314e-05 -1.4740017e-05 -2.6287495e-05 2.163675e-06
000020 16 bc 46 b8 1c 06 b4 b8 7e d8 05 b6 2b 68 3a 36
       -4.7382047e-05 -8.584207e-05 -1.994456e-06 2.7776794e-06
000030 0b 59 de 37 be d8 a9 38 52 c0 cf 37 f6 29 3a b6
       2.6505926e-05 8.098919e-05 2.4765879e-05 -2.7740584e-06

emb.feature_extractor.5.weight f4 [16]
000000 bd 98 9d 3f 49 29 1a 3f 2d 3c 21 3f 2e 24 0c 3f
       1.2312237 0.60219246 0.62982446 0.54742706
000010 79 1c 0c 3f 10 f4 6d 3f 27 f6 23 3f a1 b7 1e 3f
       0.54730946 0.92950535 0.64047474 0.61998945
000020 9f 4d 82 3f ff 27 35 3f c2 d1 7a 3f b1 d3 95 3f
       1.0179938 0.70764154 0.97976315 1.1705228
000030 be 1d 88 3f f0 5c 78 3f 08 8d 05 3f f9 a1 95 3f
       1.0634077 0.9701681 0.5216832 1.1690055

emb.feature_extractor.5.bias f4 [16]
000000 98 4d 46 bd 8a ed 88 bd 34 57 46 bd 0d 07 f6 bd
       -0.048413843 -0.06685932 -0.048423007 -0.120130636
000010 14 d1 17 be 2e 67 55 bd 2c 1d 03 bc 00 80 87 be
       -0.1482585 -0.052100353 -0.008002561 -0.26464844
000020 f1 9e b4 bb 23 2b 94 be 4b 63 f9 ba 1e 35 01 3d
       -0.0055121114 -0.2893916 -0.0019026784 0.031544797
000030 a0 b0 d8 3d 01 29 2b bb af e9 e7 bd 6a e4 bf 3c
       0.105805635 -0.002611697 -0.113238685 0.023424346

emb.feature_extractor.5.running_mean f4 [16]
000000 2a 1f 58 40 a2 7c af bf 6f 25 08 c0 24 ea 07 40
       3.376902 -1.370991 -2.1272848 2.1236658
000010 36 82 12 40 fc da bc 3e 53 60 01 c0 9b 31 10 40
       2.2891974 0.36885822 -2.0215042 2.2530277
000020 3c 2e 08 40 94 da 21 40 26 68 e5 3f f7 cd 00 40
       2.127822 2.528966 1.7922409 2.012571
000030 2c f8 b1 3f 7d cd 00 40 37 d8 0e 40 4e ce 27 40
       1.3903861 2.012542 2.2319467 2.6219668

emb.feature_extractor.5.running_var f4 [16]
000000 71 cb 0a 40 1f cb 18 3f 41 56 3e 3f de f9 ff 3e
       2.168667 0.5968494 0.74350363 0.4999532
000010 85 01 10 3f bc 89 c4 3f 79 50 3f 3f 42 9f 23 3f
       0.5625232 1.5354533 0.74732167 0.63914883
000020 a8 15 4f 3f c4 84 35 3f 87 a9 bc 3f ca a9 87 3f
       0.8089242 0.7090571 1.4739236 1.059869
000030 62 04 87 3f 69 b1 69 3f 93 d2 2e 3f 80 02 26 40
       1.0548213 0.9128633 0.6829006 2.5939026

emb.fc.1.weight f4 [100, 192]
000000 c9 f5 80 3d b6 bc b8 bd 89 4c ac 3c 9a 2f 57 bd
       0.0629688 -0.09020369 0.021032589 -0.05253563
000010 7f d1 68 3d bb 75 88 3d 3a ed 8f bc e2 0b e2 bc
       0.056840416 0.0666308 -0.017569173 -0.027593557
000020 b6 d7 7c bc 7c 6e a6 bb 71 57 6a bb fe ed 0c 3c
       -0.015432289 -0.0050790887 -0.0035757686 0.008601664
000030 2f 4b 90 3b 15 6a be ba 9d 5f 77 bc 81 97 be bb
       0.004403494 -0.0014527465 -0.01509848 -0.0058164005
000040 b3 1a 6a bb ad ac e5 3a e5 6d 3f 3d 98 c9 c4 3d
       -0.003572148 0.0017522775 0.046735663 0.096087635
000050 75 66 d4 3d f2 91 88 3d 2a 14 ae 3d 4b 9a e3 3c
       0.10371105 0.06668462 0.0849994 0.027783534
000060 e9 58 8e bb 96 be 1a 3c bf ec cd bb 67 93 ed 3a
       -0.004344095 0.009444853 -0.006284326 0.0018125594
000070 f1 ed 9d bc 06 a3 59 bb 79 8b f5 3c 59 ae f5 3d
       -0.019278498 -0.0033208742 0.029973732 0.11996145
000080 cd 59 f0 3d 4f 68 b9 3d 75 85 85 3d 9b 1c db 3b
       0.11735878 0.090530984 0.065195955 0.0066867596
000090 7b fe 12 3d 33 d7 03 3d 63 65 6d 3d 47 f9 fc 3c
       0.035887223 0.03218765 0.057958018 0.030880583
0000a0 fd 59 e8 3d d4 5d 56 3c ed 6b 04 bd 95 a1 a6 bc
       0.11345289 0.013083894 -0.03232949 -0.02034072
0000b0 f5 b9 15 bc 90 f3 34 bb 54 84 db bc 00 91 a5 bc
       -0.009138574 -0.0027610995 -0.026796497 -0.020210743
0000c0 a4 03 aa 3c 69 58 18 3d 42 14 63 3d f1 e9 6b 3d
       0.02075369 0.03719369 0.05543924 0.05759615
0000d0 59 03 b5 3d ad 01 32 3d 43 06 4f bd 5f bf d0 3a
       0.08838529 0.04345863 -0.05054308 0.0015926174
0000e0 e7 09 89 3b 3e 19 ee ba cf 74 23 bc 65 35 e9 ba
       0.0041820887 -0.0018165482 -0.00997658 -0.0017792402
0000f0 65 1e ce bc 2d b8 08 ba 33 05 94 bc 33 fb d5 bc
       -0.025160978 -0.00052154326 -0.018068885 -0.026120758
000100 ef df 4e bc 79 17 e2 3c 06 5d c3 bb eb 78 aa 3b
       -0.012626632 0.027599083 -0.005962017 0.005202403
000110 ab 3c ae bb d0 07 0f 3c c8 6c c6 3b cb 36 13 3c
       -0.005317291 0.00872989 0.006055448 0.008985232
000120 66 d1 bd bb b8 75 9e bb 8d b3 3c 3b b7 07 b6 ba
       -0.0057927845 -0.0048358105 0.0028793544 -0.0013887797
000130 6e 2e d9 b9 44 6e b8 ba 78 2f 33 3c e2 ab f3 3d
       -0.00041424058 -0.0014070948 0.01093661 0.118980184
000140 82 11 a8 3d 54 58 c7 3d 72 e1 af 3d c7 e3 2d 3d
       0.08206464 0.09733644 0.08587922 0.042453554
000150 e3 57 26 ba 51 85 51 3d 24 6e 6e 3d 76 0d 91 3d
       -0.00063454936 0.05115253 0.058210507 0.070826456
000160 c3 07 84 3d c9 a3 7b 3d 8d 0d a4 bd 07 fd 08 bd
       0.06446793 0.061435495 -0.08010397 -0.03344443
000170 cc 96 d2 bc ed 28 88 bc c9 e9 f3 bc 98 36 cb bc
       -0.025706671 -0.016621077 -0.029774563 -0.024806306
000180 4a 2c d5 3b 24 9a 57 3d 1d b6 4c 3d a6 42 db 3d
       0.006505524 0.052637234 0.049978364 0.107060716
000190 9a f0 19 3d 73 f0 cd ba 7d 21 89 bc b8 56 e9 bc
       0.03758297 -0.0015711918 -0.016739601 -0.028483734
0001a0 72 64 f9 bb 44 67 18 bc 51 7b 9a 3b 4b 49 09 3c
       -0.007610851 -0.009301964 0.0047144075 0.008379291
0001b0 3e 64 e3 3c a3 9b 37 3d 7b fa 5b 3d 92 70 08 3d
       0.02775776 0.04482616 0.053705674 0.03331048
0001c0 90 c5 cc 3d 61 18 3c bc 3e 68 fa bc de e2 7d bc
       0.099986196 -0.011480422 -0.030567285 -0.015495984
0001d0 e4 2b ac bc 9d c7 ac bb 80 2a 3d bd f8 91 e4 bc
       -0.021017022 -0.005272819 -0.04618311 -0.027901635
0001e0 c4 21 9d bc 51 7e 8d 3d 32 be bd 3b 17 83 27 3c
       -0.01918114 0.069088586 0.0057904953 0.010224125
0001f0 92 a0 96 3c aa af 82 3d 80 8f c5 bb 75 b7 3f 3b
       0.018387113 0.063811615 -0.0060290694 0.0029253636
000200 32 ff 0a bc e3 1c 60 3b 26 4d 5b 3c 82 70 24 3b
       -0.008483695 0.0034196905 0.013385093 0.0025091474
000210 a2 c5 22 3b bc 66 6a 3d 75 5f a2 3d 80 5a 14 3e
       0.0024837037 0.05722688 0.07928363 0.14487648
000220 36 10 13 3d 7e fe 99 bb 5b f6 27 3c b7 5a 68 bc
       0.03590413 -0.0046995273 0.010251607 -0.014181784
000230 4f d6 9d bb a3 f3 12 3c 49 8e 79 3c 97 ba 9d 3c
       -0.0048168073 0.00896922 0.015231677 0.019254012
000240 d2 8f 41 3d 43 97 76 3d 97 f3 fd 3c 46 6e c0 3d
       0.0472563 0.06020285 0.030999942 0.09396033
000250 26 5e 26 3c a6 a3 ed 3a c0 b7 21 bc 2e bd 08 bc
       0.010154283 0.0018130436 -0.00987047 -0.008345885
000260 ce c4 07 bc 11 71 da 3c af ec 01 3c 67 52 3d 3c
       -0.008286668 0.026665242 0.007929965 0.011555291
000270 24 ba 32 3d b4 e8 39 3d 67 ed 60 3d cc 6c a4 3d
       0.04363455 0.04538794 0.054913905 0.08028564
000280 e1 92 9a 3d 66 3e 4f 3d 1d 62 14 bc 06 0c 48 3c
       0.07547546 0.050596617 -0.009056595 0.012209898
000290 2f b6 1f 3c e0 9c ba 38 cd 46 79 ba 0e 16 22 bc
       0.009748026 8.8983914e-05 -0.00095091463 -0.009892954
0002a0 53 5e 48 3d 41 e4 a2 3d 7c dc 89 3d 68 06 64 3d
       0.04891808 0.07953692 0.06731507 0.055670172
0002b0 2a dc ae 3d 88 24 0a 3d e9 d4 03 bd 4a b5 06 bc
       0.08538087 0.033726245 -0.03218547 -0.008221934
0002c0 e0 7d 51 bc 45 48 71 3a 9f c9 4e bb 4a 20 66 bc
       -0.012786359 0.00092041894 -0.003155328 -0.014045784
0002d0 9e 96 87 ba 60 d6 e7 bc 88 ab d8 bc 67 93 df 3d
       -0.001034457 -0.028300464 -0.02644898 0.10916787
0002e0 bc 72 9e bd 27 87 4d 3d ae f9 3c bc 85 76 da bb
       -0.077367276 0.05017772 -0.011534138 -0.0066669607
0002f0 b9 ac 1b 3c 31 b1 0f 3c 94 e1 29 ba 6d 95 fd bb
       0.0095016295 0.008770273 -0.0006480452 -0.00773876
000300 77 63 df 3d bf 4e 60 bc 0e 3e d8 bc 68 1a 1a 3e
       0.10907643 -0.0136906495 -0.026396777 0.15049136
000310 d9 60 87 bc 72 ca 0d 3d 48 09 4e bc 53 6b 4b bc
       -0.016525673 0.034616895 -0.012575455 -0.012415725
000320 06 7a 3f bb fe d9 23 3c a2 53 8f 3a 51 81 07 3b
       -0.0029217019 0.010000704 0.0010934959 0.0020676444
000330 42 bb a5 bb a4 68 ed bb 46 5f 84 ba 3a 4d 92 3a
       -0.0050577233 -0.00724514 -0.0010099194 0.0011161931
000340 6c 98 2d bc 01 2d 62 3b 0b 2d 3f 3d 32 87 b0 3d
       -0.010595422 0.0034511688 0.046673816 0.086195365
000350 a3 06 ab 3d 3c dd 87 3d 3b 77 a5 3d d5 72 a7 3c
       0.08350875 0.06633994 0.08079382 0.020440498
000360 b3 bd 8f 3b 74 89 70 bc 49 61 5c bc 9c ea 10 bd
       0.0043866276 -0.014681209 -0.013450929 -0.03537999
000370 2b 51 8e bc 5a 57 54 bc 30 5c a4 3c 72 8a ee 3d
       -0.017372688 -0.012960279 0.02006349 0.116475
000380 9d ed ae 3d 52 82 c6 3d 50 05 6c 3d 0f c2 b8 3c
       0.08541415 0.096928254 0.057622254 0.022553472
000390 c2 15 33 3d 66 8d f4 3c 40 8b 34 3d 36 27 1d 3d
       0.04372192 0.02985258 0.04407811 0.038367473
0003a0 c6 c7 f5 3d 5d 65 98 3c 5e d1 1a bd 95 f9 15 bd
       0.120009944 0.018603021 -0.037797324 -0.036614973
0003b0 af 1e 2c bc 32 0b 81 3b b7 30 0d bd a6 33 94 bc
       -0.010505362 0.003938102 -0.034470286 -0.018091034
0003c0 87 be 9f 3c 37 76 b3 3c 25 bb b5 3d 28 fa b6 3d
       0.01950003 0.021906955 0.088735856 0.08934432
0003d0 30 e3 78 3d 79 47 1b 3d d4 93 76 bd 6e b4 d1 bb
       0.060763538 0.03790996 -0.060199574 -0.0063996827
0003e0 ee ac 44 bc 90 68 4f bc 31 b7 a3 bb a5 8e 66 3b
       -0.01200412 -0.012659207 -0.0049962034 0.0035180238
0003f0 a5 b5 90 bb c8 d9 47 3b b5 45 80 b8 97 ed 02 3e
       -0.004416185 0.0030494798 -6.1164996e-05 0.12785946

emb.fc.1.bias f4 [100]
000000 ee 8b a8 b6 1b c7 f1 32 40 63 02 2f 7b b5 ca a7
       -5.02308e-06 2.8146635e-08 1.1858692e-10 -5.6263024e-15
000010 e2 82 c4 aa 5d 12 71 29 0b 54 51 9d 72 61 64 b6
       -3.4907412e-13 5.3528677e-14 -2.7704369e-21 -3.4031368e-06
000020 10 15 00 00 0f 43 00 00 74 7d c1 a9 7d 7f 6d ae
       7.556e-42 2.4056e-41 -8.5926844e-14 -5.4000793e-11
000030 69 e3 28 35 5c 30 00 80 c0 da 88 1d 3d 04 b9 2e
       6.29158e-07 -1.7348e-41 3.6225082e-21 8.413579e-11
000040 38 12 00 00 e3 97 f9 37 da d1 fb 9f 84 fd e8 a8
       6.536e-42 2.975384e-05 -1.06649805e-19 -2.5867119e-14
000050 b2 dc 37 b5 80 04 00 80 e7 8a 0d 38 87 4d 2f b4
       -6.8493966e-07 -1.614e-42 3.3746383e-05 -1.632635e-07
000060 64 03 c7 24 33 1a 00 00 ef d8 48 27 0b a9 d3 b4
       8.630824e-17 9.399e-42 2.7873176e-15 -3.9424808e-07
000070 fc 61 88 ad b2 1f b2 13 30 2c 17 2e 79 6b 8e b7
       -1.5504924e-11 4.496477e-27 3.437267e-11 -1.6977765e-05
000080 24 4a 02 aa 20 fb df 33 d2 4d 96 2f c5 cf fe 37
       -1.1572042e-13 1.0429926e-07 2.7340136e-10 3.037591e-05
000090 20 01 00 00 23 30 0c 1f 50 bf f5 34 60 66 0d 19
       4.04e-43 2.968597e-20 4.5774004e-07 7.310204e-24
0000a0 a9 4d f0 ab 73 c3 06 1b ea 04 00 00 8f 07 00 00
       -1.7074581e-12 1.1147373e-22 1.763e-42 2.712e-42
0000b0 13 28 14 2b 42 01 00 80 d9 0a 17 a7 3f a1 1e 29
       5.2635777e-13 -4.51e-43 -2.096134e-15 3.5222906e-14
0000c0 4a 5b b5 27 6b 75 e0 30 8a f0 d3 b4 0c 0f 7e a5
       5.0336568e-15 1.6331517e-09 -3.9476828e-07 -2.2036086e-16
0000d0 39 04 00 00 61 18 00 80 87 9c 41 b5 ac 64 53 37
       1.515e-42 -8.746e-42 -7.212588e-07 1.26000195e-05
0000e0 e5 ca be 2e 4a dd 35 37 5b 97 43 ab a2 24 99 95
       8.676241e-11 1.0839964e-05 -6.9487965e-13 -6.1854004e-26
0000f0 47 04 00 00 a9 c6 f1 2e 82 a3 70 9e 82 79 1e af
       1.534e-42 1.09947e-10 -1.2739307e-20 -1.4413185e-10
000100 4a 05 00 00 fd cf cb 2a e7 03 00 80 34 fd 66 36
       1.897e-42 3.6204365e-13 -1.4e-42 3.4420054e-06
000110 8f fa 1a 2d 48 97 f1 33 a1 6e a2 b5 4a f2 91 28
       8.809522e-12 1.1249955e-07 -1.2102138e-06 1.620331e-14
000120 5a fc 06 37 f6 10 53 33 cc cd 82 b2 59 3d 9e 97
       8.045778e-06 4.914269e-08 -1.5227577e-08 -1.0225997e-24
000130 46 1d 00 80 b9 09 f4 b4 55 d0 60 ad e8 09 00 00
       -1.0501e-41 -4.5455616e-07 -1.2779185e-11 3.554e-42
000140 27 0c 00 00 d4 0b 00 80 33 da dc 00 e3 aa ff a2
       4.36e-42 -4.243e-42 2.0282084e-38 -6.929882e-18
000150 6c d9 3b b2 ed 0b 00 00 3a 17 00 80 f7 cb e4 b2
       -1.0934269e-08 4.278e-42 -8.332e-42 -2.6635446e-08
000160 e7 08 00 80 32 01 00 80 20 17 00 00 c7 09 00 80
       -3.194e-42 -4.29e-43 8.296e-42 -3.507e-42
000170 47 fe 4b 2f bd a2 d5 9e 92 91 ad ad 7e 65 00 80
       1.855308e-10 -2.261956e-20 -1.9732469e-11 -3.6409e-41
000180 45 db 99 35 38 18 00 00 5a 63 83 9d ed 87 62 2b
       1.1463204e-06 8.688e-42 -3.477814e-21 8.0479964e-13

clf.1.weight f4 [1, 100]
000000 f4 2a c1 be 2a 47 cb be 79 3f db be db 05 bf be
       -0.37728083 -0.3970273 -0.42821863 -0.37309155
000010 a9 59 c5 be 82 9f e0 be 35 28 ce be 04 c6 ec be
       -0.38544968 -0.43871695 -0.4026505 -0.46244824
000020 c3 10 cd be e8 d6 cd be b9 11 c8 be a9 c1 c0 be
       -0.4005185 -0.40203023 -0.3907602 -0.3764775
000030 66 4c af be e2 6e c2 be f4 d3 c3 be 9e 08 dc be
       -0.34237975 -0.37975222 -0.38247645 -0.42975324
000040 30 de e3 be 98 38 c2 be 46 ac c5 be 3d 80 c8 be
       -0.44505453 -0.37933803 -0.38607997 -0.39160338
000050 da 03 d6 be 18 dd 9c be 2e 7c c1 be 4c e6 e3 be
       -0.41799814 -0.3063743 -0.37790054 -0.4451164
000060 75 32 c7 be a4 2a e8 be 0d 40 c2 be 49 d2 d4 be
       -0.38905683 -0.45345032 -0.37939492 -0.41566685
000070 41 f2 c9 be a6 15 e0 be 6a 06 dc be 76 7e dd be
       -0.39442638 -0.43766516 -0.42973644 -0.43260545
000080 41 34 e5 be 21 ee d8 be 9d d5 e3 be e4 d3 bf be
       -0.4476643 -0.42369178 -0.44498911 -0.37466347
000090 35 6c bc be f4 25 d7 be 5a 5b b8 be 79 a1 a4 be
       -0.36801305 -0.42021143 -0.36007196 -0.32154444
0000a0 2a 49 e8 be 36 b4 d5 be 1f 4a d3 be 87 d8 cb be
       -0.4536832 -0.41739053 -0.41267487 -0.39813635
0000b0 c4 6d d4 be ac ab d5 be e8 5a b1 be 83 f6 be be
       -0.41489995 -0.41732538 -0.34639668 -0.3729745
0000c0 21 e6 c1 be d5 a4 bc be b7 f0 bd be b0 4b d1 be
       -0.37870887 -0.36844507 -0.37097713 -0.40878057
0000d0 c0 49 c9 be 7d b3 db be 82 70 c9 be 8b 65 cb be
       -0.3931408 -0.42910376 -0.3934365 -0.3972591
0000e0 d1 c5 d2 be b1 06 bd be 3c 4a cf be 5f 3a fb be
       -0.41166547 -0.36919168 -0.40486324 -0.4906797
0000f0 66 99 dd be 21 7b b6 be cc 0e d4 be a6 b7 dc be
       -0.43281096 -0.35640815 -0.4141754 -0.43108863
000100 e3 af d9 be 76 b4 c2 be d2 1b e1 be b5 54 ce be
       -0.42517003 -0.38028306 -0.43966538 -0.40299
000110 1f d9 d0 be ab a7 c7 be 7c 73 d8 be 8e 3a d0 be
       -0.4079065 -0.38995108 -0.42275608 -0.40669674
000120 13 c8 e4 be 6d 74 b1 be 8c d9 cb be 30 bf c7 be
       -0.44683895 -0.34659138 -0.39814413 -0.39013052
000130 09 f0 dd be a2 44 ed be d7 77 bf be 02 ac c8 be
       -0.43347195 -0.46341425 -0.37396118 -0.39193732
000140 cf 62 c6 be 70 4b d5 be c7 21 d8 be a2 55 de be
       -0.3874726 -0.41659117 -0.4221327 -0.43424708
000150 21 af d0 be b8 5b cd be 4e fb c8 be cb 1b e2 be
       -0.40758613 -0.40109038 -0.3925423 -0.4416183
000160 08 3d d0 be 30 e7 c4 be e1 f4 d0 be 8e 31 d6 be
       -0.40671563 -0.38457632 -0.40811828 -0.41834682
000170 47 ee c6 be fc 00 e2 be a2 e2 c7 be 9f 89 d8 be
       -0.38853666 -0.44141376 -0.39040095 -0.42292497
000180 5b d6 da be ce a2 d2 be 43 fb e1 be 21 aa d7 be
       -0.42741665 -0.41139835 -0.4413701 -0.42121986

exp_avg f4 [2, 1, 2, 1]
000000 3a fa ac 40 ac 58 88 c0 7b b1 9d 40 94 d1 9f 40
       5.405545 -4.260824 4.927915 4.9943333

exp_avg_sq f4 [2, 1, 2, 1]
000000 4d 24 06 43 19 6a c1 42 1a 3d c0 42 c4 f1 db 42
       134.1418 96.70722 96.11934 109.9722

exp_avg f4 [2]
000000 bc e4 e6 3f 25 ea e8 bf
       1.8038554 -1.8196455

exp_avg_sq f4 [2]
000000 94 a4 06 42 de 1a 06 42
       33.66072 33.526237

exp_avg f4 [16, 1, 1, 50]
000000 a5 48 2b be fb 90 8b bd 6e c5 77 be 4f 5b 20 be
       -0.1672693 -0.06814762 -0.24196407 -0.15659831
000010 bb f2 9e bc 83 f4 08 be 4b da 21 bd 13 fb 53 bc
       -0.019402852 -0.13374524 -0.03951482 -0.012938279
000020 dd 3d f4 bd be 19 52 bd 0e d6 18 3d da 87 69 3c
       -0.11925862 -0.05129408 0.037313513 0.014253581
000030 d0 72 da bd 51 d6 15 be de a8 36 bd 73 50 5c bb
       -0.1066643 -0.14632536 -0.044594638 -0.0033617287
000040 4f c3 f6 bb 4c 87 81 bd 87 f2 3b bd 7b 2e 4a bd
       -0.007530607 -0.06324634 -0.04588559 -0.049360733
000050 51 65 92 bd 69 f3 bc 3c 25 ea 65 bd 7f 6a e0 bd
       -0.07148231 0.023065286 -0.0561315 -0.109578125
000060 08 a1 9f bd 2d 13 39 bb 39 36 4a 3d bf 46 d6 bd
       -0.07794386 -0.002824019 0.049368117 -0.104627125
000070 5b f3 87 bc 15 e5 8f bc cf 0d 64 bd 5d a7 e6 bc
       -0.016595533 -0.01756529 -0.05567723 -0.028155977
000080 1d b1 fe 3c ca fc a0 3c 1c 92 6e bd 22 a1 a3 bd
       0.031090314 0.01965179 -0.05824481 -0.07989718
000090 b3 0f a5 bd ce ff 4c be a0 1e 51 bd 28 5e 5c bd
       -0.08059635 -0.20019457 -0.051054597 -0.053800732
0000a0 c3 b3 aa bd 7f f6 81 bc 7c a7 bf bd ab e2 27 be
       -0.08335068 -0.015864609 -0.09358117 -0.1639506
0000b0 16 ae f9 bd ef 68 91 bd b8 34 85 3c b7 9d a1 3d
       -0.121914074 -0.071000926 0.01626049 0.0789141
0000c0 c4 1f 90 bd 24 dd 05 3e 76 fa a4 3d b7 fe 30 be
       -0.07037309 0.1307264 0.08055584 -0.17284666
0000d0 a4 e5 0f 3d 8f 59 5a be 35 78 9a bd 5d c4 40 bd
       0.03513111 -0.21323226 -0.07542459 -0.047062267
0000e0 52 78 4d 3c c3 f5 3b 3e 28 82 98 3e 54 e8 9d 3d
       0.012540894 0.1835547 0.297868 0.07710329
0000f0 9b 50 13 bd 0a 79 af 3d 8e 66 d1 3d f6 f7 85 3e
       -0.035965543 0.08568008 0.10224639 0.26165742
000100 6a 05 7d 3e e6 51 37 bd 0f 21 80 3e 30 33 c4 3e
       0.24709097 -0.04475584 0.25025222 0.38320303
000110 6b f5 8b 3e 80 af 82 3e 61 de f1 3d 99 e8 a0 3e
       0.27335677 0.2552452 0.118099935 0.31427458
000120 c4 23 6e be 93 36 80 3d af d4 52 be 8a 3d ea bd
       -0.23255831 0.06260409 -0.20588945 -0.11437519
000130 98 a0 9d bd d9 e5 d0 3d 47 3d 3c be 40 6c 1b 3e
       -0.076966465 0.1020009 -0.1838275 0.15178013
000140 ce e2 31 3e 70 44 a3 3c f1 7e fe bd b9 56 1b bb
       0.17371675 0.019930094 -0.12426556 -0.0023702814
000150 cb 34 ee 3d 98 4d 44 bb cc 79 98 3e 60 21 72 bd
       0.11631163 -0.0029953476 0.29780424 -0.05911386
000160 c3 5a 44 3e 29 8e 4b 3e a6 e4 87 3d b9 10 e7 3e
       0.19175248 0.19878449 0.06635408 0.45129946
000170 7a 81 c9 3e 23 8e 96 3e fb bf be 3c f5 76 a5 3d
       0.39356595 0.29405317 0.023284903 0.0807933
000180 80 c2 7a 3e 69 b9 95 be ef 81 51 be 60 66 01 3e
       0.24488258 -0.2924302 -0.20459722 0.12636709
000190 df e3 24 bd 11 32 84 3d b6 81 44 3e ea 3e 46 3e
       -0.040256377 0.06454862 0.19190106 0.19359937
0001a0 32 9c 80 3e e0 4d 2f 3e 32 8b 8c 3d 7c 7b 75 3e
       0.25119168 0.1711955 0.06862487 0.23972887
0001b0 66 05 27 3e f0 b2 8f 3e 0a ff ba 3d ee b3 a3 3d
       0.16310653 0.28066206 0.09130676 0.07993303
0001c0 36 ea 0f be 0a 31 20 be dc d3 ef 3d 74 3b 3c bd
       -0.14054188 -0.15643707 0.11710331 -0.045955136
0001d0 66 68 00 3d fc 96 24 3e 85 b2 92 3d 3e 86 49 3e
       0.031349562 0.16073221 0.07162956 0.19680116
0001e0 72 ec 34 3d c4 e1 67 bc 1f 27 79 3d 26 f3 77 3d
       0.044170804 -0.014152948 0.060828324 0.06053462
0001f0 94 32 93 be c5 c1 c8 3c ea 28 42 bd 4f 10 8b be
       -0.28749526 0.024506459 -0.0474023 -0.2716088
000200 f3 3d a9 3d 9c 06 25 be 40 65 37 3e 2c 5b ee 3d
       0.08263769 -0.16115803 0.17909718 0.116384834
000210 5c 02 7d 3c 43 14 45 3e a2 96 f7 3d 84 1c 14 bc
       0.015442457 0.1924601 0.12089278 -0.009040002
000220 54 07 a7 be ef 76 49 be e7 ca 87 be 52 91 1e be
       -0.32622778 -0.19674276 -0.2652199 -0.15485123
000230 ef 9c 38 be 32 5c 44 be 5d ee b1 be 20 9c 25 3d
       -0.18028615 -0.19175795 -0.3475217 0.040432096
000240 b0 d4 c8 be a4 6f c0 bd 14 e2 39 3d b8 20 3b be
       -0.39224768 -0.09396294 0.04538162 -0.182742
000250 03 e8 3c be 75 b8 5f bd ef 69 15 be ed e1 0f 3e
       -0.1844788 -0.05461927 -0.14591192 0.14051028
000260 ac 49 cc be 32 2b 7e 3c 63 78 0b bc ab d8 13 bd
       -0.39899957 0.015513228 -0.008512589 -0.036095303
000270 68 94 22 be 76 28 94 be d6 c6 31 be 08 7c 1a bf
       -0.15876925 -0.2893712 -0.17361006 -0.60345507
000280 35 be a9 be 1c 29 9f be e6 e4 ba be 44 32 be be
       -0.3315293 -0.3108605 -0.3650276 -0.37147725
000290 45 5f 00 be 76 81 e9 be 7c 2f 9c be 7c 81 60 bf
       -0.12536342 -0.45606583 -0.30504978 -0.8769758
0002a0 67 4d be be 2f 37 a3 be 1f de 69 bf a5 40 f7 be
       -0.37168428 -0.3187804 -0.91354555 -0.48291507
0002b0 48 7a a7 be 03 3d aa be a3 eb a5 be 9f 86 4c 3d
       -0.3271048 -0.33249673 -0.3240634 0.049933072
0002c0 ab 15 74 bd c3 9a 5e 3e 56 3c 41 3d 17 b7 61 be
       -0.059590977 0.21738724 0.04717668 -0.220425
0002d0 66 08 a4 bd 12 71 84 be 2f ed c1 bd 76 61 8c 3d
       -0.080094144 -0.25867516 -0.09469067 0.06854527
0002e0 28 70 43 bd 93 fc c3 be cb 75 60 3d 3e 56 40 bd
       -0.047714382 -0.38278636 0.054799836 -0.046957247
0002f0 81 90 d8 3c 05 0d 80 3e 96 09 93 bc 6f e8 c7 3e
       0.026436092 0.25009933 -0.017948907 0.3904452
000300 ea e9 28 3d 82 f8 6e 3e 30 1c a6 bd da a6 8e be
       0.041238703 0.23336986 -0.08110845 -0.27861673
000310 f3 03 f5 bd a1 1d df be 21 2f 80 bd 1e 4a d0 be
       -0.11963644 -0.43577293 -0.06258989 -0.40681547
000320 db 5e 11 be 84 38 33 bd c0 48 c5 bc 44 0a 27 be
       -0.1419634 -0.04375507 -0.024082541 -0.1631251
000330 63 a7 5a 3d 01 ca c3 bc 1a 5d 0a be 51 3f d0 3c
       0.05338229 -0.023900034 -0.13512078 0.025420817
000340 79 c4 3f 3d d9 cc b0 bd ab 0d 23 bd c9 53 44 3e
       0.04681823 -0.086328216 -0.039807957 0.19172587
000350 7a f4 da 3d 83 ac 36 3d 20 5e ea bd c2 07 ef bd
       0.106911615 0.044598114 -0.11443734 -0.116714016
000360 e1 7a e3 ba af 6c a7 bd 64 71 cd 3c b3 f1 46 bd
       -0.0017355346 -0.081750266 0.025078483 -0.048570346
000370 b4 3e 82 3d 0d 3f 30 3d 13 3e 6a bd cf 90 70 3d
       0.06359616 0.04302888 -0.057188105 0.05873185
000380 ca 71 c5 3d 72 55 a5 bd 13 ad b9 bd 92 8e bb 3b
       0.09640844 -0.08072938 -0.090662144 0.005723783
000390 c4 80 a0 bd 18 21 d9 bc 70 f1 93 bd b0 fb 3b bd
       -0.0783706 -0.026505038 -0.07223785 -0.045894325
0003a0 c8 0b 6f bb 73 33 95 bd b7 8c 01 3d ec 8f 5b bd
       -0.0036475528 -0.07285204 0.031628337 -0.05360405
0003b0 0e 29 28 3d 70 74 e0 bd 2b 4a d8 bd ea d8 aa 3d
       0.041054778 -0.10959709 -0.105610214 0.08342154
0003c0 d1 ba 3f bc 22 0d db bd b2 c4 20 be 91 8d e7 bb
       -0.011702255 -0.10695864 -0.15700033 -0.0070664366
0003d0 37 ac 5b bd ab fa 30 bd 0d ba 50 bd bb 97 73 3d
       -0.053631034 -0.043207806 -0.05095868 0.059470873
0003e0 92 49 1f 3e e4 a0 45 3d fb 9c 50 3e 37 da 69 be
       0.15555409 0.04824914 0.20372383 -0.22837149
0003f0 5a 3f 7b ba 56 72 9d be 4e e1 87 be d7 0d 0e 3d
       -0.000958433 -0.30751294 -0.2653908 0.034681167

exp_avg_sq f4 [16, 1, 1, 50]
000000 41 f1 a2 3d 5f 69 b7 3d 7f cc 89 3d ec 52 88 3d
       0.07956172 0.08955645 0.06728458 0.06656441
000010 c7 14 87 3d 91 41 79 3d c0 88 89 3d b2 41 8d 3d
       0.0659576 0.060853545 0.06715536 0.06897296
000020 13 8f 85 3d 3e c2 9e 3d 09 8c 55 3d c5 5c 4e 3d
       0.0652143 0.077518925 0.0521355 0.05038144
000030 63 10 52 3d eb 82 72 3d 2f 74 6b 3d d6 67 70 3d
       0.05128516 0.059206884 0.05748385 0.058692776
000040 41 f5 5e 3d 85 7b 4b 3d 35 f4 65 3d 6f 73 84 3d
       0.05443311 0.049678344 0.056141097 0.0646733
000050 08 30 7b 3d 77 e9 8b 3d 68 80 9f 3d fd 67 97 3d
       0.061325103 0.06831639 0.077881634 0.07392881
000060 2f f6 8c 3d e6 98 9e 3d e1 97 a2 3d a9 e0 7e 3d
       0.06882893 0.07744007 0.07939125 0.06222597
000070 79 1d a7 3d 65 5e 80 3d d6 ee 85 3d fd cb 77 3d
       0.08159918 0.06268004 0.06539695 0.060497273
000080 74 41 8c 3d 87 95 8c 3d e5 4a 77 3d 97 e4 84 3d
       0.06848422 0.068644576 0.06037416 0.064889126
000090 59 90 74 3d d0 13 92 3d 98 38 7f 3d 4a 69 80 3d
       0.059707973 0.07132685 0.06230983 0.06270082
0000a0 2b 01 90 3d 95 08 98 3d e8 75 7d 3d cd 74 9e 3d
       0.07031473 0.07423512 0.061880022 0.07737122
0000b0 b5 d2 81 3d 0e 0a 89 3d 98 58 68 3d d8 11 5e 3d
       0.06339017 0.06691371 0.056725115 0.054216236
0000c0 4d 9d 71 3d 5a 94 72 3d c5 42 83 3e 53 0a 6c 3e
       0.058987904 0.05922351 0.2563688 0.23050813
0000d0 dd ff bc 3e f9 80 bf 3e 9d 68 9b 3e b5 56 be 3e
       0.36913958 0.37403086 0.3035325 0.37175527
0000e0 8c 78 bd 3e 6c 8e a9 3e fc 7d 99 3e 2c 59 8a 3e
       0.37006032 0.33116472 0.2997893 0.27021158
0000f0 0e e8 9a 3e ac df 99 3e c2 f7 c5 3e 6c c0 a7 3e
       0.3025517 0.3005346 0.38665587 0.32763994
000100 4f a6 be 3e 23 15 5e 3e 7c 6b 90 3e 53 ac 8b 3e
       0.37236258 0.2168775 0.28207004 0.2727991
000110 5e 3a 87 3e 9d 0f c3 3e f1 74 94 3e bb 87 cc 3e
       0.26411718 0.3809785 0.2899547 0.39947304
000120 b3 7b ae 3e 32 a0 a1 3e fa 95 a0 3e 11 da cb 3e
       0.3407875 0.31567532 0.31364423 0.3981481
000130 0a 03 a0 3e 9f 05 9f 3e c2 16 c3 3e c8 2b 83 3e
       0.3125232 0.31058976 0.381033 0.2561934
000140 af ed a4 3e 4e b2 8d 3e 04 2a a0 3e 98 b9 74 3e
       0.32212588 0.27675098 0.31282055 0.23898923
000150 16 24 8f 3e f6 d6 a9 3e 79 09 c3 3e ca 55 a3 3e
       0.2795722 0.33171815 0.38093165 0.3190139
000160 83 b7 3e 3e 19 cc 9d 3e 5a dd 82 3e c7 86 8e 3e
       0.18624692 0.30819777 0.25559503 0.27837202
000170 fa 22 9e 3e 7a bf a5 3e f0 ef 95 3e 38 b3 96 3e
       0.3088606 0.32372648 0.2928462 0.29433608
000180 12 56 9f 3e e3 85 9f 3e 2e eb 8e 3e 09 37 84 3e
       0.31120354 0.31156835 0.27913803 0.25823238
000190 ac bd 02 3f 38 5e f3 3e f9 43 15 3f 07 9c 13 3f
       0.51070666 0.4753282 0.58306843 0.57659954
0001a0 a5 8c d7 3e a8 72 f9 3e 63 4d 10 3f 04 6a 0f 3f
       0.4209949 0.48720288 0.5636808 0.5602114
0001b0 55 0a 07 3f 1b 46 ed 3e dc 4a 29 3f 94 98 01 3f
       0.5275014 0.4634255 0.6612985 0.5062344
0001c0 50 f8 0a 3f f5 2c 0b 3f 91 4b 14 3f 97 62 ec 3e
       0.54285145 0.54365474 0.57927805 0.46168968
0001d0 20 39 19 3f 1b 6b 06 3f b3 6c 16 3f 5a 18 12 3f
       0.5985279 0.5250718 0.5875961 0.5706841
0001e0 b8 c1 05 3f c8 fd 0f 3f 0a e9 06 3f ff 85 08 3f
       0.52248716 0.56246614 0.5269934 0.5332946
0001f0 42 c8 1b 3f e7 55 1e 3f ea 4a 08 3f 1c 43 e4 3e
       0.60852444 0.61849827 0.5323931 0.4458245
000200 88 f6 08 3f 8f 30 e7 3e 9f 63 0b 3f 76 8e 15 3f
       0.53501177 0.45154235 0.54448885 0.58420503
000210 0f 0b 0b 3f 01 7a fe 3e ca c5 1a 3f 73 ea 13 3f
       0.5431375 0.49702457 0.6045805 0.57779616
000220 fa 30 f5 3e c3 1c 06 3f 7a 5a 15 3f 3b ee 14 3f
       0.4788893 0.52387637 0.5834118 0.5817601
000230 54 5e e6 3e 35 bc df 3e b8 52 0a 3f 0e f5 0d 3f
       0.44993842 0.43698278 0.5403247 0.5545205
000240 dd 13 0d 3f cb 0c f5 3e 26 0e 0d 3f e8 45 05 3f
       0.55108434 0.47861323 0.55099714 0.52059793
000250 91 5d e7 3e 8d 09 15 3f b4 12 9f 3e ff ac 9b 3e
       0.45188573 0.582177 0.31068957 0.30405423
000260 bf 7f 8b 3e 5d 73 a3 3e 19 c8 a1 3e d1 7a a1 3e
       0.272459 0.31923953 0.31597975 0.31539014
000270 76 9d b6 3e 8c df af 3e b7 b5 c8 3e f2 32 d9 3e
       0.35667008 0.3435024 0.39201137 0.4242168
000280 13 d7 c8 3e 91 0b b7 3e 56 54 d6 3e 87 b8 c9 3e
       0.3922659 0.35751012 0.41861218 0.39398596
000290 b4 48 e2 3e 61 91 01 3f 16 e0 d4 3e 87 cc 01 3f
       0.44196093 0.50612456 0.41577214 0.5070271
0002a0 81 ba d0 3e 40 ae bc 3e 35 f2 ba 3e dc e5 ad 3e
       0.4076729 0.36851692 0.36512914 0.3396443
0002b0 fc 83 e1 3e eb 93 ac 3e 56 5f bb 3e 98 9f a4 3e
       0.4404601 0.33706602 0.36596173 0.3215301
0002c0 13 0a 9a 3e d5 62 ab 3e b7 4a ae 3e 20 e4 a2 3e
       0.3008581 0.3347384 0.34041378 0.3181467
0002d0 08 f3 a4 3e 61 25 a0 3e 8e bb b0 3e 86 32 b2 3e
       0.32216668 0.31278518 0.34518093 0.3480417
0002e0 ff 82 97 3e 3e 8c 95 3e ff d3 a0 3e 8d 6e 9b 3e
       0.2959213 0.2920856 0.3141174 0.3035778
0002f0 90 85 a1 3e 43 79 9b 3e a4 8e 9e 3e 52 c5 8d 3e
       0.31547213 0.30365953 0.309682 0.27689606
000300 8a b5 83 3e 22 ce 9c 3e 9c 45 94 3e 85 1c bd 3e
       0.2572444 0.30626017 0.28959358 0.3693582
000310 4d 1f b1 3e 1e d4 d1 3e 28 ba a6 3e 0e 09 a6 3e
       0.34594193 0.40982145 0.325639 0.32428783
000320 4a 8d 7f 3d 8e 74 54 3d da e8 80 3d b1 2c 75 3d
       0.062390603 0.051868968 0.06294413 0.059857074
000330 d5 e7 4f 3d b1 17 7e 3d 93 cb 9a 3d 72 c6 86 3d
       0.0507582 0.062034313 0.0755836 0.06580819
000340 51 b4 59 3d c7 a1 55 3d 5b e3 84 3d 88 71 84 3d
       0.05315048 0.052156236 0.06488677 0.06466967
000350 f7 44 7e 3d 4f 85 5d 3d ef 97 59 3d a7 33 64 3d
       0.06207749 0.05408221 0.05312341 0.055713322
000360 75 9f 8f 3d 1f ac 85 3d 3e 55 6f 3d 3d 8c 80 3d
       0.07012836 0.0652697 0.058430903 0.06276748
000370 87 cb 72 3d 24 d6 68 3d c9 ff 69 3d 5a 0a 90 3d
       0.05927613 0.056844845 0.0571287 0.070332244
000380 c3 15 75 3d cf 32 54 3d 2e 15 83 3d bd 85 3d 3d
       0.059835207 0.051806267 0.06400524 0.04627012
000390 a7 fb 82 3d 3e dd 6c 3d 86 10 8b 3d ca 43 6a 3d
       0.06395655 0.05782818 0.06790261 0.057193555
0003a0 13 d1 7d 3d bd 10 7a 3d b5 9c 79 3d 4d 2e 3c 3d
       0.061966967 0.06105112 0.060940463 0.045942593
0003b0 30 3b 81 3d e2 39 8d 3d bf fd 99 3d 6a 55 8e 3d
       0.06310117 0.06895806 0.07519101 0.06949885
0003c0 b5 03 59 3d cb 87 4b 3d aa be 6f 3d d3 d4 42 3d
       0.05298205 0.04969005 0.05853144 0.047566246
0003d0 86 e6 6e 3d 4b 35 86 3d 03 a5 68 3d f3 e3 81 3d
       0.058325313 0.065531336 0.056797992 0.06342306
0003e0 ad fb a2 3d 8c d3 77 3d 5f 34 23 3e 0f 97 19 3e
       0.079581596 0.06050448 0.15937947 0.1499903
0003f0 39 b0 20 3e 7a 3b 12 3e 84 bb 22 3e 04 0b 1f 3e
       0.15692224 0.14280501 0.15891844 0.15531546

exp_avg f4 [16]
000000 e9 21 2e 33 44 98 fc b3 24 c5 c4 33 56 05 e9 33
       4.0543373e-08 -1.17623614e-07 9.162821e-08 1.08508786e-07
000010 7a 02 b6 32 20 4f 0e 34 63 94 ba b3 f6 73 ac b3
       2.1188715e-08 1.3253566e-07 -8.688291e-08 -8.030467e-08
000020 05 4e 67 34 de 45 6c b3 2a fb c0 b3 80 b9 8d 33
       2.1541935e-07 -5.5011576e-08 -8.986383e-08 6.5995664e-08
000030 8c d2 f5 b2 ff 03 92 32 f5 9a 5e b3 92 b1 d9 33
       -2.86175e-08 1.6998454e-08 -5.1829335e-08 1.013715e-07

exp_avg_sq f4 [16]
000000 d6 3a 0c 2a 66 36 82 2b b8 a3 fc 2a dd f2 ef 2a
       1.2454911e-13 9.252154e-13 4.4877795e-13 4.262345e-13
000010 43 83 28 2a 8b b3 75 2a 19 c4 21 2a 55 84 50 2b
       1.4966938e-13 2.1822663e-13 1.4367708e-13 7.408009e-13
000020 09 97 66 2b 63 10 b4 2a 1d 94 9b 2a 76 7e f8 2a
       8.192202e-13 3.1985794e-13 2.7636305e-13 4.41414e-13
000030 1d e2 f1 29 f0 19 df 2a 88 13 3e 2b 46 d0 ca 2a
       1.07417744e-13 3.9630755e-13 6.7528665e-13 3.6026927e-13

exp_avg f4 [16]
000000 e0 0c 7c bd f9 d1 19 bf a5 61 0e 3f fc bd 79 3e
       -0.061535716 -0.6008602 0.55617744 0.2438888
000010 b6 22 85 bc 8b f7 02 bd 64 d5 a9 bd 0d cd 30 3e
       -0.016251903 -0.031974357 -0.08292654 0.1726572
000020 c0 50 e3 3e 0f 67 93 3e 67 51 d5 be 51 ce 1d 3e
       0.44397545 0.28789565 -0.41663668 0.15410735
000030 4b 2e 06 3e 67 0d 59 3e 21 a1 87 bd 24 e6 a5 bc
       0.13103597 0.21196519 -0.0662253 -0.020251341

exp_avg_sq f4 [16]
000000 68 d2 0c 3e 86 57 f4 3f a6 ce 6f 3f 4d 1f 5c 3e
       0.13752139 1.908921 0.93674695 0.21496315
000010 3d 8b 1e 3e b2 95 94 3e 51 57 8c 3e 41 b6 8f 3f
       0.15482803 0.29020458 0.27410367 1.1227494
000020 3f b9 ef 3f df f3 aa 3e 0e f2 b6 3e 5d e6 3d 3f
       1.8728408 0.33389184 0.35731548 0.7417963
000030 ec 89 80 3e 81 94 34 3f 5b c3 4b 3f f5 e1 57 3f
       0.25105226 0.705391 0.79594964 0.8432916

exp_avg f4 [16]
000000 0e d4 a5 bc 4a 18 e8 bd e4 29 4f 3e 91 05 c6 3d
       -0.020242717 -0.11332758 0.20230824 0.096690305
000010 68 a1 3f 3d 64 6b 0c 3d db f4 82 bb 62 69 ab 3c
       0.04678479 0.034282103 -0.003996474 0.020924274
000020 97 ed 96 3e a5 9e e7 3d 83 04 1b 3d f7 16 20 3d
       0.29478142 0.11309556 0.0378461 0.0390844
000030 f3 ee 61 bc 87 1c 49 3e 50 57 01 3d c1 f5 14 3e
       -0.01378988 0.19639789 0.03157741 0.14546873

exp_avg_sq f4 [16]
000000 f3 c6 ed 3c 65 bc 0b 3e d8 43 5b 3e 0f ad 76 3d
       0.02902553 0.13646086 0.21412599 0.060223635
000010 d4 3e 02 3d 71 9f 9d 3d 17 59 29 3d ce e0 66 3e
       0.0317982 0.07696427 0.04134473 0.22546694
000020 2e 6f f3 3e 57 51 39 3d c9 b5 f0 3d b5 0d 21 3e
       0.4754576 0.045243587 0.11753423 0.15727885
000030 d8 9a 49 3d 86 1f 37 3e 22 97 4c 3e 14 b4 4a 3e
       0.049219936 0.17883119 0.19979528 0.19795257
