src/params.pth (torch, 412117 bytes, 43 tensors)

emb.spatial_conv.weight f4 [2, 1, 2, 1]
00000000: 5b01 0000 b100 0000 0500 0080 2100 0080
4.86e-43 2.48e-43 -7e-45 -4.6e-44

emb.spatial_conv.bias f4 [2]
00000000: e900 0080 bc00 0080
-3.27e-43 -2.63e-43

emb.feature_extractor.0.weight f4 [16, 1, 1, 50]
00000000: 9e05 0080 0b03 0000 2f03 0000 c407 0000
00000010: 3500 0000 1504 0000 0500 0080 3e08 0000
00000020: 2d00 0080 3c05 0000 6009 0080 ae03 0000
00000030: d905 0080 a700 0080 9704 0080 0505 0000
00000040: 0705 0000 6f00 0080 3604 0080 4a07 0080
00000050: f400 0000 7a02 0080 2d02 0080 b904 0080
00000060: 6305 0080 1305 0000 6507 0000 9703 0000
00000070: 7207 0080 5e06 0000 ad08 0000 4508 0000
00000080: 7404 0080 d602 0000 7f05 0080 3505 0080
00000090: fa07 0080 b201 0080 b605 0080 a208 0000
000000a0: ab06 0000 9b04 0080 7606 0080 6f00 0000
000000b0: 6b07 0000 4805 0080 4903 0000 8906 0080
000000c0: a100 0000 d805 0000 d4f9 f938 712a 5438
000000d0: 17cb 84a8 3a9a aa34 ca4e bb32 94ab 5b29
000000e0: a37c edac 9fbe 5b30 f9bf a12a 3506 2fac
000000f0: bc40 42a6 ab54 90b8 c835 1c35 3dee b72e
00000100: bcbf 9ca5 9b83 6f28 962e d0b2 5dac e426
00000110: f708 79ac 49a8 88aa d0e2 b9ad e07a 8334
00000120: 7a78 a219 7eb6 7b19 001e a024 0ecd cd35
00000130: bfd2 ffb6 d4a3 2122 2d96 93ae d02f 8eb6
00000140: 9610 052f acf4 8d2d 45d6 b7a7 e445 8e2e
00000150: fa8c 66a4 ff3a 8fb3 a614 f531 7950 a0a8
00000160: cde6 2222 2f73 69a8 d725 b7b1 1ef9 36ac
00000170: da37 8f24 d820 7536 061e 312d 902d 80ac
00000180: 439a 5b28 836d 98b6 d920 4bb1 db9d 6534
00000190: ea27 ff31 f3f0 8ab1 d9fa 05b6 13d2 c5b6
000001a0: 843c 9db1 b518 8835 5e36 8429 2d11 f12e
000001b0: da78 522c e08a d32f e87f 17b2 72eb b8ab
000001c0: c1f5 7032 ddb3 9635 5413 8831 3509 bdb3
000001d0: bb4c 1db2 c13b 0431 5723 8bb8 39a5 9c2d
000001e0: 375e 9332 eeb4 0db6 0d04 0c34 e359 cbb4
000001f0: a2fe bb2e 9f4c c6af d481 e233 a154 9ab2
00000200: 1136 ca2e d588 f735 4f82 36af 4cf0 3eb8
00000210: 6651 5729 c8cd e230 7688 2dab bdec 0f31
00000220: f762 1c36 d45e ccb7 87e9 07a9 e2ea fc2d
00000230: b1ca 4ab6 08f2 f9b0 6900 6e34 676a 52b2
00000240: d1e2 c1b2 66ed 35b7 d91c 4130 6db6 9228
00000250: e1ab 34ac 5be9 e4ae 5c8f a1b4 6bd3 8fab
00000260: e35d dab0 854b e6af 342d f12e f13f 15b0
00000270: 4b77 f8b5 6313 8333 e584 452b 1d6f 992a
00000280: 4c11 90b2 f874 61ad 17de 84af bbcb a2b6
00000290: 2514 1533 f574 852c 261e 26b2 8fe8 30ae
000002a0: e789 84ac aef2 5aae 9113 09b8 4951 cf2d
000002b0: 43e3 9eb3 266d 30b8 783e 4db7 c1c5 1a38
000002c0: 7818 902e 0a58 3036 64a0 4db0 0d07 1b36
000002d0: e770 3bb6 b6e5 a733 db0b 45b1 3d24 da35
000002e0: 6b53 57b7 c11f 552d 8570 632e 2cce 6eab
000002f0: f90a 292d a6fe 3037 29c1 30b7 38a0 a832
00000300: 72db d72e 0a95 c137 2783 55b6 e228 8d35
00000310: 7977 61b5 f191 b22f 3b62 d42a 3527 d6b3
00000320: f762 6fb3 214c b32b 0b10 f1b6 2a6a 5e2d
00000330: f4e5 1bb4 8d95 59af e732 58b7 1af1 14aa
00000340: 1f6a fdac de62 3c34 b0dd 23b7 2cbb f0b1
00000350: 8f66 f12e 5d85 9231 d573 042d 0d91 5eaa
00000360: 9cbc 0234 d01a 18ae 0900 652b 99d6 32ac
00000370: 9a14 2fb4 587a 48ab d5d2 2638 4150 c02a
00000380: 9917 4d33 7799 0c2b 7de3 a2aa 12b4 a5b3
00000390: 0383 87b1 36aa 4d32 d45e 8aac b2b8 a2b8
000003a0: dea8 cab1 d5f1 d434 9df4 50af 61d2 e02a
000003b0: 3209 78ae 3e51 12b8 31fd b0ac 9d42 492b
000003c0: 9942 88b4 e91f 45b5 7096 f536 c80b 0cb2
000003d0: 2513 14b7 7bfb 32b7 dff9 4729 7489 8faf
000003e0: 68de 35ab 087b 31b3 6f07 0000 6605 0080
000003f0: 5f05 0080 4e08 0080 bb05 0080 0304 0080
-2.015e-42 1.092e-42 1.142e-42 2.786e-42 7.4e-44 1.464e-42 -7e-45 2.957e-42
-6.3e-44 1.878e-42 -3.363e-42 1.32e-42 -2.098e-42 -2.34e-43 -1.647e-42 1.8e-42
1.803e-42 -1.56e-43 -1.51e-42 -2.615e-42 3.42e-43 -8.88e-43 -7.8e-43 -1.694e-42
-1.932e-42 1.82e-42 2.653e-42 1.288e-42 -2.671e-42 2.284e-42 3.112e-42 2.967e-42
-1.597e-42 1.017e-42 -1.972e-42 -1.868e-42 -2.861e-42 -6.08e-43 -2.049e-42 3.097e-42
2.392e-42 -1.652e-42 -2.318e-42 1.56e-43 2.661e-42 -1.895e-42 1.178e-42 -2.344e-42
2.26e-43 2.096e-42 0.00011919779 5.0584265e-05 -1.474302e-14 3.1777182e-07 2.1805494e-08 4.877659e-14
-6.7497826e-12 7.9942625e-10 2.8732553e-13 -2.4872441e-12 -6.7395e-16 -6.882226e-05 5.819279e-07 8.364196e-11
-2.719161e-16 1.32957025e-14 -2.4235572e-08 1.5867397e-15 -3.5390005e-12 -2.4275224e-13 -2.113279e-11 2.4490055e-07
1.6799068e-23 1.301325e-23 6.943976e-17 1.5333369e-06 -7.6241263e-06 2.1906299e-18 -6.7114626e-11 -4.237496e-06
1.2102172e-10 1.61385e-11 -5.1025015e-15 6.4698275e-11 -4.9992712e-17 -6.669688e-08 7.132786e-09 -1.7798468e-14
2.2077279e-18 -1.2959075e-14 -5.330303e-09 -2.6002043e-12 6.211098e-17 3.6526963e-06 1.0067952e-11 -3.6430373e-12
1.2190392e-14 -4.542702e-06 -2.955906e-09 2.1384714e-07 7.4260145e-09 -4.0437214e-09 -1.9964557e-06 -5.8955134e-06
-4.576181e-09 1.013998e-06 5.871409e-14 1.0962462e-10 2.990988e-12 3.8479353e-10 -8.818439e-09 -1.3139336e-12
1.4025717e-08 1.1228218e-06 3.9603183e-09 -8.802673e-08 -9.156049e-09 1.9242494e-09 -6.634619e-05 1.780852e-11
1.7155896e-08 -2.1115952e-06 1.303999e-07 -3.7877098e-07 8.549007e-11 -3.6070433e-10 1.0547561e-07 -1.7966444e-08
9.1955006e-11 1.8442757e-06 -1.6599098e-10 -4.5523324e-05 4.7810192e-14 1.6502151e-09 -6.1651324e-13 2.094381e-09
2.3303417e-06 -2.4362853e-05 -3.0178574e-14 2.8753392e-11 -3.0218328e-06 -1.8185924e-09 2.2165626e-07 -1.2247802e-08
-2.2571301e-08 -1.0843714e-05 7.0253986e-10 1.628837e-14 -2.567495e-12 -1.0409692e-10 -3.0092895e-07 -1.0219441e-12
-1.5888272e-09 -4.1890416e-10 1.0967441e-10 -5.429675e-10 -1.8512159e-06 6.103689e-08 7.017289e-13 2.725536e-13
-1.6771672e-08 -1.28157415e-11 -2.4168464e-10 -4.8516936e-06 3.4710087e-08 3.793072e-12 -9.669327e-09 -4.022432e-11
-3.766976e-12 -4.9783004e-11 -3.2681568e-05 2.3569273e-11 -7.398787e-08 -4.2063322e-05 -1.2233497e-05 3.6900634e-05
6.5527084e-11 2.627729e-06 -7.4806494e-10 2.3100904e-06 -2.793089e-06 7.818328e-08 -2.8674012e-09 1.6252812e-06
-1.2834421e-05 1.2114699e-11 5.1713762e-11 -8.4840707e-13 9.608974e-12 1.0549707e-05 -1.0535391e-05 1.9630633e-08
9.8160494e-11 2.3076795e-05 -3.1815814e-06 1.0517217e-06 -8.399289e-07 3.248171e-10 3.7726926e-13 -9.972283e-08
-5.5736532e-08 1.2739845e-12 -7.1842273e-06 1.2642812e-11 -1.4519156e-07 -1.9789166e-10 -1.2886455e-05 -1.322869e-13
-7.2024743e-12 1.7544832e-07 -9.767173e-06 -7.0061983e-09 1.0977629e-10 4.264321e-09 7.529051e-12 -1.9767886e-13
1.2175809e-07 -3.4584613e-11 8.135719e-13 -2.5414447e-12 -1.630564e-07 -7.122406e-13 3.9773837e-05 3.416174e-13
4.7751744e-08 4.9950967e-13 -2.8934833e-13 -7.716166e-08 -3.9439114e-09 1.1971272e-08 -3.932724e-12 -7.759164e-05
-5.8981717e-09 3.9664033e-07 -1.9004394e-10 3.9936373e-13 -5.639684e-11 -3.4884775e-05 -5.0303308e-12 7.150199e-13
-2.538043e-07 -7.3434654e-07 7.319082e-06 -8.151751e-09 -8.825945e-06 -1.0668179e-05 4.4403605e-14 -2.6109215e-10
-6.461277e-13 -4.132292e-08 2.667e-42 -1.937e-42 -1.927e-42 -2.979e-42 -2.056e-42 -1.439e-42

emb.feature_extractor.0.bias f4 [16]
00000000: 1f48 882e 185c 7d36 532c bcb2 d489 6f2b
00000010: 4a53 5db7 ca0b 62aa a90a de29 30e2 6eb1
00000020: 0deb 33b5 5755 a535 4793 b834 b963 c829
00000030: 8b35 8937 29e0 3231 67a5 e12a 0a7d 5536
6.197375e-11 3.7753543e-06 -2.1906237e-08 8.510113e-13 -1.3192019e-05 -2.0076922e-13 9.86063e-14 -3.476213e-09
-6.702474e-07 1.2318295e-06 3.437983e-07 8.899083e-14 1.6356606e-05 2.602983e-09 4.00828e-13 3.1812256e-06

emb.feature_extractor.1.weight f4 [16]
00000000: 3100 0080 0b0f 0080 1c3f 7733 0c81 fc2c
00000010: db1c 8c2f 4d77 9508 c965 58af 5f12 66ae
00000020: 8acc ac98 e7de 7ea2 7057 702b b302 0000
00000030: c3ea cc8e 4524 28ac f640 168c d7d9 fe2c
-6.9e-44 -5.396e-42 5.7566567e-08 7.176598e-12 2.5486355e-10 8.995659e-34 -1.9681247e-10 -5.2312262e-11
-4.466749e-24 -3.4541422e-18 8.538647e-13 9.68e-43 -5.051595e-30 -2.389437e-12 -1.1575128e-31 7.2432993e-12

emb.feature_extractor.1.bias f4 [16]
00000000: 8f75 019b 6a00 229b a789 27b1 1dd6 78a9
00000010: ba0b e1a6 dbe3 1ca4 243a 92a4 1fc0 67af
00000020: f9b4 5538 4385 f43b 4437 12a5 f5ad dfa2
00000030: 221b 9722 8e7c 38a5 3410 0ca6 8290 64a2
-1.0708615e-22 -1.340046e-22 -2.4379945e-09 -5.5252776e-14 -1.561569e-15 -3.402011e-17 -6.34159e-17 -2.1077583e-10
5.09517e-05 0.007462175 -1.2682206e-16 -6.0628455e-18 4.095736e-18 -1.6001657e-16 -4.8594217e-16 -3.0976264e-18

emb.feature_extractor.1.running_mean f4 [16]
00000000: 690b c7ac 7000 aeb4 c821 3231 ced2 bca9
00000010: 6c86 f0b5 4bac a528 c8ca d628 a0a7 032d
00000020: c73b 3134 6051 ffb3 fd56 01b3 3cd5 1328
00000030: 5217 9ab5 07d8 30af a031 6ca9 4e7a dfb4
-5.657187e-12 -3.2410344e-07 2.5921612e-09 -8.385446e-14 -1.7920515e-06 1.83934e-14 2.3846715e-14 7.483708e-12
1.6506156e-07 -1.1889165e-07 -3.011427e-08 8.206377e-15 -1.1480681e-06 -1.6083855e-10 -5.244557e-14 -4.1625975e-07

emb.feature_extractor.1.running_var f4 [16]
00000000: c173 5301 c249 6414 a624 930e 81b6 1e00
00000010: b6ea 9519 c1d8 0400 88ae c000 d11b 160d
00000020: dbb2 da14 ecaa 4613 5ed1 070f 838f 8b00
00000030: 07e6 9217 008b 9f0b 9f12 0c00 24a6 9615
3.883763e-38 1.15256045e-26 3.627359e-30 2.820535e-39 1.5501038e-23 4.45099e-40 1.7695025e-38 4.62558e-31
2.208292e-26 2.5075384e-27 6.6963365e-30 1.2816616e-38 9.493096e-25 6.1453716e-32 1.108706e-39 6.084664e-26

emb.feature_extractor.4.weight f4 [16, 16, 1, 50]
00000000: b2f4 5e36 646d 01b4 b573 52b2 1ed8 b3b1
00000010: 253d a92c 3ba1 0132 950a 1f33 308b 9033
00000020: 8ba2 02af aa16 bc32 526f 51b2 a715 1b30
00000030: ef14 cd31 cb0d 792f e796 c62d 7463 3935
00000040: e7a7 caab 9e24 19b4 8bfc 2ab4 32be 37af
00000050: 4ede d132 9cc9 a7b4 f22d 02b8 bd20 0a2c
00000060: 0ae5 95b2 ab24 0c2e 6184 25af 39c0 1eaf
00000070: f5ef 2f32 fda1 09a7 c48a beb5 a4cc f22e
00000080: 4469 d432 3039 bc2f 01d8 2037 0d79 9fb4
00000090: 94c8 18b1 2039 a832 26dd 00b7 0025 242f
000000a0: 9bcf 1bad 23f4 dd32 eaad 6fb2 1f19 c632
000000b0: b33a 2fab 9eb1 a434 d199 0bb5 b570 43b8
000000c0: a713 4eb6 f962 d835 e5a7 7fb1 7029 bab0
000000d0: 02b2 2b32 488b ba33 11d3 7f2e 5099 44af
000000e0: b30b 1ab2 d09f 24b2 908e 64af 03b6 5cb2
000000f0: 4fba 7d2c 0cd7 152a 422e 1234 1d49 bdb1
00000100: 5961 b12a 7a79 cb31 1e58 7fb4 1da8 83b7
00000110: 0d36 4031 08d0 b634 4091 472a 44f5 7cb1
00000120: 3fd0 8d32 bb3b 7fb2 4c7c 1b30 fc15 44ae
00000130: 399d 8cac 3db0 49aa 6f2b e52a 360d b630
00000140: b45b f227 e6db 0532 0d3c f0b0 ad3a c82e
00000150: 5c3d 1a2a fea2 8e34 bc7b c9b5 5ae3 abab
00000160: 268c 9bb0 a659 dab0 c55c e82d 2e53 af30
00000170: 124f cdb2 d1eb b42e 4928 b62f 7782 83ab
00000180: 0d90 8f2e 829c beb5 8006 5d30 bae6 75b0
00000190: 6f3c 5735 8605 3530 92d2 b836 c4d7 1736
000001a0: f96f fe2f 3225 2134 a3a2 dbb3 417c 56aa
000001b0: 7996 3231 8579 09b3 3fc3 efb0 690c 342d
000001c0: b3a8 51b6 6097 ec2f cf29 73ad f65c 6636
000001d0: 6f35 f7ab ceaf fe31 f7d4 b431 9a13 afad
000001e0: b520 ea36 441e e9ae 20f9 a5b2 2331 8daa
000001f0: 8aa5 a72d 0634 6931 a1d2 cfb3 37ad 28b3
00000200: 8582 6c33 b088 9aa9 7445 9cae 014a 35b1
00000210: 735d 99ae 7ccb 88b7 0eb6 5fab d156 94b4
00000220: bab1 1933 69b4 27ae c287 512f 1227 032f
00000230: 54cd 15ad fe77 8638 0e1f 9c31 e881 fdaf
00000240: 0fa3 2632 29b1 3c31 3c55 3f33 25df 0031
00000250: 94b2 80b1 921c deaf 8a0f 5e28 6a82 5faa
00000260: 23a6 73b8 d524 c433 b2bd ca36 3eef bd29
00000270: 9b7d 862a 7915 382a 3e2d a234 6647 472c
00000280: c853 1d36 4df4 f2b4 ba7f dca9 1006 53b4
00000290: 465f 48b4 3ae3 922b a68a eeb4 659a ea2f
000002a0: d110 13af 57c2 5429 c906 91aa 0cb9 312c
000002b0: 8c92 6736 70c8 172d 47af fa31 bb11 2dac
000002c0: 302c 6aae f045 4531 9746 d1b1 44f3 e8b5
000002d0: 8035 1032 43db 1730 fd1d 2137 35b0 f930
000002e0: 7717 3130 d8f4 aab4 6aac 10b3 65f5 dd29
000002f0: 1fd6 56ac ae66 32b4 1f41 b1b3 2865 9430
00000300: bb7e fdad 7428 51a8 144c 9638 9f16 1529
00000310: 9a7e b4b2 b1ca 3133 62e1 42ab fbc1 eb35
00000320: abf8 2cac 74f3 9aaf 87e4 2c2d 4375 5fb7
00000330: 3ac5 36b0 884b ddaa 0f8a 69ac 4d86 b737
00000340: 4594 d032 53c8 80b0 796f 1b33 7b01 5c37
00000350: 0a13 442e 6afb fb2c 0312 54b2 99e1 8f35
00000360: 1ba2 23b8 5bb5 77ae db7f 332e 858d b336
00000370: 7927 6530 6339 7435 345d 0d36 8018 11ae
00000380: 864a 3237 c808 39ac 8f42 5532 61d0 55b2
00000390: afa9 98b3 2bdf 5729 4be1 0bb6 3387 83ac
000003a0: 005f 462c 30ab 1f2b 0a55 ecb5 b913 88aa
000003b0: c56c 32ae 2ffe fc33 055f b4ad 6aad 582f
000003c0: c826 ccb2 3fef f82b 0491 9caf afe6 e7ae
000003d0: 8a9b 3c32 8304 5eb3 342e d4b3 0afe c3ad
000003e0: 3d35 6eb6 76b7 9930 3411 4d2b c0f6 67a6
000003f0: 62d7 1aa4 b399 c62b 6a43 5f24 0a31 15a8
3.322301e-06 -1.2053857e-07 -1.22499175e-08 -5.2341553e-09 4.8100573e-12 7.545448e-09 3.7029697e-08 6.7308406e-08
-1.1881178e-10 2.1896387e-08 -1.2190712e-08 5.641944e-10 5.968665e-09 2.2651318e-10 2.2577008e-11 6.9062594e-07
-1.4399566e-12 -1.4262557e-07 -1.5924358e-07 -1.6711324e-10 2.4431895e-08 -3.1252864e-07 -3.1037205e-05 1.9629153e-12
-1.7450038e-08 3.1864882e-11 -1.5053693e-10 -1.4438307e-10 1.0240901e-08 -1.9100383e-15 -1.4196489e-06 1.10412374e-10
2.4727917e-08 3.4237635e-10 9.5870355e-06 -2.9704134e-07 -2.2232927e-09 1.9583752e-08 -7.680885e-06 1.4928858e-10
-8.856828e-12 2.5838807e-08 -1.3951174e-08 2.3061657e-08 -6.225395e-13 3.0676614e-07 -5.200537e-07 -4.659659e-05
-3.0707831e-06 1.6122059e-06 -3.720282e-09 -1.3545058e-09 9.993984e-09 8.686635e-08 5.8167752e-11 -1.7880564e-10
-8.96664e-09 -9.5823935e-09 -2.0787128e-10 -1.284707e-08 3.6056884e-12 1.3308468e-13 1.3614138e-07 -5.508936e-09
3.1509065e-13 5.921888e-09 -2.3780782e-07 -1.56947e-05 2.7970402e-09 3.4051504e-07 1.7725144e-13 -3.6810244e-09
1.650926e-08 -1.4856535e-08 5.656531e-10 -4.4584766e-11 -3.9964945e-12 -1.7913531e-13 4.070871e-13 1.3245998e-09
6.7267918e-15 7.791618e-09 -1.7479366e-09 9.10537e-11 1.3699236e-13 2.6568154e-07 -1.5011678e-06 -1.2213384e-12
-1.1317567e-09 -1.5887067e-09 2.6416544e-11 1.2756567e-09 -2.3901098e-08 8.227342e-11 3.3134231e-10 -9.344321e-13
6.528476e-11 -1.4201653e-06 8.040857e-10 -8.9458363e-10 8.0181684e-07 6.5855266e-10 5.508141e-06 2.2626346e-06
4.6281892e-10 1.5007825e-07 -1.02275656e-07 -1.9050127e-13 2.5987943e-09 -3.200832e-08 -1.7445031e-09 1.0234571e-11
-3.1241623e-06 4.3035708e-10 -1.3822234e-11 3.432678e-06 -1.7565236e-12 7.4123596e-09 5.262901e-09 -1.9903901e-11
6.977551e-06 -1.06009895e-10 -1.9321817e-08 -2.5080727e-13 1.9059216e-11 3.3935534e-09 -9.677502e-08 -3.9273086e-08
5.506674e-08 -6.862685e-14 -7.106396e-11 -2.6381033e-09 -6.9742344e-11 -1.6307218e-05 -7.9478167e-13 -2.7630315e-07
3.578473e-08 -3.813164e-11 1.905667e-10 1.1928261e-10 -8.515261e-12 6.411968e-05 4.543728e-09 -4.6112736e-10
9.699547e-09 2.7458305e-09 4.4548173e-08 1.8753294e-09 -3.7455923e-09 -4.0401865e-10 1.2326845e-14 -1.9851625e-13
-5.809044e-05 9.133661e-08 6.0421526e-06 8.434788e-14 2.3890338e-13 1.6349933e-13 3.020777e-07 2.8319235e-12
2.344359e-06 -4.5253765e-07 -9.7921196e-14 -1.9653112e-07 -1.8661112e-07 1.0436992e-12 -4.4431835e-07 4.2674056e-10
-1.3375547e-10 4.724202e-14 -2.5761882e-13 2.5255934e-12 3.4506984e-06 8.627862e-12 7.2958843e-09 -2.459462e-12
-5.3244686e-11 2.8707028e-09 -6.0907257e-09 -1.7356147e-06 8.394068e-09 5.524507e-10 9.60333e-06 1.8167216e-09
6.442557e-10 -3.1843115e-07 -3.3684422e-08 9.856941e-14 -3.053009e-12 -1.6614896e-07 -8.25405e-08 1.0797168e-09
-2.881905e-11 -1.16106025e-14 7.166728e-05 3.3104267e-14 -2.101233e-08 4.139537e-08 -6.9235427e-13 1.756532e-06
-2.4580709e-12 -2.818542e-10 9.827811e-12 -1.3319138e-05 -6.649149e-10 -3.9309896e-13 -3.318793e-12 2.1877839e-05
2.4281812e-08 -9.370161e-10 3.6190134e-08 1.3113367e-05 4.458215e-11 7.1617616e-12 -1.23441195e-08 1.0719988e-06
-3.90132e-05 -5.6322374e-11 4.0813446e-11 5.3510907e-06 8.336581e-10 9.098059e-07 2.1064889e-06 -3.2990943e-11
1.0626978e-05 -2.6294956e-12 1.24133654e-08 -1.2445612e-08 -7.108917e-08 4.7933157e-14 -2.0843752e-06 -3.738254e-12
2.8190228e-12 5.672572e-13 -1.760812e-06 -2.4172138e-13 -4.056912e-11 1.17809e-07 -2.0505828e-11 1.9706695e-10
-2.3766361e-08 1.7687864e-12 -2.8479274e-10 -1.05456414e-10 1.0978406e-08 -5.1692506e-08 -9.8804236e-08 -2.228175e-11
-3.5495752e-06 1.1184358e-09 7.2854505e-13 -8.0478633e-16 -3.3575863e-17 1.4111406e-12 4.841252e-17 -8.281795e-15

emb.feature_extractor.4.bias f4 [16]
00000000: 12d9 b0b7 dca5 f92b 969b 3bab c437 8634
00000010: ad86 e3af 71c3 a12a b5cc 3cb2 ee92 2133
00000020: bae9 912e 3802 a72f 5d63 252f c586 3e33
00000030: 8b68 9cae 627a 0634 27f0 eab1 ec8a a92e
-2.1081916e-05 1.7738549e-12 -6.6651665e-13 2.500002e-07 -4.1386752e-10 2.873496e-13 -1.0989585e-08 3.7619365e-08
6.635355e-11 3.03787e-10 1.5041964e-10 4.4360394e-08 -7.112629e-11 1.2524245e-07 -6.8375985e-09 7.709908e-11

emb.feature_extractor.5.weight f4 [16]
00000000: 50ec 4426 fd4a 1c35 d482 28b5 4735 7430
00000010: 7f22 0535 08a9 ffb3 6c86 9a35 6661 abb3
00000020: 3c56 5534 7846 b428 cb8a 4638 bfa2 3835
00000030: bd0b 8ab8 89aa b134 2480 8c30 3da6 043d
6.8321423e-16 5.822365e-07 -6.2775257e-07 8.8842395e-10 4.959656e-07 -1.19051094e-07 1.1513016e-06 -7.980525e-08
1.9868543e-07 2.0014575e-14 4.733614e-05 6.878217e-07 -6.582539e-05 3.30929e-07 1.022276e-09 0.0323851

emb.feature_extractor.5.bias f4 [16]
00000000: 5de7 5231 567a 97b4 3b59 482e e720 f531
00000010: 867c 85ad e417 17b1 b87c a5ae 25ad 84ad
00000020: c4b6 ccb2 c2af d7af 265d 51ac ce3c 052d
00000030: 5844 2133 13c9 17b0 3149 31b0 e787 d138
3.0690537e-09 -2.8214953e-07 4.5553988e-11 7.134179e-09 -1.5175649e-11 -2.1986972e-09 -7.525486e-11 -1.5083554e-11
-2.3831838e-08 -3.9233156e-10 -2.9752394e-12 7.573676e-12 3.7547892e-08 -5.5219224e-10 -6.4496236e-10 9.9912104e-05

emb.feature_extractor.5.running_mean f4 [16]
00000000: 098e ef35 3a77 0db4 ae3b 3133 430f 0db4
00000010: a100 e7b3 6938 1334 07b8 3333 0f28 0132
00000020: dea9 e6b2 383f e633 cfa1 09b3 048f 09b4
00000030: 64f8 42b3 5dc0 efb2 85cc 99b3 7c39 a2b7
1.7848225e-06 -1.3175023e-07 4.1265302e-08 -1.31372e-07 -1.075689e-07 1.3710964e-07 4.1844057e-08 7.5178965e-09
-2.685277e-08 1.0721709e-07 -3.2044962e-08 -1.2811148e-07 -4.5395055e-08 -2.7910739e-08 -7.1618196e-08 -1.9338673e-05

emb.feature_extractor.5.running_var f4 [16]
00000000: 7388 8e22 9a8d c629 36ce 4829 8db5 2929
00000010: cfe2 dc29 be11 0b2a b762 8929 e262 ff28
00000020: b00c 0129 f6a9 5729 a4bc 2429 8c1c c529
00000030: 8918 5b29 6ae1 6f29 3407 dd29 0e8f 402d
3.863365e-18 8.81753e-14 4.458778e-14 3.768301e-14 9.8093076e-14 1.2351836e-13 6.1011465e-14 2.835357e-14
2.865476e-14 4.7887008e-14 3.6578935e-14 8.7535095e-14 4.864905e-14 5.3264176e-14 9.815621e-14 1.0945701e-11

emb.fc.1.weight f4 [100, 192]
00000000: 85f9 dc2a b67d eca9 3774 4b2d c458 09b7
00000010: 3caf b5aa 0c24 c9aa 9938 422b 568c 3aab
00000020: c866 80ac 7c02 882b 7265 8e2c 6202 2a2a
00000030: f8ab b3b7 9b14 9b2d d861 3c2e e7d3 ccad
00000040: a956 70ae c4eb 0c2f 9d0e 37ad 8210 1db0
00000050: 7bf8 a2b7 61cd 4c38 252f 5b34 1fcc 3ab8
00000060: 3474 912a a494 a229 a4ce e729 78e8 3c28
00000070: e531 6c2a 1de0 c02a 2564 03aa 363e 98a8
00000080: cb24 86a7 4081 7d29 d31b 8aaa c687 9eaa
00000090: 9362 3bab c035 32ab 23ca 81ab 1b2d 2aaa
000000a0: a764 4fab 7218 03ab a241 a5aa 5c27 eaaa
000000b0: ea74 ca2a af3c f129 6377 14ab f8ba 8ea9
000000c0: 7b55 0d29 8a80 09a7 464b f327 9d55 a6a7
000000d0: fdb6 82a7 8836 c3a9 728b 3b29 d2b5 9728
000000e0: e019 9f26 7f7d c4a7 6bcf 8c28 5ffd 2929
000000f0: 4f5c 9f28 63af 45b5 3453 8e2a 6d4a 1aaa
00000100: 74e3 08ab 4963 052a c97a 022a f2f4 7dab
00000110: 9128 d9aa 26b9 6a2b 7dd3 882b 40f7 02ab
00000120: 9bc6 aa2a 1bef b2a8 b1bc 28aa e1ba e8aa
00000130: e7cf 9baa 77cd c32a fb78 3229 a92b bb2b
00000140: d93b 4c2a cc67 c52a 795e 9ca8 8b1f e830
00000150: fabc 1429 2a7e 6ba8 8ec0 56a7 6360 60a6
00000160: 034c f627 5ea3 23a8 e268 baa7 dbc7 2428
00000170: 2641 58a8 20fb 6c27 41c9 36a8 0a25 5ca8
00000180: 9573 7832 8a64 b92c ab81 362d 6305 9f33
00000190: 4c3c 6ab3 67be 2cad 566d 0436 9a79 0b37
000001a0: a96b ed35 b4b7 3f31 a860 a9b1 dcc7 142d
000001b0: 8c54 fda8 5611 212a 5b99 4c29 78c1 1830
000001c0: fe54 ff28 25ff 8b29 b88c 602a 61cd e0a9
000001d0: fe88 8028 e532 f429 2686 3d2a cdfb 412a
000001e0: 3910 992b fbe4 8d2a a0a0 9c28 7b3b 08a7
000001f0: e1f4 4e29 73b3 e6aa 590e fa2a ac83 1eac
00000200: 6cd4 f128 f846 f428 fc43 e7aa f77f 522a
00000210: 201f 8129 d407 9429 bcce 32a9 f4ba 66a9
00000220: cc3e dba8 1183 b2a9 9cae 7fa9 4bf5 eda8
00000230: a643 27a9 facd a8a8 314d 0f29 dafb d729
00000240: ce02 0737 9ffd edb6 354d 4d32 2b7d d82c
00000250: b25f ceab e3f6 eeab 494a 18ac 6a54 99ac
00000260: 4fa3 53b4 7e3b 48ad a370 862d 5df7 45b8
00000270: 2614 852a e9a6 3caa 4050 81ab e9eb 1f2b
00000280: d129 cd2a e580 092b c331 da28 5a3c 99a9
00000290: c30e 29ab cac4 10ab f476 052b ba8b 742b
000002a0: ab4c 94ab 7cb3 67ab 68f2 6f2b b506 9430
000002b0: 93a1 c72a 3f42 a728 7df3 f429 e715 5e2b
000002c0: 0ee8 25aa 317a 922a ad6f b6aa b9c8 7d2a
000002d0: 6337 8930 8dfa 632e 78ea 34b0 530b 56ae
000002e0: 63ed 1231 6da3 8935 4a3a 52b0 2d73 18b0
000002f0: f185 c5b0 0335 6bb0 7b57 67b0 45c5 16b5
00000300: 0571 4a22 2011 1c38 6941 02b6 6fde 2630
00000310: 757f 4f31 18ba 8dab 1439 cfa1 cd17 dcb7
00000320: 2fea 4ab6 1a77 09b0 d653 df2c 6bb4 5cae
00000330: ac11 f8b5 7a71 48b5 7d26 23b1 d52e 10b4
00000340: f391 5ab0 b1f3 9f32 4165 c92e ec57 d2ad
00000350: 9b0b a5b4 6efb 64ad 218c 33b4 3706 fc2d
00000360: d40c 1db5 6e4b c8ac ebbd e3b5 1061 10ab
00000370: 9739 062b eeae 4bac 58cd a12f c89c 35ab
00000380: 6c48 8cb1 b9bd c2ad 8062 252d c972 10b0
00000390: 79e5 5fb3 70da 252c 7af7 26b6 3e96 0b2d
000003a0: f1e4 81ad cf03 69b8 251e f3b7 88a4 92b7
000003b0: 4441 8e31 4506 8fb0 ebe5 dc2b 00a8 0a2d
000003c0: bd5a a933 bef2 142b abc3 ddab f8de 75b8
000003d0: 38bd 90b3 97f4 18b7 dcc2 07b7 c72e 2ab1
000003e0: a558 b5ab b4c9 df35 4333 702c 0b0a cab0
000003f0: 3186 842d 304f 2baf 85ab 8c2b b698 c332
3.925299e-13 -1.0502313e-13 1.1565019e-11 -8.186504e-06 -3.2273652e-13 -3.5729785e-13 6.900119e-13 -6.627523e-13
-3.64939e-12 9.664071e-13 4.0471454e-12 1.509986e-13 -2.1418542e-05 1.763061e-11 4.2833154e-11 -2.3286218e-11
-5.4646652e-11 1.2816687e-10 -1.04055905e-11 -5.7139726e-10 -1.9427613e-05 4.8828664e-05 2.0413115e-07 -4.453596e-05
2.5837806e-13 7.22003e-14 1.0294307e-13 1.0486505e-14 2.0978321e-13 3.426156e-13 -1.1669882e-13 -1.690237e-14
-3.7232362e-15 5.628939e-14 -2.453303e-13 -2.816065e-13 -6.6572545e-13 -6.3312897e-13 -9.222106e-13 -1.5114682e-13
-7.3680856e-13 -4.6574474e-13 -2.935543e-13 -4.159406e-13 3.5963534e-13 1.0713077e-13 -5.2745845e-13 -6.338501e-14
3.1382432e-14 -1.908225e-15 6.752766e-15 -4.6167078e-15 -3.6280645e-15 -8.669199e-14 4.164329e-14 1.684322e-14
1.1039855e-15 -5.453699e-15 1.5633076e-14 3.7745303e-14 1.7692579e-14 -7.364344e-07 2.5282e-13 -1.3703769e-13
-4.863256e-13 1.184722e-13 1.1588919e-13 -9.0223586e-13 -3.8575092e-13 8.3390445e-13 9.722081e-13 -4.6528406e-13
3.0335876e-13 -1.9865665e-14 -1.4986863e-13 -4.1341152e-13 -2.7677792e-13 3.4781528e-13 3.9628874e-14 1.3299267e-12
1.8139604e-13 3.5066253e-13 -1.736045e-14 1.6889187e-09 3.3026513e-14 -1.3072478e-14 -2.980285e-15 -7.784624e-16
6.836113e-15 -9.083742e-15 -5.1739085e-15 9.1471655e-15 -1.20045355e-14 3.2887714e-15 -1.01466695e-14 -1.2220485e-14
1.446178e-08 5.2691783e-12 1.0374294e-11 7.404994e-08 -5.453721e-08 -9.819346e-12 1.9733175e-06 8.313358e-06
1.7689209e-06 2.7898581e-09 -4.929536e-09 8.457204e-12 -2.8125309e-14 1.4305687e-13 4.5430114e-14 5.5572213e-10
2.8347547e-14 6.2171005e-14 1.9944018e-13 -9.983226e-14 1.4270266e-14 1.08446055e-13 1.6833114e-13 1.7229204e-13
1.0875807e-12 2.5205519e-13 1.738914e-14 -1.8906036e-15 4.5953587e-14 -4.0980725e-13 4.4418877e-13 -2.2526243e-12
2.6848498e-14 2.712022e-14 -4.1081017e-13 1.8696144e-13 5.73415e-14 6.573878e-14 -3.9703253e-14 -5.1232415e-14
-2.4341118e-14 -7.927524e-14 -5.6772824e-14 -2.6418665e-14 -3.7140125e-14 -1.8741075e-14 3.181933e-14 9.591607e-14
8.04728e-06 -7.092676e-06 1.1950125e-08 6.1529857e-12 -1.4663741e-12 -1.6979442e-12 -2.1641736e-12 -4.3578934e-12
-1.9710318e-07 -1.1381894e-11 1.5284057e-11 -4.7198835e-05 2.3639527e-13 -1.6755663e-13 -9.188275e-13 5.681554e-13
3.644433e-13 4.8851054e-13 2.4224443e-14 -6.805034e-14 -6.0061347e-13 -5.1432177e-13 4.741617e-13 8.6880123e-13
-1.0537312e-12 -8.231677e-13 8.5246263e-13 1.0770324e-09 3.5461616e-13 1.8569454e-14 1.0878015e-13 7.890064e-13
-1.4735454e-13 2.6019597e-13 -3.2407185e-13 2.2540554e-13 9.983804e-10 5.1836358e-11 -6.581682e-10 -4.8668024e-11
2.1380735e-09 1.0254859e-06 -7.648039e-10 -5.546095e-10 -1.4371705e-09 -8.5567836e-10 -8.416163e-10 -5.616642e-07
2.7435937e-18 3.7209247e-05 -1.9409583e-06 6.0706545e-10 3.0194915e-09 -1.0070304e-12 -1.4041974e-18 -2.6237127e-05
-3.0236658e-06 -5.0009563e-10 6.347349e-12 -5.0182452e-11 -1.8482583e-06 -7.4670936e-07 -2.37415e-09 -1.3428082e-07
-7.9515344e-10 1.8620854e-08 9.158408e-11 -2.3913281e-11 -3.074209e-07 -1.3016128e-11 -1.6721653e-07 2.8651843e-11
-5.8505725e-07 -5.6927163e-12 -1.6968091e-06 -5.129378e-13 4.7686285e-13 -2.894514e-12 2.9431635e-10 -6.4521695e-13
-4.0827697e-09 -2.21395e-11 9.4010355e-12 -5.2550014e-10 -5.2129938e-08 2.3569167e-12 -2.4879978e-06 7.934596e-12
-1.4767272e-11 -5.5555076e-05 -2.8981895e-05 -1.7481172e-05 4.1401638e-09 -1.0406401e-09 1.5695755e-12 7.881695e-12
7.886181e-08 5.2917035e-13 -1.5757303e-12 -5.8620208e-05 -6.739941e-08 -9.116854e-06 -8.091996e-06 -2.4764846e-09
-1.2885427e-12 1.6673498e-06 3.4134507e-12 -1.4700289e-09 1.5066256e-11 -1.5580492e-10 9.995205e-13 2.2770433e-08

emb.fc.1.bias f4 [100]
00000000: d141 74ae 3b76 42ad 1eef 552f 4ec2 8fb6
00000010: cb44 62b6 2bda f236 3372 112f 5eb9 f0b8
00000020: 6a03 7f32 b06a 6e2c 6c39 dc34 bd52 d52f
00000030: 40a6 1bb8 4e7e 552b 9690 1131 6088 d8b5
00000040: 3d09 b3b2 e486 3fb4 79cb 6738 5d51 38b3
00000050: ce68 1136 ce49 e2b5 4806 1136 2e51 5f31
00000060: ee2c 7eaf 3300 cb37 1010 5728 cf16 1031
00000070: d6b0 c9b8 28c5 1b35 967d e3b8 09f9 dfad
00000080: 5559 13ad 54b2 cdb3 ba64 8eb6 90c3 0bb8
00000090: 76b0 01ad 60c4 052c 8e21 2738 acd7 c82f
000000a0: 3dd8 de2d cdac 3eb3 9efe de2e c68f 452b
000000b0: d413 fab7 3f24 ddad 565c 45b4 6feb 282a
000000c0: 1a6a 8334 14a6 fd2f 502d 152e ec47 70af
000000d0: 939b 8aaf 7be5 032f 032a 16a9 b034 9530
000000e0: 442f 0531 5d24 8235 aff1 892a 1bfa bb32
000000f0: 2571 9eab 906e 242f 7b9a 962a fd54 83b5
00000100: b3dc de33 7029 13b1 9b59 abb0 4568 b929
00000110: 5b5c 80a9 1842 192d 04a2 deb2 9f42 daae
00000120: 4cf4 21b6 5c81 bfb3 4ba3 f434 be31 0bb2
00000130: be9f 3dae ef85 8032 0223 372e 4d33 2fb1
00000140: b97d a738 91bd 24b0 1f7f 26ab 8e1a e8ac
00000150: cfed ceb2 54f8 1ab5 d17e d3ae 7b0c 1731
00000160: a3e1 83ad 5320 9831 df50 722a 681c 88b7
00000170: 8ee4 dcad 449d f635 fcf7 2bac b6f0 2ab2
00000180: d0ce 822c 8510 942f a012 1b37 4390 7333
-5.5537634e-11 -1.1053876e-11 1.9457189e-10 -4.284352e-06 -3.3716667e-06 7.23756e-06 1.3228245e-10 -0.00011478619
1.484373e-08 3.3881058e-12 4.1019973e-07 3.8803263e-10 -3.7109712e-05 7.5848084e-13 2.1182465e-09 -1.6132944e-06
-2.0842544e-08 -1.7837334e-07 5.526419e-05 -4.2914838e-08 2.1667688e-06 -1.6859792e-06 2.161034e-06 3.2496916e-09
-2.3117128e-10 2.4199579e-05 1.19383805e-14 2.0967723e-09 -9.617365e-05 5.80289e-07 -0.00010847596 -2.5462759e-11
-8.375818e-12 -9.578494e-08 -4.243656e-06 -3.3322314e-05 -7.371983e-12 1.9009447e-12 3.9847153e-05 3.6533032e-10
2.5334507e-11 -4.4394984e-08 1.014062e-10 7.0187985e-13 -2.9811556e-05 -2.5140888e-11 -1.8380646e-07 1.500308e-13
2.447785e-07 4.6138438e-10 3.3918923e-11 -2.1853425e-10 -2.5212596e-10 1.1995908e-10 -3.334313e-14 1.0856152e-09
1.9380915e-09 9.696338e-07 2.450379e-13 2.18834e-08 -1.1257979e-12 1.4954993e-10 2.6752545e-13 -9.784995e-07
1.03778255e-07 -2.141487e-09 -1.2467355e-09 8.233738e-14 -5.700363e-14 8.711719e-12 -2.5917878e-08 -9.9253265e-11
-2.413307e-06 -8.917661e-08 4.5567353e-07 -8.102175e-09 -4.3115504e-11 1.4962067e-08 4.1640476e-11 -2.5495013e-09
7.986598e-05 -5.993224e-10 -5.9151463e-13 -6.5967848e-12 -2.40897e-08 -5.7730836e-07 -9.617696e-11 2.1980486e-09
-1.4993179e-11 4.427457e-09 2.1521976e-13 -1.6225691e-05 -2.5112603e-11 1.8374199e-06 -2.443822e-12 -9.950034e-09
3.717783e-12 2.693278e-10 9.243056e-06 5.670905e-08

clf.1.weight f4 [1, 100]
00000000: 0943 aab6 df86 94ac 6912 80ad 0903 1fae
00000010: 5738 1ab6 c783 59ac 295f fdb8 a723 ccac
00000020: f83b 6bac 3241 63b6 9cfd 81ad 0aad 192b
00000030: 6aca 32aa 5e41 56ad 1f09 0daf 2e70 15ac
00000040: 1379 adb7 56ac c7ac 4a7f daac c2e6 88b7
00000050: eda3 4bad ecd9 39b7 9962 7d2c 9bcb 0aac
00000060: 8494 872d 1ee5 e5ab 05b3 03b9 fae8 0eac
00000070: 87db 02ad 5710 f12b ccc7 f32c d725 9cb9
00000080: 883d e328 0b09 b9ac f09b e1ac f805 f8b7
00000090: 5ed5 18ae f0c0 83ad b7e9 27b3 c178 1bb9
000000a0: c414 0eac fd4e 46b8 996a 04b4 91d2 a7ad
000000b0: 69cf aab4 b90f 4cb1 829b a6b9 99c0 a5ac
000000c0: 1af3 adad 59c5 9cac 3884 22b5 6235 95ae
000000d0: 9436 aeb9 8766 a9ac e357 d2ad cd71 47b7
000000e0: 0260 74b6 10f3 2ead 7be9 8ead 4cfe 202d
000000f0: 3010 06ad e2b8 22ae 52b0 c0b2 34b6 84ae
00000100: 4a57 012c c1a4 bcb5 97af 03b5 5989 71ac
00000110: 5382 47b9 844f 23ab 9d5d c7b2 b588 47ad
00000120: e75c 50ad 1669 9dad 5de7 56b6 cd64 92ad
00000130: 6abe 96af 15b3 67ab 6cef aeac 3a39 9eb7
00000140: 76b4 fbb4 a0ae edab c5a1 89ad 4c1d d3ac
00000150: 0897 fab9 c325 a4b3 43af 962c 7cf6 01b5
00000160: cd89 e52b 8a80 57b9 60dd 48ac 1c34 75ab
00000170: b79e 30ad a181 d72a afeb 1db6 159a 2bb9
00000180: b89d 19ae 4529 8fad 4943 21b8 ad5c dfad
-5.0741987e-06 -4.2213867e-12 -1.4560091e-11 -3.615511e-11 -2.2980582e-06 -3.0910706e-12 -0.00012081705 -5.801987e-12
-3.3428798e-12 -3.3863585e-06 -1.4778227e-11 5.459666e-13 -1.5879802e-13 -1.2179006e-11 -1.2827116e-10 -2.1236446e-12
-2.0679587e-05 -5.6750533e-12 -6.2100646e-12 -1.6319918e-05 -1.1575613e-11 -1.1077598e-05 3.6008195e-12 -1.9724003e-12
1.5413677e-11 -1.6335021e-12 -0.00012559824 -2.0308742e-12 -7.438389e-12 1.7128615e-12 6.9286573e-12 -0.00029782832
2.5228748e-14 -5.25902e-12 -6.412197e-12 -2.9566683e-05 -3.4750307e-11 -1.4978657e-11 -3.909528e-08 -0.00014826936
-2.019094e-12 -4.7280442e-05 -1.2332238e-07 -1.9079212e-11 -3.1815878e-07 -2.9694844e-09 -0.0003177785 -4.7109647e-12
-1.9775782e-11 -4.4556967e-12 -6.0542106e-07 -6.785218e-11 -0.0003322853 -4.8146517e-12 -2.3913265e-11 -1.1887821e-05
-3.6414717e-06 -9.944726e-12 -1.6247217e-11 9.151412e-12 -7.6206125e-12 -3.6998744e-11 -2.2431923e-08 -6.035031e-11
1.8380458e-12 -1.4055041e-06 -4.905682e-07 -3.4324403e-12 -0.00019026668 -5.8019583e-13 -2.320922e-08 -1.1342195e-11
-1.184406e-11 -1.7895501e-11 -3.2023156e-06 -1.6643043e-11 -2.7420138e-10 -8.231621e-13 -4.9719586e-12 -1.8861716e-05
-4.6883696e-07 -1.6888331e-12 -1.5646937e-11 -6.0002333e-12 -0.00047796243 -7.643714e-08 4.2827144e-12 -4.8414927e-07
1.6309676e-12 -0.00020551882 -2.8544597e-12 -8.71138e-13 -1.00396835e-11 3.828162e-13 -2.353201e-06 -0.00016365231
-3.4928255e-11 -1.6275545e-11 -3.8448055e-05 -2.5393321e-11

exp_avg f4 [2, 1, 2, 1]
00000000: 0400 0080 0400 0000 0400 0080 0400 0080
-6e-45 6e-45 -6e-45 -6e-45

exp_avg_sq f4 [2, 1, 2, 1]
00000000: 6997 db30 e4ef 2030 c37f 4c30 9e70 2f30
1.597738e-09 5.8548566e-10 7.439633e-10 6.382467e-10

exp_avg f4 [2]
00000000: 0400 0080 0400 0000
-6e-45 6e-45

exp_avg_sq f4 [2]
00000000: e695 e530 58b5 d230
1.6704547e-09 1.5331052e-09

exp_avg f4 [16, 1, 1, 50]
00000000: 0000 0080 0200 0080 0300 0000 0100 0080
00000010: 0400 0080 0200 0000 0300 0080 0300 0080
00000020: 0400 0000 0300 0080 0100 0000 0400 0080
00000030: 0300 0000 0300 0080 0200 0000 0100 0000
00000040: 0400 0080 0400 0080 0300 0080 0100 0080
00000050: 0300 0000 0400 0000 0200 0080 0400 0000
00000060: 0100 0080 0100 0000 0000 0080 0400 0080
00000070: 0100 0080 0100 0000 0100 0080 0100 0080
00000080: 0100 0080 0200 0000 0100 0000 0100 0080
00000090: 0300 0000 0400 0080 0200 0000 0200 0080
000000a0: 0100 0000 0100 0080 0000 0000 0300 0080
000000b0: 0100 0080 0200 0080 0200 0000 0100 0000
000000c0: 0400 0080 0200 0080 41c9 6cb3 c597 0ab3
000000d0: 5aa8 f822 85e3 98af a66a e8ac 9bfb b7a3
000000e0: 3998 7127 2097 9caa d93e 14a5 1a42 c025
000000f0: 95f1 9220 ff93 1633 fbc7 91af f336 91a9
00000100: 8f7b 4f1e 7651 dea2 9421 cb2d a287 7fa1
00000110: b5d8 bca6 1d5b b924 92cc 8029 6506 f5ae
00000120: 2a85 5b94 581b 0a94 7eb3 3e9f 380f 96b0
00000130: 0984 d131 22be a29c 9e09 2028 d504 fcb2
00000140: 65fa b627 dc5e 32a8 0f09 8a22 ee91 d1a8
00000150: 978f e11e abe6 572f f769 4aac fb75 1823
00000160: 3361 aa9c 42cc 0123 4fe3 8f2c 9a1d c027
00000170: ca1d 979f 93cb 5ab0 fbf0 c3a7 5ce4 cd26
00000180: 6eb0 15a3 cef1 bab1 7c64 ab2b 4f78 95ae
00000190: 2273 f2ab 8127 ff2b 429c a830 be73 1a31
000001a0: 29c8 112c 3e14 46b0 152f 12a4 2773 4aa9
000001b0: 8d65 cba6 c2de 8daa 29b3 4e2c 45d0 2a26
000001c0: 33c9 182d d0ee 07b0 bcb3 5ba9 551d 782f
000001d0: 6dcf 972c a7b9 74ab 2062 fd32 a1e4 53a8
000001e0: dc3a b0ad 8e81 da30 d3bb 6a2f 3760 382f
000001f0: 1980 8ca8 883e 982a d597 61ae c1fe 0b2d
00000200: 5afb 64a9 2b77 5ab0 2125 e429 9867 be32
00000210: 3288 0ea4 415d 5cab 7ea0 ed25 e61a b7ab
00000220: 2b7f 8bb0 a94c 2732 05a1 4523 c919 91a8
00000230: c91c c430 42b1 c02a 444a d8ae 73eb e9ad
00000240: 0f63 622d dcd6 6732 8a07 90aa 210a f4a4
00000250: d10c 6426 cfff ba29 3329 122f f7b7 3b26
00000260: 89da 212c 1a42 fc29 a5a9 d8a9 91db 192a
00000270: 7422 a62f a5cc 14ae fb85 f1a5 cbf8 23a5
00000280: aac7 4c2d adfb 0128 91b6 522a 8ecb 0c31
00000290: 2644 87ad 8e73 05a7 69e6 8c2c bfc0 e828
000002a0: f85c 0027 5889 1f29 d9c9 4f32 0d65 45a8
000002b0: d5a2 422e d71e 1d32 aedf d031 7f9c bdb2
000002c0: 2f13 1ba9 3945 b92e 97c8 8c2a aca9 88b0
000002d0: 3ff7 dd30 2e15 17ae 7cb6 712b 4340 18b1
000002e0: c93c 8d32 2f7a 1ba8 05b4 e7a8 f2ec 1726
000002f0: 3ce4 a4a7 045c 47b2 dd9e c131 7b95 7bad
00000300: 52ae eda8 0da8 9fb2 e866 df31 2c18 f9af
00000310: 71c9 4e30 6b93 58aa e3e0 52a5 4963 2f2e
00000320: 9b0a 9d2e 335f 4ca6 fd0f 5531 978f 9ea8
00000330: f263 8a2e 0ede be29 b650 be31 492f ac24
00000340: e31d 9127 33ab aaae f602 8fb1 9bfc 012d
00000350: bb16 67a9 6a58 05ac ac98 2fa7 9504 e724
00000360: b9db cead dce7 9028 5cac 05a6 6dfb c126
00000370: e54d fc2e 2275 d325 d118 95b2 8f25 81a5
00000380: 5cd9 0bae 0c5f f3a5 7feb 3324 c46d 452e
00000390: 5921 5b2d 7572 bcac 4362 0927 a83b 5f33
000003a0: 284e 3a2c aedf 38af c7e8 a729 f27e 60a5
000003b0: aba1 7829 aeab 1533 0e05 e826 d368 dfa5
000003c0: 7691 a8af 65a2 dc2f 4861 32b1 c135 a22c
000003d0: f4dc df31 15ce 2832 bfb7 bba3 ad38 382a
000003e0: 87da c025 7098 f42d 0200 0080 0100 0000
000003f0: 0000 0080 0100 0080 0100 0080 0100 0080
-0.0 -3e-45 4e-45 -1e-45 -6e-45 3e-45 -4e-45 -4e-45
6e-45 -4e-45 1e-45 -6e-45 4e-45 -4e-45 3e-45 1e-45
-6e-45 -6e-45 -4e-45 -1e-45 4e-45 6e-45 -3e-45 6e-45
-1e-45 1e-45 -0.0 -6e-45 -1e-45 1e-45 -1e-45 -1e-45
-1e-45 3e-45 1e-45 -1e-45 4e-45 -6e-45 3e-45 -3e-45
1e-45 -1e-45 0.0 -4e-45 -1e-45 -3e-45 3e-45 1e-45
-6e-45 -3e-45 -5.513107e-08 -3.2268662e-08 6.7398784e-18 -2.78103e-10 -6.605677e-12 -1.9947459e-17
3.3527989e-15 -2.781603e-13 -1.2858247e-16 3.3351483e-16 2.4893228e-19 3.5059198e-08 -2.651744e-10 -6.448826e-14
1.098404e-20 -6.025947e-18 2.309334e-11 -8.657687e-19 -1.3103859e-15 8.038531e-17 5.719829e-14 -1.1142446e-10
-1.10829364e-26 -6.972612e-27 -4.0382537e-20 -1.0918262e-09 6.0977112e-09 -1.0769409e-21 8.88387e-15 -2.9338858e-08
5.0786626e-15 -9.901554e-15 3.7414566e-18 -2.3266948e-14 2.3882189e-20 1.9636086e-10 -2.8764749e-12 8.26492e-18
-1.1274782e-21 7.036357e-18 4.0895408e-12 5.33228e-15 -6.400027e-20 -7.9597234e-10 -5.4384644e-15 1.4286629e-15
-8.114667e-18 -5.4408025e-09 1.2178171e-12 -6.7971066e-11 -1.722709e-12 1.8129804e-12 1.226802e-09 2.2475741e-09
2.071685e-12 -7.2060746e-10 -3.1698583e-17 -4.495289e-14 -1.411348e-15 -2.52012e-13 2.9373815e-12 5.9262856e-16
8.684875e-12 -4.9452087e-10 -4.8783663e-14 2.256589e-10 4.314707e-12 -8.694386e-13 2.9497699e-08 -1.1762429e-14
-2.0035022e-11 1.5898409e-09 2.1348905e-10 1.6768885e-10 -1.5598676e-14 2.7044014e-13 -5.129393e-11 7.957802e-12
-5.0844183e-14 -7.9477286e-10 1.0131675e-13 2.216602e-08 -3.0906704e-17 -7.8289117e-13 4.12217e-16 -1.3010398e-12
-1.0149724e-09 9.73811e-09 1.0713489e-17 -1.6109416e-14 1.4269058e-09 3.4229049e-13 -9.835735e-11 -2.6593594e-11
1.2868608e-11 1.3494823e-08 -2.558477e-13 -1.0583529e-16 7.912076e-16 8.304435e-14 1.329326e-10 6.5127977e-16
2.3000787e-12 1.1202515e-13 -9.6217556e-14 1.3665307e-13 3.0219705e-10 -3.3833065e-11 -4.1897624e-16 -1.4222291e-16
1.1640392e-11 7.215512e-15 1.8715087e-13 2.0488389e-09 -1.5377987e-11 -1.85201e-15 4.00462e-12 2.5840764e-14
1.7813967e-15 3.542422e-14 1.2094881e-08 -1.0957609e-14 4.4255117e-11 9.145615e-09 6.079026e-09 -2.2073662e-08
-3.4433553e-14 8.4251224e-11 2.5008183e-13 -9.943526e-10 1.6150138e-09 -3.4352236e-11 8.587365e-13 -2.215544e-09
1.6442202e-08 -8.630723e-15 -2.5724223e-14 5.270977e-16 -4.5766596e-15 -1.16042465e-08 5.6351e-09 -1.43008895e-11
-2.6387885e-14 -1.8586457e-08 6.5018533e-09 -4.531001e-10 7.522863e-10 -1.92358e-13 -1.8290791e-16 3.9878576e-11
7.141417e-11 -7.0905737e-16 3.1004668e-09 -1.7603796e-14 6.293267e-11 8.476215e-14 5.5389036e-09 7.4673214e-17
4.027799e-15 -7.761116e-11 -4.1621844e-09 7.388891e-12 -5.131202e-14 -1.8949516e-12 -2.4368892e-15 1.0018804e-16
-2.3517065e-11 1.6087765e-14 -4.6377235e-16 1.3460214e-15 1.147347e-10 3.6682038e-16 -1.7357168e-08 -2.2403384e-16
-3.1797995e-11 -4.2218187e-16 3.901391e-17 4.4890106e-11 1.2456113e-11 -5.3559887e-12 1.9065837e-15 5.197549e-08
2.6475575e-12 -1.681417e-10 7.45667e-14 -1.9471914e-16 5.5207287e-14 3.4847908e-08 1.6099604e-15 -3.8755365e-16
-3.0662378e-10 4.0133155e-10 -2.5957707e-09 4.610285e-12 6.5152737e-09 9.825745e-09 -2.03524e-17 1.6362146e-13
3.345477e-16 2.7807284e-11 -3e-45 1e-45 -0.0 -1e-45 -1e-45 -1e-45

exp_avg_sq f4 [16, 1, 1, 50]
00000000: 7d19 a22c 9654 b22c 789b a62c 06af 8f2c
00000010: f15d aa2c 55e1 7b2c d1ed 882c 439b 622c
00000020: c0cd 6b2c 14a3 532c 900e 4b2c 5ac7 6d2c
00000030: 6452 552c 190d 672c 546e 6f2c 97e3 a32c
00000040: f19e 712c 6fd2 882c 22e2 8b2c 38cd 672c
00000050: 52a9 542c 7f5d 642c 1f59 862c d9af 692c
00000060: 42d0 502c c8ce 912c b2d0 8b2c 3688 6f2c
00000070: ab51 842c c904 852c db9b 912c 9aea 912c
00000080: fcd1 992c c1fa 8f2c 8ccb 872c d16a 912c
00000090: bba0 692c 2d96 2c2c b1a6 5f2c 7268 3b2c
000000a0: 743b 752c 614d 4e2c a4b1 3f2c 0933 582c
000000b0: 1395 392c 8d52 672c 3415 742c 6e4c 8b2c
000000c0: 106c 7a2c 5260 852c bb79 8428 287c e928
000000d0: 194c 7d28 6221 ca28 3608 c928 e983 a528
000000e0: c6d5 9728 df50 b128 a332 7a28 6850 a328
000000f0: 1d4d 9628 f800 ba28 2a8a c228 4db0 bb28
00000100: 3a47 9828 0413 7c28 5be8 cd28 5736 9528
00000110: 725b b228 b363 9b28 8975 a728 6cf8 b528
00000120: db28 8d28 5548 8728 62c2 8c28 19b9 c628
00000130: eaea cf28 1f78 8328 dc20 af28 2baa d828
00000140: 3bc0 bf28 dfd4 a228 588e 9a28 ab99 a928
00000150: 3e5e 8128 f4af d928 cc07 cf28 8163 7f28
00000160: 7559 8828 8e05 9b28 d464 ca28 1252 a528
00000170: 430f 9228 83e1 d528 0327 9e28 7fcf aa28
00000180: c1cc 9328 49ac cf28 ad6b b828 fdcb c828
00000190: 7710 a328 4c7a 7a28 2a28 b328 de4e b928
000001a0: f8e8 7b28 e567 ba28 23e7 8328 cdd7 9928
000001b0: a6ad 8028 5009 9b28 0eac aa28 edb3 8e28
000001c0: 351b bb28 d8b4 7728 cf0a a528 ec2a b528
000001d0: ee09 a328 a9a0 7b28 17ee 7b28 5d9d 9128
000001e0: 912e af28 16c1 b228 3255 b328 bc0d b028
000001f0: ba56 9528 7ce1 9828 157d a928 ca9a 7828
00000200: a4fc 9128 7618 7428 480d a228 6e67 b528
00000210: 7dc7 8528 ab70 9d28 0d8c 8928 6d73 a028
00000220: dd4d b728 e237 c128 3623 8528 5a27 9328
00000230: 1f07 b828 cbdb 9f28 66e4 7828 d8d7 b428
00000240: 04ba a628 12c7 bb28 4eba a028 14ac 8b28
00000250: f957 8c28 6e10 9828 5e2e 7828 7bee 8b28
00000260: 184d a828 2e28 a028 361d 9b28 b490 9c28
00000270: b096 ba28 e19f ac28 132f 8d28 a2f1 8428
00000280: 86ec a828 58bd 9028 c887 a628 dc67 bd28
00000290: 3fa5 7828 e3ac 8d28 c66b a928 147d 9328
000002a0: 1ece 8028 d781 9728 6fe5 ba28 488a 7f28
000002b0: 7f9d b028 ac21 a528 c27c c128 d7c7 bb28
000002c0: 660c 9728 a0ec bd28 fcb4 a328 1847 b728
000002d0: 12b0 b528 a152 7728 c37b a128 4e53 b828
000002e0: d97d ba28 9adf 9028 27e8 9628 7d27 8a28
000002f0: ff9e 9128 9f88 bb28 bc24 c328 15c4 a928
00000300: f94b 9828 27d1 ba28 5b7e c128 aa0b 7428
00000310: 0200 b728 fe9e 9c28 c582 8928 3519 a828
00000320: dcb0 af28 2837 8928 615e 7428 fe87 9528
00000330: fb13 7528 b167 9c28 78bb 7328 b53a 8928
00000340: f2a2 9128 1a67 7828 fccb ba28 6762 a428
00000350: ed1b 8028 1194 a128 665e 9628 38e0 8328
00000360: bf7b ac28 8f9c 7f28 6687 8828 68f8 8d28
00000370: 5361 b928 06ec 8328 f318 7728 fe1e 8828
00000380: 91b9 ae28 795e 8b28 6e21 8d28 7fda aa28
00000390: 444d a928 f428 7a28 c31a 8228 18a3 9e28
000003a0: 04a8 7a28 40e1 ad28 58d8 9828 165e 8228
000003b0: 1728 9728 212d a528 f546 9328 a181 8528
000003c0: 9cbd b428 90cf b428 a3f3 bb28 da75 a128
000003d0: 9c6d c028 d438 c028 0478 8828 1da8 9b28
000003e0: fac6 8728 b595 af28 571c a42b 7a6a b22b
000003f0: 52f4 592b baff 1e2b 3397 a22b a07c 5a2b
4.6071467e-12 5.068455e-12 4.7352643e-12 4.083736e-12 4.84212e-12 3.579433e-12 3.8917554e-12 3.220272e-12
3.3509723e-12 3.007543e-12 2.8856119e-12 3.3790388e-12 3.0314857e-12 3.2834345e-12 3.4025187e-12 4.658006e-12
3.433639e-12 3.8887153e-12 3.9757234e-12 3.2940994e-12 3.0221004e-12 3.245265e-12 3.8184035e-12 3.3208907e-12
2.9674184e-12 4.144105e-12 3.9737874e-12 3.4039555e-12 3.7607326e-12 3.7806186e-12 4.1384513e-12 4.147194e-12
4.3718345e-12 4.0921437e-12 3.859529e-12 4.133007e-12 3.3200515e-12 2.4526034e-12 3.1782738e-12 2.6632277e-12
3.4849597e-12 2.9317315e-12 2.7241343e-12 3.0723776e-12 2.6372834e-12 3.28729e-12 3.4686256e-12 3.959103e-12
3.5587124e-12 3.790781e-12 1.4707736e-14 2.592204e-14 1.4060822e-14 2.2440983e-14 2.2319044e-14 1.8375887e-14
1.6857077e-14 1.968602e-14 1.3888768e-14 1.8131506e-14 1.6686788e-14 2.0650568e-14 2.1598246e-14 2.0837629e-14
1.690628e-14 1.39929335e-14 2.286034e-14 1.656589e-14 1.9801628e-14 1.7251695e-14 1.8591697e-14 2.0202773e-14
1.5671863e-14 1.501938e-14 1.5627422e-14 2.206269e-14 2.3083494e-14 1.4596016e-14 1.9443153e-14 2.4054616e-14
2.1288626e-14 1.8077931e-14 1.7159166e-14 1.8829412e-14 1.4362748e-14 2.4168147e-14 2.2984998e-14 1.417692e-14
1.5137829e-14 1.7210866e-14 2.2470232e-14 1.8354272e-14 1.6215875e-14 2.374555e-14 1.7558442e-14 1.8963779e-14
1.6409076e-14 2.3056333e-14 2.04748e-14 2.2292926e-14 1.8103776e-14 1.3904307e-14 1.989041e-14 2.0573329e-14
1.3983816e-14 2.0695205e-14 1.4644161e-14 1.7080001e-14 1.4286163e-14 1.7212496e-14 1.8948408e-14 1.5843197e-14
2.077297e-14 1.3750469e-14 1.8323367e-14 2.0113651e-14 1.8100942e-14 1.3968137e-14 1.39849265e-14 1.616648e-14
1.9449098e-14 1.9845708e-14 1.990994e-14 1.9545882e-14 1.6579935e-14 1.6973178e-14 1.8817015e-14 1.380033e-14
1.62078e-14 1.3550025e-14 1.7991373e-14 2.0139892e-14 1.485248e-14 1.7479363e-14 1.5270793e-14 1.7813626e-14
2.035085e-14 2.145154e-14 1.4781237e-14 1.6337344e-14 2.0431192e-14 1.7747866e-14 1.38162915e-14 2.0077622e-14
1.8510374e-14 2.0847504e-14 1.7844365e-14 1.5506727e-14 1.5581274e-14 1.6882515e-14 1.377682e-14 1.5535524e-14
1.8685181e-14 1.7780994e-14 1.7221125e-14 1.7382234e-14 2.0715499e-14 1.9165172e-14 1.567456e-14 1.4759735e-14
1.8754323e-14 1.6069326e-14 1.8488588e-14 2.1028257e-14 1.38025975e-14 1.5729122e-14 1.8809508e-14 1.6374522e-14
1.4300244e-14 1.6820677e-14 2.074965e-14 1.41853285e-14 1.9608228e-14 1.8333283e-14 2.148141e-14 2.0847837e-14
1.6769745e-14 2.1085835e-14 1.8175125e-14 2.0347913e-14 2.0171395e-14 1.3729172e-14 1.7928264e-14 2.0464231e-14
2.0704726e-14 1.6084183e-14 1.6754025e-14 1.5338203e-14 1.6167187e-14 2.082042e-14 2.166528e-14 1.8847806e-14
1.6908338e-14 2.0740854e-14 2.1482102e-14 1.354725e-14 2.0317085e-14 1.7388431e-14 1.5266768e-14 1.8662679e-14
1.9505603e-14 1.5233976e-14 1.3565186e-14 1.66013e-14 1.3604565e-14 1.7364448e-14 1.35298606e-14 1.5235516e-14
1.61689e-14 1.3789122e-14 2.0738612e-14 1.8250333e-14 1.4222966e-14 1.7938804e-14 1.6694284e-14 1.4641161e-14
1.9149502e-14 1.4189292e-14 1.5157753e-14 1.5761874e-14 2.0581334e-14 1.464628e-14 1.3716664e-14 1.5112474e-14
1.9398357e-14 1.5473071e-14 1.5668642e-14 1.8968549e-14 1.8796278e-14 1.3886668e-14 1.4444505e-14 1.7612254e-14
1.391422e-14 1.9304545e-14 1.6969214e-14 1.4473703e-14 1.6781754e-14 1.8338251e-14 1.6351051e-14 1.4822184e-14
2.0066244e-14 2.007403e-14 2.0866831e-14 1.79257e-14 2.1363818e-14 2.1340927e-14 1.5151082e-14 1.7281364e-14
1.5074303e-14 1.9493828e-14 1.1660767e-12 1.2677214e-12 7.743295e-13 5.648777e-13 1.1552759e-12 7.762211e-13

exp_avg f4 [16]
00000000: 7a87 00a9 9046 e1b0 5f6e 642d 2342 f3a5
00000010: a31b 0cb2 a240 d624 44d0 ff24 06c6 182a
00000020: eff7 5d30 14e6 25b0 b751 27af 5169 2924
00000030: 9b64 cdb1 2616 6dab 9237 96a5 ad0c 0fb1
-2.8539217e-14 -1.639096e-09 1.2984807e-11 -4.2198596e-16 -8.155356e-09 9.29172e-17 1.1094144e-16 1.3569015e-13
8.0751666e-10 -6.035361e-10 -1.5217592e-10 3.673524e-17 -5.9777228e-09 -8.423005e-13 -2.6058508e-16 -2.0816444e-09

exp_avg_sq f4 [16]
00000000: 1a4b 7e28 835c 7528 c81b a228 e54c 8728
00000010: 4c7b a428 8859 8628 ad37 8c28 906a a128
00000020: 85b2 b928 3f27 af28 fd7f 7828 c48e 8628
00000030: b527 bb28 0272 a528 d2d6 8a28 5c94 b728
1.41161175e-14 1.3620292e-14 1.7997661e-14 1.5021359e-14 1.8261129e-14 1.4915817e-14 1.5567268e-14 1.7920805e-14
2.0616546e-14 1.9445923e-14 1.37945185e-14 1.4938903e-14 2.077839e-14 1.8368123e-14 1.5414241e-14 2.0381422e-14

exp_avg f4 [16]
00000000: 0300 0080 0500 0000 a656 7dad 9de9 71a7
00000010: 931f 03aa 98e2 6c85 d729 cb29 ddea 0b29
00000020: 7dd2 f294 d293 269f 1530 fca5 0400 0080
00000030: bcce 6d8c 97b4 b226 7faf c506 0fd3 55a7
-4e-45 7e-45 -1.4400625e-11 -3.357211e-15 -1.1646092e-13 -1.11382854e-35 9.022269e-14 3.106791e-14
-2.4518778e-26 -3.527414e-20 -4.3747613e-16 -6e-45 -1.8320028e-31 1.240018e-15 7.436103e-35 -2.9674103e-15

exp_avg_sq f4 [16]
00000000: 9189 7131 2762 de29 87eb aa28 a828 8028
00000010: 453c 7d28 a7ed c12f 83ad 7d28 4896 9028
00000020: 6888 912f ad32 b733 7719 8428 a73a f92d
00000030: 795e 2432 9aed 8b28 ca8d 132a afe3 6a28
3.5148313e-09 9.875807e-14 1.8975935e-14 1.4228487e-14 1.405739e-14 3.5275358e-10 1.4081946e-14 1.6052386e-14
2.647227e-10 8.5308194e-08 1.4665988e-14 2.833407e-11 9.567537e-09 1.5535143e-14 1.3105416e-13 1.303898e-14

exp_avg f4 [16]
00000000: 67e8 2b98 c75b 5498 0ca4 ecad d75b 46a6
00000010: f862 a9a3 add4 32a1 7cda 6ba1 6748 1fac
00000020: d4bc 1135 9467 a038 75f2 eca1 96ce b89f
00000030: 595c 46a1 3068 13a2 c498 64a2 2e36 bd9f
-2.2218565e-24 -2.7446694e-24 -2.6902945e-11 -6.8819516e-16 -1.8364932e-17 -6.059022e-19 -7.991026e-19 -2.263545e-12
5.429149e-07 7.6486875e-05 -1.605616e-18 -7.82688e-20 -6.720723e-19 -1.9977371e-18 -3.0980635e-18 -8.0134246e-20

exp_avg_sq f4 [16]
00000000: c1ee 0c33 d3a5 0d33 235a b434 6ef2 ca33
00000010: 0ab5 1e34 68db 7e31 1807 bd33 d67a 1f35
00000020: a5d9 4435 9015 9236 2ff0 b733 a599 a533
00000030: f151 ea31 a3fa c733 b9f5 6a32 60ba a932
3.2813436e-08 3.2979937e-08 3.3593196e-07 9.450456e-08 1.4780758e-07 3.7086583e-09 8.802289e-08 5.9410866e-07
7.3332404e-07 4.3536493e-06 8.565291e-08 7.711359e-08 6.819612e-09 9.31225e-08 1.36764635e-08 1.9758943e-08
