src/params.pth (torch, 412117 bytes, 43 tensors)

emb.spatial_conv.weight f4 [2, 1, 2, 1]
0	0xbf314485	-0.6924518
1	0x3e8286ed	0.25493565
2	0x3ed2aad2	0.4114595
3	0x3f46aab2	0.7760421

emb.spatial_conv.bias f4 [2]
0	0xbe2667a9	-0.1625048
1	0xbe5f979e	-0.21835181

emb.feature_extractor.0.weight f4 [16, 1, 1, 50]
0	0xbd618b54	-0.055064514
1	0x3d2ee3d0	0.042697728
2	0x3d55ab6d	0.052165437
3	0x3c9f36f8	0.01943539
4	0xbd0a804c	-0.03381376
5	0x3d1b78d8	0.037957042
6	0xbd62f362	-0.05540789
7	0x3bf3e76b	0.0074433587
8	0xbd86dc52	-0.065849915
9	0xbcb60efa	-0.022223938
10	0x3dc2b854	0.09507814
11	0xbc9b3588	-0.018946424
12	0x3d9a2945	0.07527403
13	0x3d51395e	0.0510801
14	0xbadf0fe3	-0.0017018284
15	0xbdb8f929	-0.090318985
16	0xbd85fff0	-0.06542957
17	0xbe09f73e	-0.13473222
18	0xbcb0fbb4	-0.021604396
19	0x3b7e42fd	0.0038797252
20	0x3c67f84e	0.014158322
21	0x3d466d85	0.04844429
22	0x3e1af64a	0.15133014
23	0x3de6993f	0.11259698
24	0xbcf78fc8	-0.030219927
25	0xbd714bb7	-0.058910098
26	0xbc579598	-0.0131582245
27	0xbd632049	-0.05545071
28	0xbc92278a	-0.01784112
29	0xbcf27659	-0.029597448
30	0x3d9adaff	0.075613014
31	0xbd19c9c4	-0.037545934
32	0x3dbd6f4e	0.09249745
33	0x3c109633	0.008824873
34	0xbd7eca03	-0.062204372
35	0xbd5cb829	-0.053886566
36	0xbd13eb09	-0.03611282
37	0xbdfdc5ab	-0.12391218
38	0x3d5c0556	0.053716026
39	0x3ae88dc6	0.0017742447
40	0x3db2fa9d	0.08739207
41	0x3dddf465	0.1083763
42	0x3de73021	0.11288477
43	0xbd99589c	-0.07487604
44	0xbd33390e	-0.043755583
45	0xbd9b3ec5	-0.07580332
46	0xbdf04065	-0.11731032
47	0xbdc26513	-0.094919346
48	0xbe06eda7	-0.13176595
49	0xbd94f90b	-0.07274064
50	0xbcf8b281	-0.030358555
51	0x3e3cb423	0.18428092
52	0x3dcc9c99	0.09990806
53	0xbd55338c	-0.052051112
54	0xbcb846e3	-0.022494739
55	0x3dedaaa8	0.11604816
56	0x3e0360a6	0.12829837
57	0x3d4fa9ab	0.050698917
58	0xbd65a053	-0.0560611
59	0xbc6e22ef	-0.014534696
60	0x3da77e5a	0.081783965
61	0x3dec753c	0.11545798
62	0xbd1f1a77	-0.0388436
63	0x3de01e61	0.10943294
64	0xbb501b2b	-0.0031754475
65	0xbc3ff27d	-0.011715529
66	0xbd981737	-0.07426303
67	0x3dc95b48	0.09831864
68	0xbdc7284d	-0.09724484
69	0xbdbd87fa	-0.09254451
70	0x3de7cfb5	0.11318914
71	0x3cc9cf91	0.024635108
72	0xbd893fad	-0.06701598
73	0xbd95119b	-0.072787486
74	0x3e046314	0.1292842
75	0xbd8e3aa3	-0.06944778
76	0xbd8b5f82	-0.06805326
77	0x3d8f5c0f	0.06999981
78	0x3de786da	0.11305018
79	0xbe06b0a7	-0.13153325
80	0xbd85b37c	-0.065283746
81	0xbc6e59fc	-0.014547821
82	0x3e1de801	0.15420534
83	0xbd3366e8	-0.04379931
84	0xbd6a8ea0	-0.057264924
85	0x3d437370	0.04771751
86	0xbdb78bac	-0.08962187
87	0x3d1b38d5	0.037895996
88	0x3dcb070c	0.099134535
89	0x3d4c4be0	0.049877048
90	0xbd8fc6a5	-0.0702031
91	0xbd27ecd0	-0.040997326
92	0x3c56ba86	0.013105994
93	0x3dd5feb1	0.10448969
94	0x3e140e99	0.14458694
95	0xbc4f7b08	-0.01266361
96	0xbdb145fa	-0.08655925
97	0x3d862e9b	0.06551858
98	0x3dc2323e	0.09482239
99	0x3cd8b92f	0.02645549
100	0xbd922610	-0.07136166
101	0x3d83a2e8	0.06427556
102	0x3dcaeb78	0.09908193
103	0xbd7b4f3c	-0.06135486
104	0xbd1fad00	-0.038983345
105	0x3d945afc	0.072439164
106	0x3d101474	0.035175756
107	0xbd00e7ef	-0.03147119
108	0xbd0d4364	-0.034488097
109	0xbce43037	-0.027855022
110	0xbcf88390	-0.030336171
111	0xbd3801fa	-0.04492376
112	0x3bb3d010	0.0054874495
113	0xbd159737	-0.036521163
114	0xbd55078a	-0.052009143
115	0xbd653db1	-0.055967037
116	0xbd10fcc3	-0.035397302
117	0xbca25e17	-0.019820256
118	0x3d234bad	0.039867092
119	0xbdef1471	-0.11673821
120	0x3b791c10	0.0038011111
121	0x3d960250	0.0732466
122	0x3d2cadd3	0.04215796
123	0x3d89c96b	0.067278706
124	0xb905c368	-0.00012756663
125	0x3d064872	0.032783933
126	0x3e07a9e7	0.13248406
127	0x3a142d3b	0.0005652492
128	0x3d9034a8	0.070412934
129	0x3db4be58	0.08825368
130	0x3d025815	0.031822283
131	0x3d862ddb	0.06551715
132	0x3d9c68e8	0.07637197
133	0x3ca3470b	0.019931337
134	0x3ce3bf63	0.027801221
135	0x3d82ef4b	0.06393298
136	0xbc3645c9	-0.0111250365
137	0xbdc52777	-0.09626668
138	0xbd08113d	-0.033219565
139	0xbdaf06e5	-0.08546237
140	0xbd6bf529	-0.05760685
141	0xbdb50787	-0.08839326
142	0xbd9c9907	-0.07646375
143	0xbd624956	-0.05524572
144	0xbd13187c	-0.035912022
145	0xbd0fba5b	-0.03508983
146	0xbd955468	-0.0729149
147	0x3ca21f81	0.019790413
148	0xbd702b81	-0.05863524
149	0xbce1287a	-0.027485121
150	0x3bff7aff	0.0077966447
151	0xbe06ad4c	-0.13152045
152	0xbda9adc3	-0.082850955
153	0xbd890dd0	-0.06692088
154	0x3d880496	0.066415
155	0x3d6ad0c7	0.05732801
156	0x3d0d9f1e	0.034575574
157	0x3cdf826c	0.02728387
158	0x3db3f7db	0.08787509
159	0xbc259467	-0.010106183
160	0x3e0e1d5c	0.13878387
161	0xbb958f31	-0.004564189
162	0x3d97173d	0.07377479
163	0xbcfd0365	-0.030885408
164	0x3e47ddc6	0.19518194
165	0x3df263fc	0.11835477
166	0x3eb3612b	0.3503507
167	0x3e2a319c	0.16620487
168	0x3c9d2e9f	0.01918727
169	0xbbfc510c	-0.007700091
170	0xbe301cd9	-0.17198505
171	0x3c2f7619	0.010709309
172	0x3d7da53c	0.061925158
173	0x3e7c083c	0.24612516
174	0x3e290e95	0.16509469
175	0x3e0d6961	0.1380973
176	0xbde99599	-0.114054866
177	0xbe63f623	-0.22261862
178	0xbeb924c2	-0.36160856
179	0xbe394e17	-0.18096195
180	0x3e06f41b	0.13179056
181	0x3e7adc37	0.24498068
182	0x3e3cd5cf	0.18440937
183	0x3cd7e908	0.026356235
184	0xbe61436c	-0.21998376
185	0xbece7fc3	-0.4033185
186	0xbe77a85d	-0.24185319
187	0xbe417370	-0.18891692
188	0x3e5ebf96	0.21752772
189	0x3e35539a	0.17707673
190	0x3e1619c6	0.1465827
191	0x3d65decd	0.056120683
192	0xbe77e7a9	-0.24209465
193	0xbeae0c15	-0.33993593
194	0xbe787731	-0.24264218
195	0x3dc97883	0.09837439
196	0x3e804df6	0.2505948
197	0x3e051eaf	0.12999986
198	0x3d9b0b3f	0.075705044
199	0xbeb02afb	-0.34407791
200	0x3cae9da2	0.0213154
201	0x3d3c36ed	0.04595082
202	0xbd0bf628	-0.0341703
203	0x3c25f0b3	0.010128188
204	0xbcffbafc	-0.03121709
205	0x3c6a26f4	0.014291514
206	0x3d1bfaf1	0.038081113
207	0x3c918777	0.01776479
208	0x3d6a006a	0.0571293
209	0x3d5511cf	0.052018937
210	0x3deb45bc	0.1148791
211	0xbca41cef	-0.020033328
212	0x3b648413	0.0034868761
213	0x3c97339a	0.018457223
214	0xbd792aa1	-0.06083167
215	0xbd343263	-0.043993365
216	0x3cb1374c	0.021632813
217	0x3d46268d	0.04837661
218	0x3d378959	0.04480872
219	0x3da2d7ba	0.07951303
220	0x3df329f0	0.11873233
221	0x3e00df27	0.12585126
222	0xbc556e49	-0.013026782
223	0xbd3dde61	-0.046354655
224	0xbc22e914	-0.0099432655
225	0xbcb9b5eb	-0.022669753
226	0xbc496e85	-0.012294416
227	0x3d3c178a	0.045920886
228	0x3d1f9957	0.038964596
229	0x3d6520ee	0.055939607
230	0xbb694972	-0.0035596755
231	0x3c83b2ae	0.016076412
232	0xbd29f6aa	-0.041495003
233	0xbdd3c0f7	-0.103395395
234	0xbe29e278	-0.16590297
235	0xbd8f2faa	-0.06991513
236	0xbd17244d	-0.036899853
237	0xbd25e23f	-0.04049897
238	0x3aefac03	0.0018285516
239	0x3d444566	0.047917746
240	0x3c94a20e	0.01814368
241	0xbcb85cc0	-0.022505164
242	0xbd791cb3	-0.060818385
243	0xbdcfda68	-0.101490796
244	0xbdec3f05	-0.115354575
245	0xbda41e81	-0.08013631
246	0xbdc53bb6	-0.096305296
247	0xbd9aee74	-0.075650126
248	0xbc4bd88b	-0.012441765
249	0xbd1c91fd	-0.038225163
250	0xbe27cf1c	-0.163876
251	0xbd0f8ca9	-0.035046253
252	0x3ca35451	0.019937666
253	0x3dded97b	0.10881325
254	0x3cdb56cf	0.026774792
255	0x3ca5dd17	0.020247025

emb.feature_extractor.0.bias f4 [16]
0	0xb2f72483	-2.8771188e-08
1	0xbac6a43b	-0.0015155146
2	0xb204e396	-7.735158e-09
3	0x355cce59	8.225666e-07
4	0xb237c245	-1.0696174e-08
5	0x328091de	1.4967494e-08
6	0x3300acca	2.9959473e-08
7	0x37f5e87b	2.9314533e-05
8	0xb1f952bb	-7.256259e-09
9	0x35357685	6.7600223e-07
10	0x32f7cca2	2.884764e-08
11	0xb4203c58	-1.4923114e-07
12	0xb4bffb9b	-3.575959e-07
13	0x324cb416	1.191531e-08
14	0x39ba5fd8	0.00035548094
15	0xb15df4c2	-3.2298861e-09

emb.feature_extractor.1.weight f4 [16]
0	0x3eeca9b0	0.4622321
1	0x3eece3e1	0.46267608
2	0x3f1ec35d	0.6201685
3	0x3faae48e	1.3350999
4	0x3edea76f	0.43487117
5	0x3f1205c3	0.5704004
6	0x3f2b8383	0.66997546
7	0x3ecffaa5	0.40620914
8	0x3f1a9572	0.60384285
9	0x3fa1e101	1.2646791
10	0x3f94450c	1.1583571
11	0x3f0f0d65	0.55879813
12	0x3f5c12fa	0.85966456
13	0x3eee4933	0.46540222
14	0x3f086ebe	0.5329398
15	0x3eefc118	0.46827006

emb.feature_extractor.1.bias f4 [16]
0	0xbd64d626	-0.05586829
1	0x3ea391f8	0.31947303
2	0xbf3a86de	-0.7286204
3	0xbe4342b9	-0.19068421
4	0xbb7876d9	-0.0037912636
5	0xbdf55f36	-0.11981051
6	0xbd8b2032	-0.0679325
7	0xbd229b90	-0.039699137
8	0xbef3c564	-0.47611535
9	0x3ecff7f4	0.4061886
10	0x3c4ec5c7	0.012620396
11	0xbea8bee0	-0.32958126
12	0x3ebdf820	0.37103367
13	0xbda91db3	-0.08257618
14	0xbe114c64	-0.14189297
15	0x3bbd69c0	0.0057804286

emb.feature_extractor.1.running_mean f4 [16]
0	0x3da5965c	0.080853194
1	0xbe2dd2c3	-0.1697493
2	0x3d429640	0.04750657
3	0xbca85120	-0.020546496
4	0x3d621aef	0.055201467
5	0x3d9d2025	0.07672147
6	0x3d736dca	0.059430875
7	0xbe37748a	-0.1791555
8	0x3e85d895	0.261418
9	0x3c6b89e1	0.014376135
10	0xbdcd3ba2	-0.1002114
11	0x3e483ba4	0.19554001
12	0xbc9dee28	-0.0192786
13	0x3e5113f8	0.20417774
14	0xbe73a0e6	-0.23791847
15	0xbe808422	-0.2510081

emb.feature_extractor.1.running_var f4 [16]
0	0x3e492593	0.1964324
1	0x3e51e45c	0.20497268
2	0x3e605081	0.2190571
3	0x3fa139ae	1.2595727
4	0x3e9e67e3	0.30938634
5	0x3ea453ca	0.32095176
6	0x3f035b38	0.51311064
7	0x3e018376	0.12647805
8	0x3e6f93ed	0.23396273
9	0x3ea9eaa1	0.3318682
10	0x4004aac6	2.0729232
11	0x3e619d8a	0.22032753
12	0x3e96903a	0.2940691
13	0x3e1630a9	0.14667
14	0x3e873fb5	0.26415792
15	0x3e5b5ba4	0.21421677

emb.feature_extractor.4.weight f4 [16, 16, 1, 50]
0	0x3b5d61db	0.003378025
1	0x3c50abfd	0.012736318
2	0x3a9a1f95	0.001175868
3	0x3b8782e7	0.004135478
4	0xb9334f9b	-0.00017100426
5	0x3c73ace0	0.01487276
6	0x3baab5b9	0.0052096513
7	0x3c3556f3	0.011068094
8	0xbb7f667e	-0.0038971002
9	0xbb04e1a1	-0.0020276087
10	0x3c492c99	0.012278699
11	0x3b905b7f	0.0044054384
12	0xbb869301	-0.0041068797
13	0xbc5f124c	-0.013615202
14	0xbce5fed0	-0.028075606
15	0xbc315148	-0.010822602
16	0xbbac5c7e	-0.0052600494
17	0x3b8a5916	0.0042220457
18	0x3b868721	0.004105464
19	0xbbd5bd4e	-0.006522811
20	0x3c593983	0.013258341
21	0xba06ea9e	-0.0005146655
22	0x3b862824	0.0040941406
23	0x3b7577a0	0.0037455335
24	0x3c58127d	0.013188002
25	0x3cbdb47f	0.023157356
26	0x3c399443	0.011326852
27	0x3d165c83	0.03670932
28	0x3cbbef8d	0.022941375
29	0x3bdca387	0.006733361
30	0xbc359049	-0.011081764
31	0xbb849507	-0.0040460858
32	0xbbc8f129	-0.006132264
33	0x3c4efb29	0.012633123
34	0x3c594644	0.013261382
35	0xbc01bc19	-0.007918381
36	0x3bf38687	0.0074318084
37	0x3b9b30fc	0.004736064
38	0x3c6e633c	0.0145500265
39	0x3c68e817	0.014215491
40	0xbc0bff87	-0.008544809
41	0xbb12877f	-0.0022358594
42	0xbb06d644	-0.002057449
43	0x3a7b3a24	0.0009583554
44	0x3c2484ed	0.010041458
45	0x3bb2a097	0.0054512727
46	0x3c6a0a6a	0.0142847095
47	0x3cbf1ddc	0.023329668
48	0x3cf60e63	0.030036157
49	0x3c09aa91	0.008402483
50	0xbbbc1099	-0.0057392833
51	0xbb826596	-0.003979395
52	0x3c52a4e9	0.0128567
53	0xbabb7686	-0.001430229
54	0xbb82c6bc	-0.003990976
55	0x3c5e62ad	0.013573331
56	0x3cc2d2bc	0.023782127
57	0xbc8efe99	-0.017455386
58	0xbcd6d329	-0.026223736
59	0xbce3097e	-0.027714487
60	0xbce2404b	-0.027618548
61	0xbcdeb7de	-0.027187284
62	0xbc307fb0	-0.010772631
63	0x3aee618d	0.0018187031
64	0x3bd89146	0.006609115
65	0x3d139f46	0.036040567
66	0x3d166ac6	0.03672292
67	0x3c83afc8	0.01607503
68	0x3c1aa535	0.0094388025
69	0xbca6ac6e	-0.020345893
70	0xbcec79c6	-0.02886666
71	0xbd22bde0	-0.03973186
72	0xbd22648d	-0.039646674
73	0xbd1372d5	-0.035998184
74	0xbc8ec7e5	-0.017429302
75	0x3bf83173	0.007574254
76	0x3c7ede4d	0.01555593
77	0x3aa72c62	0.0012754316
78	0xba98fc2b	-0.0011671832
79	0x3c99b540	0.018763185
80	0x3bf66e89	0.007520501
81	0xbd06e144	-0.032929674
82	0xbcdfe169	-0.027329164
83	0xbd149a96	-0.036280237
84	0xbceb0b48	-0.028691903
85	0xbc0d42c7	-0.008621878
86	0xbc0f7bf1	-0.008757577
87	0xbcdb903e	-0.026802178
88	0xbc6ebdd1	-0.014571623
89	0xbc93b73f	-0.018031714
90	0xbc83c845	-0.016086707
91	0xbc44f847	-0.012022085
92	0xbb63dc4e	-0.0034768763
93	0x3b6f3880	0.0036502182
94	0xbce01472	-0.0273535
95	0xbca8ab4e	-0.020589497
96	0xbb7dd949	-0.0038734248
97	0xbc0f98a6	-0.008764422
98	0xbc38a5f0	-0.011270031
99	0xbbb3f476	-0.0054917885
100	0xbaac4d1d	-0.001314554
101	0xb9f017a0	-0.0004579397
102	0xbc29e4f5	-0.010369529
103	0xb9cefa14	-0.00039477705
104	0xbba35161	-0.0049840664
105	0xbbb2896d	-0.0054485113
106	0x3b004c39	0.0019576682
107	0xbb1bc063	-0.0023765794
108	0xbba54294	-0.005043337
109	0x3b21ef82	0.0024709408
110	0x3a98d692	0.0011660627
111	0xb8bc792d	-8.987109e-05
112	0x3b4e388b	0.0031466808
113	0xbc54def0	-0.012992606
114	0xbc773fca	-0.015090892
115	0xbc37d125	-0.011219298
116	0xbbab6d3f	-0.005231529
117	0xbb2c489f	-0.0026288403
118	0xbc40113d	-0.01172286
119	0xbc31112b	-0.010807316
120	0xbc8f9742	-0.01752818
121	0xbbec3a02	-0.0072090635
122	0xbc7b1398	-0.015324496
123	0xbbb67ee0	-0.005569324
124	0x3c18ab5d	0.0093182
125	0xba27c779	-0.0006400268
126	0x3c035834	0.008016635
127	0x3ab75b5f	0.0013989023
128	0xbab46d7b	-0.0013765538
129	0xbc34b480	-0.011029363
130	0xb8c873eb	-9.5583346e-05
131	0xbc21cf70	-0.009876117
132	0x3bae7e41	0.005325109
133	0x3b8888ca	0.004166697
134	0xbb10e172	-0.0022107032
135	0xbb749591	-0.0037320594
136	0xbc1ccf28	-0.009570874
137	0xbc137fc4	-0.00900263
138	0xbc005294	-0.007832188
139	0xbbeb6136	-0.0071832193
140	0xbbd7ed3c	-0.00658956
141	0x3b88338f	0.004156537
142	0x3b9b2583	0.0047346964
143	0xbb387e55	-0.0028151472
144	0x3aa48039	0.001255042
145	0xbbc5a653	-0.0060317903
146	0xb9f3e66e	-0.00046520255
147	0x3b25e4f3	0.0025313466
148	0xbc301152	-0.010746317
149	0xbbc0656f	-0.005871467
150	0xbd387de2	-0.045041926
151	0x3c9ab42b	0.018884739
152	0x3bbe89e1	0.0058147763
153	0xbca026fc	-0.01954984
154	0xbc3e0a45	-0.011599128
155	0x3d5c9c86	0.05386021
156	0x3b799e8e	0.003808889
157	0xbcc8c19c	-0.024506383
158	0xbd04f81e	-0.032463185
159	0xbc97ee6a	-0.018546302
160	0xbbcb276a	-0.006199767
161	0xbd09e607	-0.033666637
162	0xbd8f5686	-0.06998925
163	0xbdb02430	-0.08600652
164	0x3c68d2cd	0.014210415
165	0x3d56988b	0.05239157
166	0x3dbc1eb2	0.09185542
167	0xbd2c99f6	-0.042139016
168	0x3bd21500	0.006411195
169	0x3c890972	0.016728137
170	0xbc8df6fe	-0.01732969
171	0x3bc08afc	0.005875943
172	0xbd2b8f7c	-0.041884884
173	0xbd294c5e	-0.041332595
174	0xbb5e1181	-0.0033884945
175	0x3c59df6a	0.013297895
176	0xbd127ef0	-0.03576559
177	0x3cc5f326	0.024163794
178	0x3cf82f0a	0.030295867
179	0x3db039f3	0.08604803
180	0xbc81c1af	-0.015839426
181	0xbc8f1bb3	-0.017469263
182	0x3d066cb9	0.03281853
183	0xbd41d8a2	-0.047325738
184	0xbc2cebbb	-0.010554249
185	0x3d75369b	0.05986653
186	0x3d14a770	0.036292493
187	0x3d7a404e	0.061096482
188	0x3cb9049b	0.022585204
189	0x3daf8481	0.08570195
190	0x3c91e9bb	0.017811647
191	0x3bb1363d	0.005408077
192	0x3d676304	0.056490913
193	0x3d509ed2	0.050932713
194	0x3ccc058b	0.024904987
195	0x3cb6e47b	0.022325745
196	0x3c347357	0.011013827
197	0xbcdf3e4c	-0.027251385
198	0x3d24ae94	0.040205553
199	0xbbb0e6e8	-0.00539862
200	0x3af6b8f6	0.0018823433
201	0x3cbdb94e	0.02315965
202	0x3c03bf02	0.008041145
203	0x3c4f2dac	0.012645166
204	0x3b9427af	0.004521332
205	0x3c0d0429	0.008606949
206	0x3ba3509c	0.0049839746
207	0x3c655ceb	0.013999204
208	0x3cdcdaa2	0.026959721
209	0x3cae37f0	0.021266907
210	0x3a1ded41	0.00060244283
211	0x3ae67618	0.0017582802
212	0xbc22c26d	-0.00993405
213	0xbcc3ab35	-0.023885349
214	0xbcd70f0e	-0.026252296
215	0x3a0de70e	0.0005413153
216	0x3c94115e	0.018074688
217	0x3c9e30bf	0.019310353
218	0x3c682975	0.01417004
219	0x3c914d9e	0.017737206
220	0x3c11045f	0.00885114
221	0x3c0bbe39	0.008529239
222	0xbac1b62e	-0.0014779025
223	0xba9ca322	-0.0011950473
224	0x3c93f05b	0.018058946
225	0x3cc166df	0.023608623
226	0xba7bf8e6	-0.0009611979
227	0x3cf4f3c0	0.029901385
228	0x3d275846	0.04085567
229	0x3d14fa04	0.036371246
230	0x3b36f85c	0.002791903
231	0xbca3074f	-0.019900946
232	0x3cf30494	0.029665269
233	0x3d589d31	0.052884284
234	0x3d9e1358	0.07718533
235	0x3c0ec492	0.008713858
236	0x3a927611	0.0011174103
237	0xbc072ebb	-0.0082508875
238	0xbb37b5d9	-0.0028031974
239	0xbbeacc02	-0.007165433
240	0xbbd9d8a0	-0.006648138
241	0xbb8b1588	-0.00424451
242	0x3b16ece2	0.0023029377
243	0x3a3dd596	0.00072416046
244	0x3c13712b	0.008999149
245	0x3cad0154	0.021118797
246	0x3c0d4ebe	0.008624731
247	0xba93908b	-0.0011258287
248	0x3b9587b0	0.0045632944
249	0x3c4fe05c	0.012687769
250	0xbca2dd44	-0.019880898
251	0xbce5cd1a	-0.028051902
252	0x3c0f4b61	0.008745999
253	0xbb50e13c	-0.0031872531
254	0x3c12c996	0.008959195
255	0xbc44ac1b	-0.012003924

emb.feature_extractor.4.bias f4 [16]
0	0xb3c903d7	-9.36049e-08
1	0x32aa4632	1.9822526e-08
2	0xb2f826d2	-2.8888653e-08
3	0xb2f7d8a0	-2.8853094e-08
4	0x31e313b8	6.6088113e-09
5	0xb35e8f03	-5.181847e-08
6	0xb33aa021	-4.3452136e-08
7	0xb3241a9c	-3.8208427e-08
8	0x343f44c5	1.781328e-07
9	0xb2dc4703	-2.5643663e-08
10	0xb41862e0	-1.4192074e-07
11	0x3319727c	3.572721e-08
12	0xb444404d	-1.8277315e-07
13	0x33d03e71	9.697113e-08
14	0xb2936156	-1.7157316e-08
15	0x32444e0a	1.1426446e-08

emb.feature_extractor.5.weight f4 [16]
0	0x3f2bdb83	0.67131823
1	0x3eaeb936	0.3412568
2	0x3e9986ee	0.29985756
3	0x3ea58d16	0.32334203
4	0x3ea7a78f	0.32745025
5	0x3f211e22	0.62936604
6	0x3e9c8842	0.30572706
7	0x3ef51f65	0.47875515
8	0x3f0e1e40	0.5551491
9	0x3ee5ff15	0.44921175
10	0x3f2bc323	0.6709463
11	0x3f25c204	0.6474917
12	0x3f107909	0.56434685
13	0x3f081136	0.5315126
14	0x3e9e7bf6	0.3095395
15	0x3f1e2af9	0.6178432

emb.feature_extractor.5.bias f4 [16]
0	0xbf024aae	-0.508952
1	0xbe5adaad	-0.2137248
2	0xbe167282	-0.14692119
3	0xbe990c5a	-0.29892236
4	0xbe737cd1	-0.23778082
5	0xbedabd79	-0.4272268
6	0xbe573e0a	-0.2101976
7	0xbee4dc13	-0.44699153
8	0xbed0db01	-0.40792087
9	0xbe9415a5	-0.28922763
10	0xbedf4f9b	-0.43615422
11	0xbef4d10c	-0.4781574
12	0xbe774cba	-0.24150363
13	0xbe84da6f	-0.25947902
14	0xbe4d8417	-0.2006992
15	0xbea88fde	-0.32922262

emb.feature_extractor.5.running_mean f4 [16]
0	0xc13e5615	-11.896016
1	0x3fbd6e1e	1.479923
2	0x3ff06287	1.8780068
3	0x40372fbe	2.862289
4	0x3fe6b005	1.8022467
5	0xc1467e70	-12.405869
6	0x3fae6e29	1.3627368
7	0xc10616ac	-8.380535
8	0xc10b6be7	-8.713843
9	0xc09fce7f	-4.993957
10	0xc12e910f	-10.910415
11	0xc1484a57	-12.518149
12	0xc11d685e	-9.83798
13	0xc0aa65f9	-5.324948
14	0x405de414	3.4670458
15	0xc0f01408	-7.502445

emb.feature_extractor.5.running_var f4 [16]
0	0x40ee3ae2	7.444688
1	0x4010ad2b	2.2605693
2	0x3f54f886	0.83191717
3	0x3f843448	1.0328455
4	0x3f7f9c5f	0.9984798
5	0x4105a864	8.353611
6	0x3fa3a03d	1.2783276
7	0x407bb40e	3.9328647
8	0x40d74681	6.7273564
9	0x40222727	2.5336397
10	0x40b3c7bb	5.618131
11	0x4107afed	8.480451
12	0x40888830	4.2666245
13	0x408801ce	4.2502203
14	0x40041876	2.063993
15	0x40ac5fff	5.3867183

emb.fc.1.weight f4 [100, 192]
0	0x3daa2479	0.08307738
1	0xbb3fba95	-0.0029255499
2	0xba4e2fd1	-0.00078654016
3	0xb96b5e44	-0.00022446463
4	0x3a54c024	0.00081157894
5	0x3d27c1bb	0.04095624
6	0xbd306215	-0.04306229
7	0x3a0f0a9d	0.00054565986
8	0x3409d8b2	1.2837953e-07
9	0xa9117104	-3.2294493e-14
10	0x3aad0756	0.0013201039
11	0x3946b8d2	0.00018951602
12	0x3a915090	0.0011086632
13	0x3b7a5fb0	0.0038204007
14	0x3b9833af	0.004644833
15	0xbc813926	-0.01577432
16	0x3b9b5924	0.004740851
17	0xbb923aae	-0.0044625616
18	0x38e6cdaf	0.00011005566
19	0x3ad28487	0.0016061225
20	0xbc46a616	-0.012124559
21	0x3ce2b757	0.027675314
22	0xbdac5388	-0.0841437
23	0x3d3d419c	0.046205148
24	0xbb3aa0e6	-0.002847725
25	0xba0fcd4a	-0.00054856075
26	0x3b2e1264	0.0026561255
27	0xbb2c5622	-0.0026296456
28	0xbadf0b5e	-0.0017016937
29	0xb3f0456f	-1.1188501e-07
30	0x3c90fb74	0.017698027
31	0x3b3348b1	0.002735656
32	0xbcc8f3e4	-0.024530359
33	0xbb891ffe	-0.004184722
34	0xbbda4646	-0.0066612093
35	0xb7fac231	-2.989275e-05
36	0xb873a43d	-5.8088674e-05
37	0x3b4e7ea4	0.003150859
38	0xba8e5c26	-0.0010861203
39	0x38aa9d77	8.135562e-05
40	0xbabfc840	-0.0014631823
41	0xb99c3f0c	-0.00029801612
42	0x35997aac	1.143509e-06
43	0x3d0b4bdf	0.034007903
44	0xbcafa615	-0.021441499
45	0x3993f203	0.00028218338
46	0xb918d8a1	-0.0001457655
47	0xbcbdd865	-0.023174474
48	0xbb2a0875	-0.0025944982
49	0x3a1e39da	0.0006035842
50	0xbb2242bf	-0.0024759022
51	0xba53ef43	-0.0008084664
52	0xbac8b331	-0.0015312192
53	0xb3175731	-3.5236727e-08
54	0xba981efb	-0.0011605913
55	0x3b73d954	0.0037208395
56	0xbc1a0eda	-0.009402955
57	0xbc192b2e	-0.009348674
58	0xbb23da89	-0.0025002083
59	0xb4ddc359	-4.1306592e-07
60	0xbcc8aee2	-0.024497453
61	0x3c962306	0.018327247
62	0xb8ca9dc8	-9.6615e-05
63	0xb76d09b0	-1.4128556e-05
64	0xba975948	-0.0011546994
65	0xbc0fab4f	-0.0087688705
66	0xbdea62f9	-0.11444659
67	0xbb23fd21	-0.0025022703
68	0x364ca833	3.0496274e-06
69	0xa7c8c0f8	-5.572037e-15
70	0x347e7ff8	2.3702148e-07
71	0x3d3c1116	0.045914732
72	0xb9d6cfae	-0.00040971994
73	0x3c688087	0.0141908
74	0x3ab10b0e	0.0013507323
75	0xbc4ffda0	-0.012694746
76	0x3c03f1ef	0.008053287
77	0xbc1bb65a	-0.009503925
78	0xbce1130c	-0.027474903
79	0xbcc9634c	-0.024583481
80	0xbcc66267	-0.024216844
81	0x3c55ceb9	0.013049775
82	0x3ca3cb1b	0.01999431
83	0x3c09407b	0.00837719
84	0x3ca84a77	0.02054332
85	0xbc1febc6	-0.009760803
86	0x38c64499	9.454153e-05
87	0xb86b6c48	-5.612921e-05
88	0xbadbce83	-0.0016769919
89	0xbcdfd158	-0.027321503
90	0xbccefb5f	-0.025266347
91	0xbb67e8ff	-0.003538668
92	0xba0da063	-0.00054026226
93	0xb2cea906	-2.405842e-08
94	0xbacf3e39	-0.001581139
95	0x3b69e6f5	0.003569064
96	0x3cf00509	0.029299276
97	0xbc720d0b	-0.0147736175
98	0x3d528db8	0.051404685
99	0x3d228c1d	0.039684404
100	0x3c030558	0.0079968795
101	0xbc4055f5	-0.011739244
102	0x3dc33c7c	0.09533021
103	0x3b16b79b	0.002299762
104	0xb9709dfa	-0.00022947034
105	0xbb0f809d	-0.0021896728
106	0xb8aacfd0	-8.14494e-05
107	0x3bbfdd80	0.0058552623
108	0x3c4cca63	0.012499425
109	0x3ca33556	0.019922893
110	0xbb839b0f	-0.004016287
111	0x3cafd3c6	0.021463286
112	0xbce4b443	-0.027917987
113	0xbd0081ed	-0.031373907
114	0xbd6e6f1a	-0.058211423
115	0xbc80d268	-0.01572533
116	0xbc19cb97	-0.0093869185
117	0x3c4bf87e	0.012449382
118	0x3b89d86e	0.0042067086
119	0xbc4adff2	-0.012382494
120	0xbcf38cc7	-0.029730214
121	0x3c1cde9b	0.009574558
122	0x36306bdb	2.6288824e-06
123	0xb5abaf7b	-1.2791564e-06
124	0x3b7ff5ab	0.0039056342
125	0xbd9a5bec	-0.07537064
126	0xbba1e570	-0.004940681
127	0x3a4a128b	0.00077084516
128	0x363695c6	2.7207293e-06
129	0xba2723a1	-0.00063758536
130	0x3ac13c1d	0.0014742647
131	0x3cf3c92d	0.029759014
132	0x3c0b6ba9	0.008509555
133	0xbaa26534	-0.001238978
134	0xb77f0eaf	-1.5202603e-05
135	0x398e27ed	0.00027114098
136	0xbc32adaa	-0.010905663
137	0x3d7b52e3	0.061358344
138	0xbba61921	-0.0050689136
139	0xbb7d3c13	-0.0038640543
140	0x35ad8f64	1.2931237e-06
141	0xabe83af0	-1.650095e-12
142	0xba8144de	-0.0009862443
143	0x3cece15d	0.028916055
144	0xbd001e71	-0.03127903
145	0xbccf7eb2	-0.025328968
146	0xbc0174d1	-0.007901386
147	0x3cdb4c98	0.026769921
148	0xbcc70a78	-0.024296984
149	0x3c67b2d8	0.014141761
150	0x3d526baf	0.051372226
151	0x38416bf0	4.611531e-05
152	0x3b3971ec	0.0028296662
153	0xbb1eb446	-0.0024216338
154	0xbd14cb52	-0.036326714
155	0xbcb2ba81	-0.021817448
156	0x3cc025f6	0.023455601
157	0x3b300c79	0.0026862903
158	0x3bd9f6d8	0.0066517405
159	0x3c0804c2	0.008301916
160	0x3d3805cd	0.044927407
161	0xbcacf3c0	-0.021112323
162	0xbba1d0cf	-0.004938222
163	0xbc789a66	-0.01517353
164	0x3c08b3de	0.008343665
165	0x3d3009f0	0.042978227
166	0x3bc384ba	0.00596675
167	0xbcae1a56	-0.021252792
168	0xbaf0b55d	-0.0018364597
169	0xba9aeec3	-0.0011820424
170	0xbae1a5ba	-0.0017215528
171	0x3bd6b700	0.006552577
172	0xb9d4d7e1	-0.00040596633
173	0x985c9756	-2.8510739e-24
174	0x3c622aee	0.013804181
175	0x3c6c844b	0.014435838
176	0xbc0e2fec	-0.008678418
177	0x3c3e1c16	0.011603376
178	0x3b928813	0.0044717877
179	0xb687b109	-4.043923e-06
180	0xbceb3e31	-0.028716179
181	0xbcaa52ea	-0.02079149
182	0xbbfffa64	-0.0078118313
183	0x3d51f1f1	0.051256124
184	0xbb6e1d49	-0.0036333373
185	0x3ce33304	0.027734287
186	0xbc819fce	-0.015823271
187	0xbc23e0ef	-0.010002359
188	0x3bee19e0	0.007266268
189	0x3b07e950	0.002073843
190	0x3c561788	0.013067134
191	0x3c065b29	0.008200445
192	0x3dd5d9aa	0.10441907
193	0xbb8d8d54	-0.004319826
194	0xb834f240	-4.3140957e-05
195	0x3b061854	0.0020461278
196	0xbca3b593	-0.019984042
197	0xbd83193f	-0.064013
198	0xbcb68c7b	-0.022283783
199	0xb9753a0a	-0.00023386642
200	0x34f26f9e	4.5157225e-07
201	0xaa1a13b8	-1.3684789e-13
202	0x3a988159	0.0011635228
203	0x3c02e1e0	0.007988423
204	0xb90b02e4	-0.0001325715
205	0x3ba3caf7	0.0049985605
206	0xba314ad8	-0.0006763167
207	0xbc50bcfd	-0.012740371
208	0x3cbcdb41	0.023053767
209	0x3c5399b2	0.012915062
210	0x3a77da34	0.0009454817
211	0x3d31b3ca	0.04338435
212	0x3d1925b8	0.037389487
213	0xbc9383eb	-0.01800724
214	0x3cabbce7	0.0209641
215	0xbc88f03b	-0.016716113
216	0xbc189461	-0.00931272
217	0xbb137f1f	-0.002250619
218	0xbb8e08c1	-0.0043345396
219	0x3a05a680	0.0005098358
220	0xba8df409	-0.0010830174
221	0x27fd2b56	7.026859e-15
222	0xbbe35c06	-0.0069384603
223	0x3c5be794	0.013421912
224	0xbc8b22b4	-0.016984321
225	0x3bf608c2	0.007508368
226	0x3d07cc17	0.03315362
227	0x383370bd	4.278192e-05
228	0xb685a29f	-3.9826405e-06
229	0xb90b01fc	-0.00013256812
230	0x3a133f11	0.00056170026
231	0x3afcd163	0.0019288476
232	0xbbf67565	-0.0075213187
233	0xbbe2f5f0	-0.0069262907
234	0xb9b670e7	-0.00034797864
235	0x3c5c6a9d	0.013453153
236	0x3b9b8e31	0.004747175
237	0xb99629f5	-0.0002864149
238	0x3bae02f3	0.00531041
239	0x3cb4b9ed	0.022061313
240	0x3c0e07ac	0.008668821
241	0xbb1d6006	-0.0024013533
242	0xbb8c408a	-0.0042801546
243	0xbab2dda3	-0.0013646375
244	0xb9bcc7d5	-0.0003600704
245	0x1989bd6c	1.4241975e-23
246	0x3b4a9deb	0.003091688
247	0xbc8962fa	-0.016770829
248	0xbca609ed	-0.020268405
249	0x3b578e2f	0.0032891145
250	0xbb805b02	-0.003917099
251	0xb4cd692b	-3.8260745e-07
252	0xbc5b41ba	-0.01338237
253	0x3d397904	0.045281425
254	0x3a2b5bb0	0.0006536795
255	0xb96da589	-0.00022663748

emb.fc.1.bias f4 [100]
0	0x9e398b09	-9.82257e-21
1	0x18bfb8c9	4.955893e-24
2	0x1d2c3f9c	2.2796896e-21
3	0x1713ef5a	4.7800366e-25
4	0x9d41b2f4	-2.5635854e-21
5	0x98bb1816	-4.8362688e-24
6	0x9b1ae693	-1.2813084e-22
7	0x9e99bb79	-1.6277042e-20
8	0x22d8c1c0	5.875206e-18
9	0xa00c7b97	-1.1899354e-19
10	0x1619d058	1.2424983e-25
11	0x1d16ea59	1.997349e-21
12	0x98cb1999	-5.2500117e-24
13	0x209eafff	2.6882706e-19
14	0x19e14bd5	2.3295083e-23
15	0x98298d68	-2.191413e-24
16	0x214c486f	6.9213754e-19
17	0x9e224fbe	-8.592699e-21
18	0x198139eb	1.336168e-23
19	0x1825e0ec	2.1439307e-24
20	0x992bb705	-8.877453e-24
21	0xa155484b	-7.2262886e-19
22	0x19096f6d	7.105236e-24
23	0x1648ba6b	1.6214694e-25
24	0x97979dd0	-9.797984e-25
25	0xa1ae0b7c	-1.1793739e-18
26	0x99071bf2	-6.98498e-24
27	0x190f73a5	7.416281e-24
28	0x97e0dc47	-1.4531267e-24
29	0x9b0505d5	-1.1003387e-22
30	0x993574cd	-9.3810684e-24
31	0x1ee3dbff	2.4125548e-20
32	0x9789a9b4	-8.896257e-25
33	0x970f01fa	-4.6208287e-25
34	0x99aeca8b	-1.8072985e-23
35	0x9abe4929	-7.8700355e-23
36	0x253f5417	1.65951e-16
37	0x9f734a46	-5.151869e-20
38	0x9e7b30aa	-1.3297893e-20
39	0x99b15365	-1.8335054e-23
40	0x98a4ede0	-4.26332e-24
41	0x19283e92	8.6980324e-24
42	0x2147585e	6.7540776e-19
43	0xa4b1aa2f	-7.7049816e-17
44	0x19eb597e	2.4334576e-23
45	0x256bea02	2.0462286e-16
46	0x17b70a22	1.1828656e-24
47	0x979b7c83	-1.0048071e-24
48	0x9c1e6f58	-5.2421723e-22
49	0x9a831012	-5.420629e-23
50	0x182f1dfc	2.2633358e-24
51	0x9cd6100f	-1.4165483e-21
52	0xa5609a6a	-1.948122e-16
53	0x248e0a36	6.159998e-17
54	0x9abde0c2	-7.8531684e-23
55	0x998b419f	-1.4398767e-23
56	0x9859cdf3	-2.815057e-24
57	0x98f7b740	-6.403304e-24
58	0x1d537d73	2.7990473e-21
59	0x9b757987	-2.0305193e-22
60	0x222f9553	2.3795974e-18
61	0x980fc0dd	-1.8579688e-24
62	0x99de25e4	-2.2969566e-23
63	0x187c4608	3.2605593e-24
64	0xa149ed8c	-6.841584e-19
65	0x1a0b8822	2.8854493e-23
66	0x20e125ac	3.8141412e-19
67	0x17be95e9	1.2316305e-24
68	0x96808d19	-2.076856e-25
69	0x9828727e	-2.1771295e-24
70	0x974538d8	-6.372588e-25
71	0x97c18a2e	-1.2507214e-24
72	0x976297ea	-7.321628e-25
73	0x1a7676b9	5.096751e-23
74	0x1a03ed84	2.728203e-23
75	0x1a14e879	3.0793473e-23
76	0xa259124b	-2.9418668e-18
77	0x9991640f	-1.5033062e-23
78	0x18e1edea	5.840137e-24
79	0x23541da6	1.1498821e-17
80	0xa6809199	-8.921249e-16
81	0xa66528b8	-7.950552e-16
82	0xa0395cc8	-1.5700808e-19
83	0x18c7f815	5.1690793e-24
84	0x988438fd	-3.4178744e-24
85	0x25c9bafa	3.4994642e-16
86	0x232b86a5	9.298441e-18
87	0x96af8c61	-2.8361366e-25
88	0xa0424c33	-1.6457651e-19
89	0xa2575ab4	-2.9185951e-18
90	0xa350fde0	-1.1329463e-17
91	0x25484ac1	1.7372562e-16
92	0x9873a15b	-3.1488478e-24
93	0x19e1694f	2.3306989e-23
94	0x188f4f86	3.704493e-24
95	0x1e82f29f	1.3864631e-20
96	0x1e028aff	6.9108864e-21
97	0x1e748b2a	1.2946031e-20
98	0x1c002382	4.239754e-22
99	0x9656b774	-1.734467e-25

clf.1.weight f4 [1, 100]
0	0xbb774ede	-0.0037736217
1	0x3b3ef5a3	0.002913811
2	0xbd65e301	-0.05612469
3	0xbd1463e6	-0.036228083
4	0xbcba6077	-0.022751076
5	0xbbc78268	-0.0060885437
6	0xbc4f46dc	-0.012651172
7	0xbd6f18d4	-0.058373287
8	0xbcd5461a	-0.026034404
9	0xbc4facbd	-0.012675461
10	0xbd5fc751	-0.054633442
11	0xbc056ef1	-0.008144126
12	0xbc8ab006	-0.016929638
13	0xbc827134	-0.01592312
14	0xbcfd8a6b	-0.030949792
15	0xbd2dae76	-0.042402707
16	0xbc9f9a80	-0.019482851
17	0xbd3a9a53	-0.04555733
18	0xbc39fa51	-0.011351184
19	0xbd0275c0	-0.031850576
20	0xbc964172	-0.018341754
21	0xbb588395	-0.0033037413
22	0xbaa8e348	-0.0012885118
23	0xbd51ef21	-0.05125344
24	0xbcded2e3	-0.027200168
25	0xbcad7713	-0.021174943
26	0xbcb46059	-0.022018598
27	0xbbc0db1c	-0.005885495
28	0xbcb85bdf	-0.022504745
29	0xbcacf031	-0.021110626
30	0xbd0978b7	-0.03356239
31	0xbd0efa79	-0.034906838
32	0xbd4a813f	-0.049439665
33	0xbd0ea40d	-0.03482442
34	0xbd1eb75a	-0.038749076
35	0xbd223f91	-0.039611403
36	0xbb2620dc	-0.0025349176
37	0xbc7c29e4	-0.015390847
38	0xbc446d01	-0.011988879
39	0xbd55adf6	-0.052167855
40	0xbd0d9975	-0.034570176
41	0xbd2a16b7	-0.04152557
42	0xbcdad884	-0.02671457
43	0xbcaa62f0	-0.02079913
44	0xbb93a3cc	-0.00450561
45	0xbd149866	-0.03627815
46	0xbc9c89ce	-0.01910868
47	0xbcb35002	-0.021888737
48	0xbcf859cc	-0.030316256
49	0xbd6345c1	-0.055486444
50	0xbcdb3c03	-0.026762014
51	0xbb6e8536	-0.0036395318
52	0xbd10656d	-0.035252977
53	0xbd27d10f	-0.04097086
54	0xbd67ca31	-0.05658931
55	0xbce3054c	-0.027712487
56	0xbb7b2045	-0.0038318795
57	0xbbed09c1	-0.007233829
58	0xbcf41dfd	-0.029799456
59	0xbd226b9a	-0.039653398
60	0xbd36efe6	-0.04466238
61	0xbc777366	-0.015103197
62	0xbd376515	-0.044774134
63	0xbd3a70eb	-0.045517843
64	0xbd5e8a1e	-0.054330938
65	0xbcfb363e	-0.030665513
66	0xbb4c7f4b	-0.0031203802
67	0xbd2c78c0	-0.042107344
68	0xbcda67ed	-0.026660884
69	0xbd53e46d	-0.051731516
70	0xbc16c2b8	-0.009201698
71	0xbcb04e19	-0.021521615
72	0xbc7c7c95	-0.015410562
73	0xbcd8401d	-0.02639776
74	0xbd451d3a	-0.048123576
75	0xbb9799f7	-0.0046265083
76	0xbd206c82	-0.03916598
77	0xbd8474e8	-0.064676106
78	0x3c5e75c4	0.013577882
79	0x3c0af1f4	0.008480538
80	0xbc16c946	-0.009203261
81	0xbd3cceec	-0.046095774
82	0xbccebcbd	-0.025236482
83	0xbcb77229	-0.022393303
84	0xbd74f9d8	-0.059808582
85	0xbd218be6	-0.03944006
86	0xbd2cd2cc	-0.04219322
87	0xbd436849	-0.047706876
88	0xbc2361b3	-0.009972024
89	0x3cb173fd	0.021661753
90	0xbc0f719a	-0.008755112
91	0xbd7c94a1	-0.06166518
92	0xbc836b4c	-0.016042374
93	0xbd0673f4	-0.032825425
94	0xbc1ada33	-0.009451437
95	0xbc109cc9	-0.008826443
96	0xbd433cc4	-0.047665372
97	0xbcd7969d	-0.026316935
98	0xbd26eda8	-0.04075399
99	0xbccb5d13	-0.024824655

exp_avg f4 [2, 1, 2, 1]
0	0x3c13bce0	0.009017199
1	0xbc09781e	-0.008390455
2	0x3c342ae7	0.010996557
3	0x3cb2cf73	0.021827435

exp_avg_sq f4 [2, 1, 2, 1]
0	0x3c47273a	0.012155348
1	0x3bdfab20	0.0068258196
2	0x3b7fdac3	0.0039040304
3	0x3c15859d	0.009126094

exp_avg f4 [2]
0	0xb947ecb3	-0.00019066296
1	0xbb636004	-0.003469468

exp_avg_sq f4 [2]
0	0x39d536c4	0.0004066733
1	0x39d056d9	0.00039737558

exp_avg f4 [16, 1, 1, 50]
0	0xba018bea	-0.00049418083
1	0x3a3970a3	0.0007073974
2	0x3a5ee328	0.0008502477
3	0x3a04d1d3	0.00050666666
4	0x39cb93d1	0.0003882931
5	0x3aa6bcb9	0.0012721039
6	0x38d961f5	0.00010365612
7	0x3a411d30	0.0007366715
8	0x3a268009	0.0006351476
9	0x3a73ad2d	0.00092955196
10	0x3ad08fb1	0.0015911964
11	0x39c00911	0.0003662785
12	0x3acb1754	0.0015494623
13	0x3acc7c66	0.0015601038
14	0x39c92f79	0.00038373077
15	0xb9b40553	-0.00034336242
16	0xb840e1f5	-4.5986806e-05
17	0xb9be9ca5	-0.00036356333
18	0xb77fa23b	-1.5236957e-05
19	0x3a661dbe	0.00087782356
20	0x39c8fb8f	0.00038334398
21	0x3a3697f7	0.00069653935
22	0x3b187492	0.002326284
23	0x3afafd40	0.0019148961
24	0xb866ef6e	-5.505926e-05
25	0xb9169c4e	-0.00014363343
26	0x395ee17e	0.00021255572
27	0xb9b6bcb3	-0.00034854337
28	0x39cc3e13	0.0003895616
29	0x39a74d20	0.00031910185
30	0x3ac4b45d	0.0015007366
31	0xb90b96ed	-0.00013312297
32	0x3a40c344	0.00073533156
33	0x3a05a45f	0.00050980406
34	0xb9c89973	-0.000382613
35	0x39156e81	0.00014250913
36	0xb8a2a15c	-7.7548175e-05
37	0xbaaacb0a	-0.0013030481
38	0x3a3aab9f	0.00071209104
39	0x39cdcd29	0.00039253503
40	0x3a96b099	0.0011496722
41	0x3aab914b	0.0013089565
42	0x3aabd163	0.0013108667
43	0xb9ea19f3	-0.00044651292
44	0xb92eb18c	-0.00016660074
45	0xba2c697c	-0.00065769977
46	0xba86f64d	-0.0010296792
47	0xba601f95	-0.0008549628
48	0xbad335c4	-0.0016114046
49	0xba22cbcd	-0.0006210178
50	0x3997a138	0.00028921082
51	0x3ac7f491	0.0015255382
52	0x3a18bb1a	0.000582622
53	0xba874ee9	-0.00103232
54	0xb9de00e3	-0.000423438
55	0x3a7e389c	0.00096977665
56	0x3ab77088	0.0013995329
57	0x3a440a89	0.00074783765
58	0xba4c0a88	-0.00077835517
59	0xba8652c0	-0.001024805
60	0xb81a663f	-3.6811685e-05
61	0x3a49b112	0.0007693927
62	0x39c8103b	0.00038159065
63	0x3acf416b	0.0015812343
64	0x3a223c4c	0.00061887945
65	0x39856986	0.00025446358
66	0xba0e485e	-0.00054276537
67	0x3aa10fb6	0.0012288007
68	0xba9043d2	-0.001100654
69	0xba3f2792	-0.0007291968
70	0x3a815a1e	0.0009868776
71	0x397aa878	0.00023904617
72	0xba3a01da	-0.0007095613
73	0xb9b0702b	-0.00033652908
74	0x3b08737b	0.0020820785
75	0xb960056f	-0.00021364329
76	0xb8bc69c7	-8.984241e-05
77	0x3ad02756	0.0015880864
78	0x3aa8189b	0.0012824716
79	0xbadbf19d	-0.001678038
80	0xba2cf686	-0.0006598014
81	0x398b777b	0.00026601166
82	0x3ad19a26	0.0015991374
83	0x39abb18d	0.00032747947
84	0xb776e143	-1.471519e-05
85	0x3a9aed35	0.0011819961
86	0xba6f9cda	-0.0009140499
87	0x3a8b070e	0.0010606961
88	0x3b0951c1	0.002095327
89	0x3a942cac	0.0011304817
90	0xba2f990c	-0.0006698526
91	0xba27d72e	-0.00064026087
92	0x3a0e8f5d	0.0005438233
93	0x39f235a7	0.0004619781
94	0x3a217111	0.0006158511
95	0xba1ecc94	-0.0006057706
96	0xbabc0884	-0.00143458
97	0x39eed73e	0.00045555265
98	0x3aa8c4f7	0.0012876083
99	0x39aa121f	0.00032438428
100	0xba5af844	-0.00083530345
101	0x39dd3cdd	0.00042197751
102	0x3a5d3726	0.0008438699
103	0xb9ee3adb	-0.00045438748
104	0x3754ad40	1.2676523e-05
105	0x3a748d44	0.00093289115
106	0x39bf8dc7	0.0003653599
107	0xb9b30c97	-0.0003415092
108	0xba0b535b	-0.000531485
109	0xb8cc4f6f	-9.742274e-05
110	0xb9ac99e4	-0.00032921054
111	0xb98e91c5	-0.00027192957
112	0x394ad69a	0.00019344167
113	0xb8e1c7f9	-0.00010766084
114	0xb6113b91	-2.1641356e-06
115	0xb9cad062	-0.000386837
116	0xb7863f63	-1.6003562e-05
117	0x39610b40	0.00021461863
118	0x3a1ddf83	0.00060223805
119	0xba91fc3c	-0.0011137794
120	0x381074c7	3.4441033e-05
121	0x3a5c1d64	0.00083967135
122	0x3a3c2509	0.00071771495
123	0x3a88daad	0.0010441147
124	0x397401e3	0.00023270356
125	0x3a435f66	0.0007452875
126	0x3ab7e8d6	0.0014031183
127	0xb9522ea8	-0.00020044541
128	0x39f6a9fa	0.0004704742
129	0x3a2fe932	0.0006710469
130	0x39594b55	0.00020722796
131	0x3a2392dd	0.0006239841
132	0x3a91c82d	0.0011122279
133	0x398dd841	0.00027054737
134	0x39ea571c	0.0004469686
135	0x3a43bf40	0.0007467158
136	0xb994f44e	-0.0002841078
137	0xba9f91d9	-0.0012174203
138	0xba6dfed0	-0.00090788025
139	0xbac33b9f	-0.0014895088
140	0xba2d79e0	-0.0006617587
141	0xba755b79	-0.0009359639
142	0xba32f4bd	-0.000682663
143	0xb8ee1ce2	-0.00011354104
144	0xb8861acb	-6.3946085e-05
145	0xb993f0d4	-0.00028217456
146	0xb9f11c71	-0.00045988293
147	0x3910be4e	0.00013803804
148	0xba0cb289	-0.000536718
149	0xb9956f93	-0.00028502624
150	0xbb3a3e94	-0.0028418647
151	0xb9b7720f	-0.0003498946
152	0x39f229b6	0.00046188914
153	0x3abfdb7f	0.0014637558
154	0xb8eed5b1	-0.000113885275
155	0xbae3fef8	-0.0017394712
156	0xb9c39463	-0.00037303855
157	0xbb18acd0	-0.0023296364
158	0x3a04367d	0.000504352
159	0xba300b34	-0.00067155366
160	0x3b02ebd5	0.0019976993
161	0xba7a5cb4	-0.0009550557
162	0x39018987	0.00012353632
163	0xba9d281e	-0.0011990105
164	0x3b45a347	0.0030157135
165	0x3a78a761	0.00094853906
166	0x3bae5801	0.0053205495
167	0x3bcd93af	0.006273709
168	0x3b65a150	0.0035038777
169	0x3a4ed4f3	0.0007890008
170	0xbb39d1a0	-0.0028353706
171	0x3b924888	0.004464213
172	0xb94fb72f	-0.000198093
173	0x3ac75fa6	0.0015211
174	0xba036da4	-0.0005013591
175	0xbac82b36	-0.0015271667
176	0xbb51bfba	-0.0032005147
177	0xbb7a0add	-0.0038153448
178	0xba6c50fc	-0.0009014753
179	0xbb848f57	-0.0040454078
180	0x3aabd8d6	0.0013110887
181	0x3a91ae80	0.0011114627
182	0x3b75b256	0.003749033
183	0x3a356884	0.0006920176
184	0xbb6a2c2a	-0.003573189
185	0xbaf2a37b	-0.0018511856
186	0x3b1b5da9	0.002370695
187	0xbafe2028	-0.0019388245
188	0x3afc6ea7	0.0019259051
189	0x3b7814fb	0.0037854302
190	0x3b9579f9	0.0045616594
191	0xbb215547	-0.002461748
192	0x3a89b0bd	0.0010504943
193	0xbb32d87a	-0.0027289675
194	0x39fa510f	0.0004774411
195	0x3b988b06	0.0046552448
196	0x3baf25fd	0.0053451047
197	0x3b59e671	0.0033248926
198	0x3aed0395	0.0018082733
199	0xbbe372ac	-0.00694116
200	0x3934ff59	0.00017261262
201	0x39c64fac	0.00037824863
202	0xb9d7cfbd	-0.00041162773
203	0x38c8a872	9.5681185e-05
204	0xb8846216	-6.3125204e-05
205	0xb8b6c5ed	-8.715303e-05
206	0x3a482ea1	0.0007636343
207	0x3a5a277d	0.0008321924
208	0x3a64d5c6	0.00087293645
209	0x3a1bef67	0.00059484545
210	0x3acbe76e	0.0015556642
211	0xb95d83a2	-0.0002112524
212	0x3637e08c	2.7399828e-06
213	0x39afc285	0.0003352353
214	0xb9dcc3d9	-0.00042107588
215	0xb944e1ec	-0.00018776179
216	0x3a261e26	0.000633689
217	0x3a2fecfd	0.0006711034
218	0x3a8fc538	0.001096881
219	0x3a981293	0.0011602215
220	0x3ac51c89	0.0015038411
221	0x3ada0314	0.0016632997
222	0xb8ca7331	-9.653567e-05
223	0xba04c829	-0.00050652266
224	0xb9a59f87	-0.0003159011
225	0xb9185686	-0.00014528082
226	0x391dac7b	0.00015036941
227	0x3a6343aa	0.00086694455
228	0x3a3d840b	0.0007229454
229	0x3983712f	0.00025070595
230	0xb983bb7a	-0.00025125948
231	0xb84de23f	-4.9086517e-05
232	0xb95cc4bb	-0.00021054123
233	0xba51f9db	-0.00080099487
234	0xba8dbdbd	-0.0010813993
235	0xba334c34	-0.0006839663
236	0xba1f2dd2	-0.00060721964
237	0xb9b2e63f	-0.00034122352
238	0x386a964b	5.592992e-05
239	0x39ea85a9	0.00044731543
240	0x3a13470e	0.0005618193
241	0xb80f8bff	-3.422424e-05
242	0xb9d56377	-0.00040700633
243	0xba50adbd	-0.00079604593
244	0xba737dff	-0.0009288489
245	0xba4cfee1	-0.00078199623
246	0xba4f08d4	-0.0007897739
247	0xba086fff	-0.0005204677
248	0xb9a500ca	-0.0003147184
249	0xb9cb37a7	-0.00038760641
250	0xba239c7e	-0.00062412757
251	0x3a30497d	0.0006724818
252	0x3aaaf23a	0.001304216
253	0x3b06ba71	0.0020557905
254	0x3a89baec	0.0010507978
255	0x3a3c6468	0.00071865926

exp_avg_sq f4 [16, 1, 1, 50]
0	0x374e9700	1.2313714e-05
1	0x374ae6d9	1.2093887e-05
2	0x37496065	1.2002977e-05
3	0x375929ab	1.29439095e-05
4	0x374d749f	1.2246105e-05
5	0x375cc63b	1.3159176e-05
6	0x37538def	1.26096265e-05
7	0x375bd7d7	1.3103671e-05
8	0x374c968f	1.2194402e-05
9	0x37303be9	1.0504366e-05
10	0x375a38ce	1.3007038e-05
11	0x3751df0d	1.2509304e-05
12	0x377b3bc2	1.4974679e-05
13	0x3778cbca	1.48294e-05
14	0x374f36a2	1.2350882e-05
15	0x37537e7b	1.2606029e-05
16	0x375b919f	1.3087322e-05
17	0x3764b990	1.3633064e-05
18	0x372ad3d0	1.0182106e-05
19	0x37403bcf	1.1458017e-05
20	0x373ed457	1.1374322e-05
21	0x374fa052	1.2375489e-05
22	0x3779315d	1.485305e-05
23	0x376eee3e	1.42413755e-05
24	0x375675de	1.2782837e-05
25	0x3738fdf3	1.1026382e-05
26	0x374c8cdc	1.2192144e-05
27	0x37556aed	1.2720685e-05
28	0x37438f85	1.16563215e-05
29	0x37469f66	1.18388325e-05
30	0x373c80fd	1.1235706e-05
31	0x375855e3	1.28946e-05
32	0x37700ca0	1.4308054e-05
33	0x373c03af	1.1206531e-05
34	0x37447ac8	1.1711098e-05
35	0x373b9c7e	1.1182505e-05
36	0x37408961	1.1476078e-05
37	0x3752e91e	1.2571252e-05
38	0x3750c9a5	1.2444715e-05
39	0x376546be	1.3665935e-05
40	0x3787ae00	1.617428e-05
41	0x3780068b	1.5261836e-05
42	0x3783d316	1.5714711e-05
43	0x377c0e46	1.5023694e-05
44	0x374ab8b7	1.20831455e-05
45	0x3728d790	1.006377e-05
46	0x374fb09b	1.2379281e-05
47	0x3731ff6b	1.0609491e-05
48	0x37493638	1.1993157e-05
49	0x374d7e60	1.2248376e-05
50	0x3813cd4b	3.5238725e-05
51	0x380649a9	3.201669e-05
52	0x380139ee	3.0809948e-05
53	0x3804fa28	3.170423e-05
54	0x380208ce	3.1002615e-05
55	0x37f9b29a	2.9766281e-05
56	0x38048b0a	3.1600743e-05
57	0x37fbb607	3.0006295e-05
58	0x380b0a96	3.315004e-05
59	0x37ead4ec	2.7994123e-05
60	0x38058e18	3.1842006e-05
61	0x37ec4f92	2.8170445e-05
62	0x381ca130	3.7343416e-05
63	0x38121d81	3.483659e-05
64	0x3814bf7b	3.546428e-05
65	0x381f315c	3.7954524e-05
66	0x383a26e9	4.4382094e-05
67	0x3834aa12	4.3073735e-05
68	0x38221910	3.864715e-05
69	0x3821c79b	3.857129e-05
70	0x381c7690	3.730372e-05
71	0x38168f1f	3.589608e-05
72	0x383ffcb2	4.577329e-05
73	0x383364df	4.277087e-05
74	0x383c9ce0	4.4968794e-05
75	0x38390f46	4.412166e-05
76	0x3831bac7	4.237404e-05
77	0x3825542e	3.9417464e-05
78	0x382ccaa8	4.1196734e-05
79	0x383ccc87	4.5013174e-05
80	0x382370d7	3.896732e-05
81	0x3814fca2	3.5521232e-05
82	0x3810be25	3.450936e-05
83	0x38048537	3.159532e-05
84	0x380c7fef	3.349775e-05
85	0x3811ec0a	3.4790522e-05
86	0x380948de	3.273121e-05
87	0x38034dc9	3.1305277e-05
88	0x37fb5564	2.9961295e-05
89	0x38112238	3.4602563e-05
90	0x380616e0	3.1969394e-05
91	0x381c9683	3.7333473e-05
92	0x380bc921	3.33275e-05
93	0x38021dd3	3.102219e-05
94	0x380c1a3b	3.340303e-05
95	0x3821d3ab	3.8582522e-05
96	0x380e3876	3.390802e-05
97	0x3803a2fe	3.1384632e-05
98	0x37f5badf	2.9293295e-05
99	0x37f802ba	2.9565173e-05
100	0x3765415c	1.3664681e-05
101	0x3769985f	1.3923359e-05
102	0x37817df6	1.5436653e-05
103	0x3766286f	1.37184825e-05
104	0x37679442	1.3803192e-05
105	0x37585c95	1.2896159e-05
106	0x37642aaa	1.35997925e-05
107	0x3770a47f	1.43434145e-05
108	0x375e97cb	1.3267573e-05
109	0x376f918a	1.4279396e-05
110	0x376b246c	1.4015572e-05
111	0x378477f3	1.5791482e-05
112	0x377056d7	1.4325334e-05
113	0x377496c5	1.4578637e-05
114	0x375fdae6	1.3342802e-05
115	0x37518df3	1.2490421e-05
116	0x375f72d6	1.3318573e-05
117	0x37521f51	1.2524267e-05
118	0x37753f7c	1.4617919e-05
119	0x37824f6e	1.5534195e-05
120	0x375dd313	1.3221771e-05
121	0x3768f4c3	1.3885266e-05
122	0x3777d438	1.4771758e-05
123	0x376e1abe	1.4192132e-05
124	0x375809fd	1.2876929e-05
125	0x3732a511	1.0648059e-05
126	0x376a7d14	1.3976609e-05
127	0x3778a933	1.4821347e-05
128	0x37599051	1.2967809e-05
129	0x374e5277	1.2297757e-05
130	0x376328ca	1.3539751e-05
131	0x3766aa5e	1.3748735e-05
132	0x376b3c0b	1.4021071e-05
133	0x378237d2	1.5523201e-05
134	0x378581c5	1.5915264e-05
135	0x3782957f	1.5566822e-05
136	0x375fbb3e	1.33354315e-05
137	0x3756c49a	1.2801169e-05
138	0x374d2581	1.2227684e-05
139	0x374a7fb3	1.20698705e-05
140	0x375437c0	1.2649165e-05
141	0x3751649a	1.2480794e-05
142	0x37553243	1.2707492e-05
143	0x37600125	1.3351707e-05
144	0x376f6c72	1.42707595e-05
145	0x3749e795	1.2034453e-05
146	0x376d067c	1.4127811e-05
147	0x3760eed7	1.340705e-05
148	0x3764ab54	1.3629749e-05
149	0x3775a934	1.4642534e-05
150	0x39b5d749	0.0003468341
151	0x39a541c4	0.00031520252
152	0x399be803	0.00029736766
153	0x39ad571a	0.00033062027
154	0x39b014d3	0.0003358485
155	0x39b729dd	0.0003493567
156	0x39a64597	0.00031713836
157	0x39ab5e69	0.00032686003
158	0x39aaa649	0.0003254882
159	0x39a0dc34	0.00030681642
160	0x399dbeac	0.00030087435
161	0x399f6f74	0.00030409882
162	0x399e2999	0.000301671
163	0x399d2053	0.00029969457
164	0x39bc4008	0.0003590586
165	0x39a006ec	0.00030522735
166	0x398b15e0	0.00026528444
167	0x398dca70	0.00027044443
168	0x39b5a139	0.0003464313
169	0x398d4666	0.00026946067
170	0x39913855	0.00027698526
171	0x398d224c	0.0002691917
172	0x3989fedf	0.0002632057
173	0x39a17b76	0.000308003
174	0x397edb09	0.00024304925
175	0x3994cb40	0.00028380193
176	0x39967af5	0.0002870184
177	0x39906179	0.00027538443
178	0x3982c275	0.00024940414
179	0x398d8887	0.00026995337
180	0x398183ef	0.00024703096
181	0x399ed486	0.0003029445
182	0x399b5c40	0.00029632635
183	0x39958595	0.0002851902
184	0x396e6edb	0.00022738746
185	0x398e9fe2	0.00027203473
186	0x39abd2dc	0.00032772764
187	0x399a94de	0.00029484084
188	0x399c4c40	0.0002981145
189	0x39991357	0.00029196843
190	0x39ab4619	0.00032667888
191	0x39a175fc	0.00030796218
192	0x399321ba	0.00028063153
193	0x39774295	0.0002358056
194	0x3992ae36	0.00027977087
195	0x3995b012	0.00028550677
196	0x39b8b7f3	0.00035232268
197	0x398fcf92	0.00027429737
198	0x399eda04	0.00030298543
199	0x39b62ca1	0.00034746996
200	0x369427fc	4.4153985e-06
201	0x36ab1d2d	5.0995936e-06
202	0x36ac35b8	5.132253e-06
203	0x36aa8c0e	5.0826993e-06
204	0x36a30fcb	4.859617e-06
205	0x369d0672	4.679715e-06
206	0x36a94a2f	5.0452286e-06
207	0x36ac3d00	5.133101e-06
208	0x36a51ed8	4.920974e-06
209	0x36ae26fd	5.190143e-06
210	0x36f004e9	7.153129e-06
211	0x369d4a17	4.68759e-06
212	0x3695b026	4.4610524e-06
213	0x36a159b1	4.8086154e-06
214	0x36b31911	5.337534e-06
215	0x36b2397a	5.3115045e-06
216	0x36a670db	4.9603236e-06
217	0x36a789fd	4.993052e-06
218	0x36b79a5a	5.471794e-06
219	0x36c3c0b6	5.8338874e-06
220	0x3704e70a	7.921606e-06
221	0x370dca7c	8.4513995e-06
222	0x36a65509	4.957085e-06
223	0x36afef75	5.243283e-06
224	0x36a5d68c	4.9423597e-06
225	0x36a39b54	4.875861e-06
226	0x36ab2776	5.100791e-06
227	0x36aaf178	5.0945055e-06
228	0x36b46b77	5.3769286e-06
229	0x36d8bd97	6.459373e-06
230	0x369b03d1	4.6198043e-06
231	0x36ac165b	5.128602e-06
232	0x3693324a	4.386796e-06
233	0x36cf7ac8	6.1833744e-06
234	0x370f10e0	8.527393e-06
235	0x36bb0f5b	5.574822e-06
236	0x36994c7c	4.5686593e-06
237	0x369600a1	4.4704216e-06
238	0x36b7d8f8	5.4790835e-06
239	0x36d65eb2	6.388721e-06
240	0x36b88a79	5.4997477e-06
241	0x36a4dbeb	4.9131827e-06
242	0x36b93379	5.519422e-06
243	0x36c71654	5.9332615e-06
244	0x36d3228e	6.2923127e-06
245	0x36b89d59	5.501945e-06
246	0x36bf0ec1	5.693961e-06
247	0x36c8159c	5.96298e-06
248	0x369dab3d	4.6988994e-06
249	0x368b8788	4.1583007e-06
250	0x379da572	1.87929e-05
251	0x37904e50	1.7202605e-05
252	0x37819f3d	1.545215e-05
253	0x37974aca	1.803543e-05
254	0x379f1dbe	1.8968127e-05
255	0x37a7d86e	2.0008734e-05

exp_avg f4 [16]
0	0x2f1f6bf5	1.449932e-10
1	0xb78a4b84	-1.6486047e-05
2	0xae61dccc	-5.1355184e-11
3	0xb13aa25a	-2.7158849e-09
4	0xaddba0b6	-2.4968787e-11
5	0x2e613720	5.1208038e-11
6	0xafb65edb	-3.3173006e-10
7	0x34b89fd1	3.4388952e-07
8	0xafb3dbcc	-3.2716085e-10
9	0xb0b13fb2	-1.2896548e-09
10	0x2f8a61cd	2.5171545e-10
11	0xb1347ecb	-2.626552e-09
12	0x3125b326	2.4112494e-09
13	0x2fb66523	3.317747e-10
14	0x36853674	3.970048e-06
15	0x2d8a5d07	1.5730096e-11

exp_avg_sq f4 [16]
0	0x30222168	5.898273e-10
1	0x3490b13e	2.695105e-07
2	0x31f076d2	6.9984276e-09
3	0x2fafa200	3.1947422e-10
4	0x3222b623	9.471054e-09
5	0x329d3d07	1.8304958e-08
6	0x319c4001	4.547474e-09
7	0x33c5cdc0	9.210953e-08
8	0x33017c84	3.01484e-08
9	0x2d481eb0	1.1375498e-11
10	0x32fa0ebc	2.911053e-08
11	0x3331c0ee	4.1386492e-08
12	0x30ae3f12	1.2678092e-09
13	0x323cb8fa	1.0985099e-08
14	0x3434cfe7	1.6839441e-07
15	0x2dbc8d1d	2.1435792e-11

exp_avg f4 [16]
0	0x3b83fba2	0.0040277997
1	0x3b921fcd	0.0044593574
2	0x3bd04ba4	0.0063566733
3	0x3c87d1be	0.016579505
4	0x3b9476d3	0.0045307665
5	0x3bd63c56	0.0065379543
6	0x3baaa475	0.005207593
7	0x3b8e0cc8	0.0043350197
8	0x3bd0ea8d	0.006375617
9	0x3c5103b4	0.012757231
10	0x3c2fe3f4	0.010735501
11	0x3bb8d6d6	0.005640845
12	0x3bdb973a	0.006701377
13	0x3b900cd2	0.0043960596
14	0x3bbbb3a1	0.0057282005
15	0x3ba37933	0.0049888133

exp_avg_sq f4 [16]
0	0x388f99a0	6.847386e-05
1	0x38a4f5c9	7.8659104e-05
2	0x39340469	0.0001716778
3	0x3a17d7b4	0.0005792335
4	0x38c82151	9.542949e-05
5	0x38dee5a1	0.000106285566
6	0x39396fee	0.00017684672
7	0x38698077	5.567117e-05
8	0x38b2398e	8.498422e-05
9	0x3a06a361	0.00051360397
10	0x39d9842b	0.00041487938
11	0x38af646a	8.363354e-05
12	0x398c61be	0.00026775704
13	0x385df9da	5.29232e-05
14	0x38896b59	6.552664e-05
15	0x389dc0b2	7.522236e-05

exp_avg f4 [16]
0	0xba70c59d	-0.000918472
1	0x3b31732d	0.0027076707
2	0xbbed3586	-0.0072390465
3	0x3a3ca4b4	0.00071961735
4	0xb8853f98	-6.3537795e-05
5	0xbab0aedb	-0.0013479845
6	0xba7a66d7	-0.00095520675
7	0xb9980671	-0.00028996498
8	0xbb99042e	-0.0046696877
9	0x3b478a02	0.003044725
10	0x390b008d	0.00013256278
11	0xbb58bc54	-0.0033071237
12	0x3b3ab140	0.0028486997
13	0xba9a9818	-0.0011794595
14	0xba8d2a62	-0.0010770077
15	0x37d319ae	2.5165118e-05

exp_avg_sq f4 [16]
0	0x3796853a	1.7943432e-05
1	0x383c1531	4.484243e-05
2	0x38b2cf9c	8.526372e-05
3	0x396797a7	0.00022086372
4	0x37c4c300	2.3455825e-05
5	0x38142ad0	3.5325822e-05
6	0x386aa84b	5.5946683e-05
7	0x374cb68f	1.2201853e-05
8	0x382e47d1	4.1551717e-05
9	0x39a97ad8	0.00032325718
10	0x38e63ba4	0.000109783636
11	0x38222997	3.8662543e-05
12	0x391d8ce7	0.00015025177
13	0x3780a8c3	1.5337375e-05
14	0x37b99896	2.2124772e-05
15	0x378aef81	1.656241e-05
