src/params.pth (torch, 412117 bytes, 43 tensors)

emb.spatial_conv.weight f4 [2, 1, 2, 1]
00000000: 0beb 15bf 8b20 193f 11b1 003f 38b3 033f
-0.5856177 0.5981528 0.5027018 0.5144534

emb.spatial_conv.bias f4 [2]
00000000: ed0c 5cbe 4445 a7bd
-0.21489306 -0.08167508

emb.feature_extractor.0.weight f4 [16, 1, 1, 50]
00000000: 7d39 8cbd 9ebd b5bd 2773 623d a379 853c
00000010: d6f7 dabc 629c f43d 8560 b23d a0f8 1f3e
00000020: 5d8b 72bd b446 32bd ca11 c4bc 15a4 b23d
00000030: 83c6 053d cbf6 713d 904e 3abc 718d f7bd
00000040: 129b 96bd 7b5c 04be ba5c 7dbd b473 443d
00000050: 1b66 4ebd 0ce8 ae3d 7b13 9f3d 83fa a93d
00000060: 6d39 5ebd 06dd 9a3d 8863 03bc 54f0 91bb
00000070: 68db f83c ec81 7cbd 3700 d93d 8bc0 76bd
00000080: 7f46 0fbd beac 0e3d 9e61 8ebd eb31 8b3d
00000090: 6c97 3abd ad45 3abd 3e8a 123e cb54 463d
000000a0: 473c 3bbd ac65 033d ca21 703c ba7c a8bc
000000b0: 7dd1 9ebb ee2c 5cbd 6fc1 b8bc 4138 1cbd
000000c0: b57b 22bd 4294 a8bc 0692 66bc b8cd 81bc
000000d0: e5fb 423b e8ec ccbd 8c59 3f3d 269f 9dbd
000000e0: 7145 033d 8b8b a8bb cbb9 38bd f67b 88bd
000000f0: 88af cb3c c6f6 57bd cdf1 463d 0218 ecbb
00000100: adeb 34bd db92 f83d 47fc 84bd 4c25 563d
00000110: 29f1 e03c 46d9 22bd 589c 73bd e58c b53c
00000120: b8e6 1e3c e52b eabd fc38 9f3c 842f 4dbc
00000130: 4da4 43bc 4bb4 0b3e 2f10 d53d a18c 26bd
00000140: f2f0 b93d 7a9a e0bc c519 973a bb14 bcbd
00000150: 22e1 ccbd 0f6a 87bc 3466 08be d5b6 0c3d
00000160: 8a6e f6ba 09a8 c23b 46a3 9cbd 5203 89bd
00000170: 379d d93a d786 343d 75eb f73c 3efe 563d
00000180: b09d 013d 58fb a93c bae8 3d3c c91b c53c
00000190: 76eb 19be 4dbe 923d 1683 2c3e 3a65 0cbd
000001a0: d662 a1bd 46b5 123e 9d32 72bd 6fa5 643d
000001b0: be4f 14bc 319c e1bc 492c 49bd 04d6 85bc
000001c0: 5d91 893d a075 943d abfd 5e3d ce5c f0bd
000001d0: c243 373d 6494 e5bd 0313 3c3d 36c5 7bbc
000001e0: 336b 61bd b064 8e3c 92c9 9d3d 57be 93bc
000001f0: 8acc 56bc bdec a4bd 5c68 c43d 1247 14bd
00000200: 0c34 03be 01d0 b6bc 639c b03d f05a a73d
00000210: 091f 7bbc 267a e23c e1c2 67bc b27c e83b
00000220: 2b95 84b8 2d05 24bc e228 833d ce5f 45be
00000230: 6add ee3c ef4b d43c 38a9 efbd bdf1 77bc
00000240: 11d7 99bd 0278 083e 172d 243b afeb a63d
00000250: 5260 12bb ba78 75bd eb80 0fbd 4bb1 babd
00000260: 78a6 26bd be6a 13bd 6a43 9d3d 98e5 0a3d
00000270: c4be 833c f995 283d 15b3 833d 5595 21bd
00000280: 3d6a 653d c0ac 103c dc56 433d 24a2 bbbc
00000290: fd16 383d 3fa2 85bc 06cc b33d 7043 263d
000002a0: bd77 94bb 7883 1e3c ca43 ec3b 9102 dcbc
000002b0: 0988 c8bc bb5f ac3c 2e30 e53c f88d 3d3c
000002c0: 18b0 e3bc 26c2 b2bd 7e3e 26be ac3c d2bd
000002d0: bc66 143d d35f 7c3d 6866 b93d 0beb 0dbd
000002e0: fba8 48be b94e 3fbe ec7e f2bc a78f 23bd
000002f0: e4e0 983d 0a5c bd3d ca7d af3c af98 d03d
00000300: f690 e3bc b2cc 3ebd 686b e4bc 2d55 42bc
00000310: 57bb 883d b816 debc 27c7 43bd a46d 0fbe
00000320: 2708 9fbd 698f f33c fbed caba 0693 b83c
00000330: db78 0cbd dabc aebc dd64 ba3c 915c 90bd
00000340: 099b babc a7ae be3c dcd3 663d 3bba 2a3d
00000350: 50d9 193d dff0 81bd 94c9 02bc 9972 a0bc
00000360: d6a1 9bbc 44f2 613d 9613 e13c 354a 8ebc
00000370: 6573 893c 0a9c fc3a a7e9 7a3d d864 a43d
00000380: 2d09 0b3c 91dc 65bd ceba 95bc 2c2b cfbc
00000390: ad4f e5bb ee7e 9c3d 933d b0bb 939a 123d
000003a0: 0b6f ff3a da49 00bc 90cf 8cbb 8357 0b3d
000003b0: 33c0 9a3c 2857 6638 1cbb bebd 5e74 dbbc
000003c0: 3584 3fbd d53e 8e3c e5e8 a33c c0fe c2bc
000003d0: d224 58bb 25d5 47bc 1389 e8ba cbac 2fba
000003e0: ca02 1f3d 0d8b 26bb 268e 82bc 6f3b f0bb
000003f0: c763 403d 8116 ae3d 8eb4 b5bd e3c3 a83d
-0.068469025 -0.08874057 0.0552856 0.016293352 -0.026729506 0.1194389 0.08709816 0.15622187
-0.05921494 -0.04352446 -0.023934264 0.087227024 0.03266002 0.05907325 -0.01137127 -0.12087525
-0.07353796 -0.12925903 -0.06185601 0.047961906 -0.050390344 0.08540353 0.077673875 0.082997344
-0.054253984 0.07561688 -0.008019336 -0.004453698 0.030378059 -0.06164734 0.10595744 -0.060242217
-0.03497934 0.03483271 -0.06952213 0.067966305 -0.045554563 -0.045476604 0.14310548 0.04842071
-0.04571178 0.032079384 0.014656493 -0.020567287 -0.0048467503 -0.053753786 -0.022553174 -0.038139585
-0.039668757 -0.020578507 -0.014072901 -0.015845165 0.0029752192 -0.10006124 0.046716258 -0.07696371
0.032048646 -0.005143588 -0.04509906 -0.06664269 0.024863973 -0.052725576 0.048570443 -0.0072050104
-0.04417007 0.121373855 -0.064934306 0.052281663 0.027458744 -0.03975799 -0.059475273 0.02216191
0.009698562 -0.114341535 0.019436352 -0.012523536 -0.011941028 0.13642995 0.104034774 -0.040661458
0.0907916 -0.02741741 0.0011528066 -0.091836415 -0.10003878 -0.016530065 -0.13320237 0.03435405
-0.0018801254 0.0059404415 -0.076483294 -0.066900864 0.001660264 0.044073906 0.030263642 0.052488558
0.031644523 0.020749733 0.011591131 0.0240611 -0.15031227 0.07165203 0.1684688 -0.034276225
-0.078801796 0.14326963 -0.0591303 0.055821832 -0.009052215 -0.027540298 -0.0491145 -0.016337402
0.06717179 0.07248998 0.054441135 -0.11736451 0.044742353 -0.11209944 0.04591657 -0.015366843
-0.055033874 0.017381996 0.07704462 -0.018035097 -0.013110289 -0.08052967 0.095902175 -0.03620059
-0.12812823 -0.02231598 0.086235784 0.08171642 -0.015327224 0.027646136 -0.014145584 0.007094943
-6.322035e-05 -0.010011 0.06404282 -0.19274828 0.029158313 0.025915114 -0.11702198 -0.0151333185
-0.07511724 0.1332703 0.002505129 0.08150422 -0.0022335243 -0.059929587 -0.035035055 -0.09115847
-0.0406861 -0.03599047 0.07678874 0.033910364 0.016082175 0.04115865 0.064306416 -0.039449055
0.05600952 0.008830249 0.047690257 -0.022904463 0.0449438 -0.016312717 0.08779149 0.040591657
-0.0045308755 0.009674899 0.0072102295 -0.026856693 -0.02447893 0.021041742 0.027977075 0.0115694925
-0.027793929 -0.08728437 -0.16234776 -0.102654785 0.036230788 0.061614823 0.090527356 -0.034647983
-0.19595711 -0.18682374 -0.029601537 -0.03993192 0.074647695 0.09246071 0.021422286 0.10185372
-0.027779084 -0.04658193 -0.027883247 -0.011861128 0.06676357 -0.027110443 -0.04779735 -0.14006668
-0.07765227 0.02973147 -0.0015482301 0.022531044 -0.034294944 -0.021330286 0.022753173 -0.07048906
-0.022779005 0.02327664 0.05635439 0.04168151 0.03756076 -0.06344771 -0.00798263 -0.019585894
-0.018998068 0.055162683 0.02747516 -0.017369369 0.016778657 0.0019272577 0.061257984 0.08027047
0.008486074 -0.05611855 -0.018277552 -0.02528914 -0.0069980235 0.076413974 -0.005378434 0.035791945
0.001948805 -0.007830108 -0.0042972043 0.034019005 0.018890476 5.4917444e-05 -0.09313032 -0.026788887
-0.04675694 0.017363945 0.020008514 -0.023803115 -0.003298093 -0.012196814 -0.0017741047 -0.00067014684
0.03882102 -0.002541247 -0.015936922 -0.007331304 0.046970155 0.08500386 -0.08872329 0.082404874

emb.feature_extractor.0.bias f4 [16]
00000000: 9f8b 4a38 879b 4b37 6d25 4eb8 bb44 9737
00000010: 1a81 5336 e6ad 15b8 db69 ab37 4c69 4637
00000020: 0090 3337 da47 9137 d66b c137 26b3 ecb5
00000030: a392 e5b7 b846 f935 3f55 9136 333e f3b6
4.8290585e-05 1.2135954e-05 -4.9149083e-05 1.8032608e-05 3.1516597e-06 -3.5686324e-05 2.0434081e-05 1.1826236e-05
1.0702759e-05 1.7318805e-05 2.3057608e-05 -1.7635509e-06 -2.736721e-05 1.8572528e-06 4.3312607e-06 -7.2492053e-06

emb.feature_extractor.1.weight f4 [16]
00000000: 8bd3 723e cbff e63d a181 943e 4e2c 683e
00000010: 7b20 853d bb15 373e 0b32 273e 0e69 1e3e
00000020: a262 293e b0dc 843e 3583 8c3e 82dc 7b3e
00000030: 90e6 513e 2c66 123e c615 343e 21b8 593d
0.2371351 0.112792574 0.2900515 0.22673151 0.06500336 0.17879383 0.16327684 0.15469763
0.16541532 0.2594962 0.27443853 0.24595836 0.20498109 0.14296788 0.17586431 0.053154115

emb.feature_extractor.1.bias f4 [16]
00000000: c898 60be 0ea0 583e 3dd5 a8be 4e91 efbd
00000010: 532a debd 9ce0 67be a89f 33be e44d 4abe
00000020: 09f1 8abe a3f3 4dbe bfd8 5cbe e45f a7be
00000030: f005 57be d9a5 0ebe 2c78 4bbe 824d d0bd
-0.21933281 0.21154806 -0.32975188 -0.116976365 -0.108479165 -0.22644275 -0.17541373 -0.19756275
-0.2713702 -0.20112471 -0.21567057 -0.32690346 -0.20998359 -0.13930453 -0.1987006 -0.101710334

emb.feature_extractor.1.running_mean f4 [16]
00000000: 6943 1abc c341 303d d2e6 333c e040 663d
00000010: 6bd0 dabb 81a1 07bd 9a6e 1abd dbcd f03c
00000020: 8416 ae3c 668b 47bc 0a3f 113d e091 ffbb
00000030: a45f 30bc 5040 fabc 0ffe 47bc e3a6 4c3d
-0.009415486 0.043031465 0.010980325 0.056214213 -0.0066776774 -0.033113007 -0.037703134 0.029395035
0.02125097 -0.012179231 0.03546051 -0.007799372 -0.01076499 -0.030548245 -0.012206568 0.049963843

emb.feature_extractor.1.running_var f4 [16]
00000000: 9256 d43d d032 b53d 6d84 ce3d f215 183e
00000010: dc88 013d 134e a33d f75d 963d a47b b13d
00000020: ba8a 963d 4804 2f3e 5c24 803e 1a11 c53d
00000030: 55d7 c53d 0f3b 683d 127b 673d 5ebc 183d
0.103680745 0.08847582 0.10083852 0.14852121 0.03162466 0.07973876 0.07342141 0.08666161
0.07350679 0.17091477 0.2502774 0.096224025 0.09660212 0.056696948 0.056513853 0.037289016

emb.feature_extractor.4.weight f4 [16, 16, 1, 50]
00000000: 9f51 9d3c f7c3 2bbd e24b fc3b 05d3 9abc
00000010: 41ac ad3c ad4d eebc 3c18 e7bc 2942 83bc
00000020: 0553 913c b36c 003b 22be d3bc feea 01bb
00000030: a675 1bbc 067c 1c3d 592b 90bc 5c3b 0f3d
00000040: 1320 06bd 58d7 67bc 506b 303d 7075 91bd
00000050: 86db f3bc 0cf2 bfbc 8341 97bb 8ed9 863c
00000060: f748 3939 726c 2f3c 77de 383d 4fc2 ab3c
00000070: efc2 dc39 2498 5fbd 65fd 3ebd 90eb 21bc
00000080: a083 b2bc 15da 75bc 8ff3 bfbb e08d 99bc
00000090: 7069 43bb 7025 8e3c 84cf d03b 878e 8abc
000000a0: cfe3 c73c 09ff 183c bf80 813c 5a56 fdbc
000000b0: a50a a63b 9554 883c f065 2abc 2c8d cbbc
000000c0: be18 34bd 60c2 143d c8a5 963c a01c 0b3d
000000d0: 625d fe3c 93b8 513d 1dbb 833c 20d3 3e3d
000000e0: 71d1 8c3d d4be 1c3b 2e38 2e3d ca18 833d
000000f0: 8dd1 6a3d 9c7f 0d3d 187a e33c 680e ee3c
00000100: 2410 113d 4dd2 0e3c b2da 253d 0bcd 703d
00000110: 8e82 623c 203f 7f3d 604f fb3c 725b 48bc
00000120: 66fc b23c 46e5 4abc 0839 373d b84b 92bc
00000130: 6b8c 223d 50ea 053b fc87 a23b 486c 913d
00000140: ada1 483d b0fa a53b fd6c 8e3d 1ed5 2f3d
00000150: ebd8 463d 7e8c 663d 001c db3c 132a c63c
00000160: fc28 023d cb2b 61bc 4461 cbbc 3c15 3dbc
00000170: 7508 953c 7ab7 2d3a 8d27 30bc bf3e b63c
00000180: c6f8 913b c824 3e3d 8b7d a13d ef64 be3c
00000190: 2f0d b73b c00e 61bc 04b9 d0bc 476d 7abc
000001a0: e0a0 263c 66bf 4dbc 0c5b fabc 87f9 3d3d
000001b0: e129 1a3c a093 1bbc 970e babc d3a6 eabb
000001c0: f7fc 5cbd 38f6 edbc 9caf 4fbc 0ea6 413c
000001d0: ded4 80bc 24f5 2d3c b53e 5fbc fa28 9dbb
000001e0: 7e65 b7bc ab26 d4bc 7f46 8f3c 8c4c 06bd
000001f0: b870 0bbd eaac 04bc cc04 8fbd 8599 86bc
00000200: cb8a 30bd c070 dfbb 7c78 c43c 8a75 a0bb
00000210: cf76 6d3b 1f18 32bc a7a9 5bbd 84a7 78bc
00000220: df6b af3c f1d5 e3bc afa3 46bd 5ffe bcbc
00000230: 7d08 7abc b928 dfbc 94a2 26bc e9aa ac3b
00000240: ea26 f0bc 0631 9fbb 328f 83bd e4a9 7b3a
00000250: 5db4 07bd 8084 d6ba 4eb4 703c 8a69 db3c
00000260: 2dee e13c 9570 453c 41df 6cbc 6129 1cba
00000270: 058a bfbb 3e13 013c 2c24 ad3c 3aaa 1dbd
00000280: 4ab2 233d cd65 203d af28 0f3d 7616 6b3c
00000290: 25cb 1e3b 6b38 4a3b 10c9 0a3d a86f 49bd
000002a0: dfa0 483c 254b a3bc 4504 013d 4b9c 37b9
000002b0: a1fe 25bc b817 b73c f3d9 ff3b 029b 033c
000002c0: 4a8d a33c 2a1f fe3c 6651 97bc a84b 00bd
000002d0: 762c b93b dfe3 dcbc 9cc3 a13d b774 0a3d
000002e0: 694b 413c d26e fe3a af51 6a3b 6fd2 233d
000002f0: 7f58 e13b 6c77 6f3a f2ba efbc 0d73 72bc
00000300: 7918 81bb 42ca 02bd 8659 06bd d44c 023d
00000310: 81be dfbb 7f0d bf3c 54e7 6c3c 7327 b03c
00000320: ae60 5c3c 2feb 13bb f99a dcbc 6281 2bbd
00000330: 2fdd 613c a8bc 583c 6115 a33c ae13 1fbc
00000340: 3279 b8ba 60f6 0c3c e19d 96bc 0880 4ebc
00000350: 129c a0bc 47df cabc 014b 7438 17fb 96bb
00000360: 75ed 253a 3aa2 65bb 347e c13c 707a d03c
00000370: 2e1b 933c 9b40 433b d5b8 263c 20ec 153c
00000380: e52f 65bc 8a32 c0bc 27ec d5bc b114 b6bc
00000390: e9e4 5fbc 671d d13b 4188 8e3c aed2 81bc
000003a0: e6b5 c6bb 3380 e9bb db35 0ebc 4684 e73b
000003b0: 2b05 02bc dbc0 123d 0c79 78bb 04af 34bc
000003c0: cdff 9dba 0964 20bc 3e31 7bbc c01e e63b
000003d0: cb3d ba3c 3b6b 12bc a760 1bbb f9f4 6eba
000003e0: 6a9b 1c3c 5fbb b83b 68a7 44bd 50c0 573c
000003f0: 7b87 893c beb6 cebc b48a 0dbd f15e 793c
0.019203959 -0.041934934 0.0076994756 -0.01889945 0.021200301 -0.029089773 -0.028209798 -0.016022759
0.017739782 0.001959604 -0.025847498 -0.0019823904 -0.009488499 0.038204215 -0.017598795 0.03496872
-0.032745432 -0.014150463 0.04307109 -0.071024776 -0.029767763 -0.023430847 -0.004615964 0.01646116
0.00017670156 0.010707008 0.045134034 0.020966677 0.00042106907 -0.054588452 -0.046628375 -0.009882823
-0.02179128 -0.015005608 -0.005857892 -0.01874441 -0.0029817484 0.017351836 0.006372394 -0.016913665
0.02440062 0.009338149 0.015808461 -0.030924965 0.005067187 0.016641894 -0.01040028 -0.02484759
-0.04396891 0.036318183 0.018389598 0.033962846 0.031050388 0.051201414 0.016080434 0.046588063
0.06875885 0.0023917453 0.042534046 0.064012125 0.05732875 0.034545526 0.02776818 0.029059604
0.035415784 0.008717132 0.040491767 0.058789294 0.013825072 0.06231606 0.030677497 -0.0122288335
0.021848869 -0.012383765 0.044732124 -0.017858371 0.039684694 0.002043385 0.0049600583 0.07100731
0.04898231 0.0050652847 0.069543816 0.042927854 0.048546713 0.056286328 0.02674675 0.024189984
0.031777367 -0.013743351 -0.024826653 -0.011540707 0.01819251 0.00066267664 -0.010751617 0.022246717
0.004454705 0.046421796 0.078852735 0.023241488 0.0055862884 -0.013736427 -0.025478847 -0.015284843
0.0101701915 -0.01255784 -0.030560993 0.046380546 0.009409399 -0.009495646 -0.022712035 -0.0071610003
-0.053952184 -0.02904807 -0.012676146 0.011819376 -0.015726503 0.010617528 -0.01362579 -0.0047961446
-0.022387262 -0.025897345 0.01748967 -0.032787845 -0.034043044 -0.008097867 -0.06983337 -0.016430626
-0.043101113 -0.006818861 0.023983233 -0.0048968242 0.0036234146 -0.010870009 -0.05362859 -0.015176658
0.021413742 -0.027811976 -0.048495945 -0.023070512 -0.015260813 -0.027241098 -0.010170598 0.0052693975
-0.02931543 -0.004858139 -0.06423797 0.0009600206 -0.033130992 -0.0016366392 0.0146914255 0.026783723
0.027579391 0.012050767 -0.014457525 -0.00059570937 -0.0058453106 0.007878123 0.021135412 -0.03849242
0.03996495 0.039159585 0.03495091 0.014348617 0.002422997 0.0030856382 0.033883154 -0.04917875
0.012245386 -0.019933293 0.031498212 -0.00017510464 -0.010131509 0.022350177 0.007807964 0.008032562
0.019964833 0.03102072 -0.018471431 -0.03132215 0.005651052 -0.026964126 0.07898638 0.033802714
0.011797764 0.0019411689 0.0035754254 0.039995607 0.0068770046 0.0009134922 -0.029263947 -0.014797938
-0.003939685 -0.03193117 -0.03280022 0.03181155 -0.0068281298 0.023321865 0.01445945 0.021503186
0.013450785 -0.00225706 -0.026929365 -0.041871436 0.013785644 0.013228573 0.019907655 -0.009709282
-0.0014074205 0.008603662 -0.01838583 -0.012603767 -0.01960567 -0.02476467 5.8243986e-05 -0.004607569
0.00063296343 -0.0035039322 0.023619749 0.025449008 0.017957296 0.0029793147 0.010175903 0.009150535
-0.01398847 -0.023461599 -0.026113583 -0.022226663 -0.013665416 0.006381679 0.017398955 -0.01584753
-0.0060641645 -0.0071258782 -0.008679832 0.007065329 -0.007935802 0.035828453 -0.0037913946 -0.011028055
-0.0012054384 -0.009789475 -0.0153315645 0.0070227087 0.022734543 -0.008936699 -0.0023708732 -0.0009115483
0.009558538 0.0056375707 -0.048011214 0.0131684095 0.016788235 -0.025233623 -0.034556106 0.01522039

emb.feature_extractor.4.bias f4 [16]
00000000: 9ab0 0137 8a3f a336 bab7 7037 2011 eeb6
00000010: 2ecb 90b7 4a67 bb37 5287 40b7 091c 9337
00000020: e504 0238 c851 a2b6 91d8 9037 7053 f736
00000030: efb3 7237 47ca fbb6 f28e 0037 9aa7 8937
7.730117e-06 4.8651755e-06 1.4347892e-05 -7.0949463e-06 -1.726075e-05 2.2340235e-05 -1.14755985e-05 1.753682e-05
3.0998974e-05 -4.837497e-06 1.7266984e-05 7.370887e-06 1.4466218e-05 -7.503931e-06 7.662677e-06 1.6409718e-05

emb.feature_extractor.5.weight f4 [16]
00000000: 6206 a23e 3e6a aa3e 13ce 9c3e 3666 9c3e
00000010: c78f 9f3e fc35 d93e 4c90 a03e f40f da3e
00000020: 0218 cc3e 7f29 e43e b88c d83e 8337 923e
00000030: f941 e33e 19f2 d83e fb15 ad3e b7b2 e03e
0.31645495 0.3328418 0.30625972 0.3054673 0.3116438 0.42424 0.3136009 0.42590296
0.39862067 0.4456291 0.4229486 0.28557977 0.4438627 0.42372206 0.33805832 0.4388635

emb.feature_extractor.5.bias f4 [16]
00000000: 2807 fabd 711d b3be 430f 8abe 455d 7ebe
00000010: f2ed 92be cd82 b5bd dc8f 97be bfee 96bd
00000020: 28f1 f5bd 1543 d5bd 77fe c3bd 8cbf 20be
00000030: a048 e6bd 7a1f eebd c07f 90be afe5 9ebd
-0.12208396 -0.349834 -0.2696477 -0.24840267 -0.28697163 -0.08862839 -0.29601943 -0.07369756
-0.120088875 -0.104131855 -0.0957002 -0.1569807 -0.11244321 -0.116270974 -0.28222466 -0.077586524

emb.feature_extractor.5.running_mean f4 [16]
00000000: 8dd6 12bd 0fd2 c0bb 0fac 473d c6e7 0f3a
00000010: ff19 84bd 184d fdbe c834 4f3d 2c39 ebbe
00000020: e39f e0be 3c68 cebe 4eb6 ffbe 8972 00be
00000030: 8b76 edbe 581d 0cbf 721d 033e 0ec6 00bf
-0.035849143 -0.005884416 0.048748072 0.0005489554 -0.06450271 -0.4947288 0.050587445 -0.45942056
-0.43871984 -0.403139 -0.49943775 -0.12543692 -0.46379504 -0.54732275 0.12804201 -0.5030221

emb.feature_extractor.5.running_var f4 [16]
00000000: ddc1 c33c 27c2 a53c f35a a03c 5e57 a13c
00000010: 4cac 813c fe45 223d 3fa6 ab3c 46d2 6c3d
00000020: c8eb 293d 258b 383d bd26 483d 2128 f03c
00000030: 6208 1d3d 6d37 503d 8060 ab3c ee97 5b3d
0.023896152 0.02023418 0.019574618 0.01969498 0.015829228 0.03961753 0.020953296 0.05781772
0.041484624 0.045054574 0.04886507 0.02931601 0.038338073 0.05083411 0.020920038 0.05361169

emb.fc.1.weight f4 [100, 192]
00000000: cb6f ebba 3cd8 53bc 9440 0fbd acb1 49bc
00000010: 69af 93bb 20fb a3bb 84d1 3f3c a497 543c
00000020: 5422 fc3b ec6e 903c 34a6 c3b8 f673 813b
00000030: 0088 c83a 86b3 aabc 8bf7 a6bc 5de7 94bc
00000040: 68b8 5fbc 60f1 91bc 0689 5ebb 7a42 1c3c
00000050: 7df0 95bc b8f7 a4bc 23c2 adbc 080a a5bb
00000060: 5123 5ebc ac34 92bc e41b 99bc 5e49 18bd
00000070: ed34 7bbc b0be 8dbc 8fe2 323c 078c 8cbc
00000080: 1d79 aebc cf9f 93bc 6038 c7bc 3616 8dbc
00000090: 18b6 12bb 39ef abbc 5d7a a0bc 1e48 93bc
000000a0: ed9b b4bc a749 9fbc 2ab7 c83b 5eba 97bc
000000b0: c3ad 1abc 6b24 a9bb 22d4 7eba c5ba 6cbc
000000c0: 68a5 a2bc 077c 1cbc 8acf edbc 29e6 25bd
000000d0: 96d1 c8bc d174 1fbc ec27 8b3c 248b 2cbc
000000e0: 7815 4bbc 592f 25bd 4cb3 97bc fcb6 adbc
000000f0: 45b7 0cbc aaef d9bc 039f 08bd ba30 07bc
00000100: cfb3 2dba 7a0b 95bc 25cf c63b 6a16 8c3b
00000110: b161 1ebc 33b9 0ebc 3cab 23bc 9add 093d
00000120: 546c 1fbc 71d5 cbbc bbe2 d1bc c41e c9bc
00000130: 0eac e2bc eab5 d6bc feb9 56bb e235 98bc
00000140: eb6b c3bc 86ae 51bc 778f 40bc bf2b 71bc
00000150: 4c9d 31bd f194 a5bc 70c1 84bb 4a97 34bb
00000160: fc6a 783c ec83 543b 9f33 583c 4444 12bb
00000170: ca7d 0abb 5337 3e3c b782 96bb 2382 d23b
00000180: c6c4 09bc 7208 d2bc d1fb fbbc b26b aebb
00000190: 0262 d3ba 12c3 093c abcf e73a 2eb6 5f3a
000001a0: 711a 2cbc d6ac 15bc 0e2f 433c f4e6 1f3c
000001b0: 4c18 45bb be94 9abc 8279 60bc 847a 59bb
000001c0: 2411 5fb9 eddc 333b ae02 0f3c b31d 8e3b
000001d0: 58f6 4fbc b518 8d3b 2de7 a03b e17a 3b3b
000001e0: ac82 35bc c0de 86bc 754c a5bc 6e5c 313c
000001f0: fe36 c83b b43c 3cbd b371 d53b 9620 4dbb
00000200: 5b47 f8ba c771 a4bb abbb d23b f2b1 243c
00000210: 168e 19bc a7be 363b aa88 5fba 8bab 0e3c
00000220: 6635 64bb 9f0a 86bb bd30 f1bb 16ee 5b3a
00000230: d19d 1a3c 3294 e23b a987 b639 34e5 34bc
00000240: 9956 97bc 1955 80bc ed45 f3bc 6fb6 a8bc
00000250: dbb3 9dbc ca43 13bd 583b bd3b 4aa2 3a3b
00000260: dea0 2ebc c6a1 933b a248 fa3a ce4a 3b3c
00000270: fa54 8b3d cd9c debb 8465 36bc b36a 1abc
00000280: f6b0 00bb 9d26 2e3c eec4 48bb 98fd ac37
00000290: c0f4 033c b137 9cbb ab8f 60bc 6017 b13b
000002a0: 9c3c b2bc 980a 1cbd f8ee 09bd 60e2 20bd
000002b0: c315 b7bc 95f4 a1bb 4421 06bb ab2e 6fbc
000002c0: 8de9 a7bc 8bc6 10bd 7067 1fbd 6964 fdbb
000002d0: f7da 8f3c c60c 89ba 1ef3 e0bc 7444 533b
000002e0: 860c ceb9 44b0 06bc b971 643c ec66 5eba
000002f0: 3c14 91bb 5b6b df3c 7c8a 093b 759e 81bc
00000300: d508 83bb 11f2 b0ba 0071 80bc d06c 64bb
00000310: 8e7f e2ba 561a 49bc a175 0e3b bd39 1d3c
00000320: cc89 113c 9e27 cebb 1409 23bc d81d 943b
00000330: 4993 0a3b 023b 85b9 097c d8bc 2266 01bc
00000340: 0057 8abc 926b 0dbc 004b 8bbc e61c 21bb
00000350: c242 cdbc 7a0d b73a bc3b 2dbb 74ec 503a
00000360: f228 1ebc 5c54 26bc 1321 74bc 2fa2 bcbc
00000370: 8bac edbb 11a4 5bbc 7d85 233b c32c 8fbb
00000380: efe7 c5bc 6677 35bb 5f92 d13a 9267 c4ba
00000390: 525f ef3b ce0f 02bc 391d 22bc 423f 61bc
000003a0: 83cb e6bb 49e2 e1bb 7fad 7fbc a278 f7bb
000003b0: eca1 0dbc df28 c6bb b6b3 e4bc 2704 96bc
000003c0: 9fb1 54bb 6f59 7cbc f399 ccbc 90c0 8fbc
000003d0: ccc7 a0bc 44a2 ecbb 6f66 b13b 38d7 b8bc
000003e0: 6cf9 84bb 20d2 24bc def5 6bbb 6afd 51bc
000003f0: b6b1 d6bb 4bda 38bc 7b6e a6ba cb5b 933c
-0.0017962394 -0.012929972 -0.034973696 -0.012310427 -0.0045069945 -0.0050043017 0.011707667 0.012975607
0.007694522 0.017631017 -9.329282e-05 0.003950591 0.001529932 -0.020837557 -0.02038171 -0.018176729
-0.013654806 -0.017815292 -0.0033956184 0.009537334 -0.01830315 -0.020137653 -0.021210736 -0.005036596
-0.013558225 -0.017847382 -0.018690057 -0.037179343 -0.015332443 -0.017302841 0.010918274 -0.017156614
-0.021297986 -0.018020539 -0.024318874 -0.017222505 -0.0022386368 -0.020988094 -0.019589597 -0.017978724
-0.022047007 -0.0194443 0.0061253505 -0.018521484 -0.009440842 -0.005161812 -0.00097209413 -0.014448826
-0.019854262 -0.009551055 -0.029029626 -0.0405027 -0.024514 -0.009732441 0.01698681 -0.010531221
-0.012395255 -0.040328357 -0.018518113 -0.021205418 -0.008588617 -0.026603539 -0.03335477 -0.008251363
-0.000662622 -0.018193949 0.006067174 0.004275133 -0.009666846 -0.008711147 -0.009989556 0.0336586
-0.009730417 -0.02488205 -0.025620809 -0.024550803 -0.027669933 -0.02620979 -0.0032764669 -0.01858038
-0.02385517 -0.012797957 -0.011752955 -0.014719903 -0.0433629 -0.020212622 -0.00405138 -0.0027555996
0.015162226 0.0032427264 0.013195901 -0.0022318522 -0.0021132105 0.01160987 -0.004593219 0.006424205
-0.008408731 -0.025638793 -0.030759724 -0.005322897 -0.0016127231 0.008408325 0.0017685791 0.0008533922
-0.010504351 -0.009135446 0.011913074 0.009759653 -0.0030074297 -0.018869754 -0.013700845 -0.0033184597
-0.00021273323 0.0027444914 0.008728666 0.0043370365 -0.01269301 0.004305924 0.004910371 0.0028607177
-0.011078518 -0.016463637 -0.02017806 0.01082526 0.006110071 -0.04595633 0.006513798 -0.003129994
-0.0018942164 -0.005018446 0.006431063 0.010052191 -0.009372255 0.0027884634 -0.00085271394 0.008707891
-0.0034821867 -0.0040906216 -0.0073605464 0.00083896646 0.00943704 0.006914639 0.0003481482 -0.011040974
-0.01847391 -0.015665578 -0.02969643 -0.020594804 -0.0192508 -0.03595332 0.0057748966 0.002847808
-0.010658471 0.004505369 0.0019095133 0.011431409 0.06803317 -0.0067935945 -0.011132602 -0.009424853
-0.0019636727 0.010629323 -0.0030634957 2.0622087e-05 0.008053958 -0.004767381 -0.013706128 0.005404398
-0.021757416 -0.03809604 -0.033675164 -0.039278388 -0.022349244 -0.0049424865 -0.0020466605 -0.014598529
-0.020497108 -0.035345595 -0.038917005 -0.007732917 0.017560465 -0.0010456077 -0.027459677 0.0032236846
-0.00039300713 -0.008220736 0.013943129 -0.00084839645 -0.004427461 0.02727287 0.0020987084 -0.015822629
-0.0039988556 -0.0013499876 -0.015678883 -0.0034854896 -0.0017280446 -0.012274345 0.0021737593 0.009596285
0.008882951 -0.006291344 -0.009950895 0.004520159 0.0021144918 -0.000254117 -0.026426332 -0.0078978855
-0.016887188 -0.008631604 -0.017003536 -0.0024583875 -0.025056247 0.0013965808 -0.002643331 0.00079698046
-0.009653317 -0.010151949 -0.014900464 -0.023026554 -0.0072532347 -0.013405816 0.0024951391 -0.0043693497
-0.024158446 -0.0027689575 0.0015989057 -0.001498448 0.0073050642 -0.007938338 -0.009894663 -0.013747992
-0.0070433035 -0.0068934304 -0.01560533 -0.0075522223 -0.008644562 -0.0060473527 -0.027917724 -0.018312527
-0.0032454503 -0.015402182 -0.024975752 -0.017547876 -0.01962652 -0.007221492 0.0054138224 -0.022563562
-0.0040580537 -0.010059863 -0.0036004703 -0.012816766 -0.0065519465 -0.011282514 -0.0012697721 0.017988106

emb.fc.1.bias f4 [100]
00000000: ee8b a8b6 1bc7 f132 4063 022f 7bb5 caa7
00000010: e282 c4aa 5d12 7129 0b54 519d 7261 64b6
00000020: 1015 0000 0f43 0000 747d c1a9 7d7f 6dae
00000030: 69e3 2835 5c30 0080 c0da 881d 3d04 b92e
00000040: 3812 0000 e397 f937 dad1 fb9f 84fd e8a8
00000050: b2dc 37b5 8004 0080 e78a 0d38 874d 2fb4
00000060: 6403 c724 331a 0000 efd8 4827 0ba9 d3b4
00000070: fc61 88ad b21f b213 302c 172e 796b 8eb7
00000080: 244a 02aa 20fb df33 d24d 962f c5cf fe37
00000090: 2001 0000 2330 0c1f 50bf f534 6066 0d19
000000a0: a94d f0ab 73c3 061b ea04 0000 8f07 0000
000000b0: 1328 142b 4201 0080 d90a 17a7 3fa1 1e29
000000c0: 4a5b b527 6b75 e030 8af0 d3b4 0c0f 7ea5
000000d0: 3904 0000 6118 0080 879c 41b5 ac64 5337
000000e0: e5ca be2e 4add 3537 5b97 43ab a224 9995
000000f0: 4704 0000 a9c6 f12e 82a3 709e 8279 1eaf
00000100: 4a05 0000 fdcf cb2a e703 0080 34fd 6636
00000110: 8ffa 1a2d 4897 f133 a16e a2b5 4af2 9128
00000120: 5afc 0637 f610 5333 cccd 82b2 593d 9e97
00000130: 461d 0080 b909 f4b4 55d0 60ad e809 0000
00000140: 270c 0000 d40b 0080 33da dc00 e3aa ffa2
00000150: 6cd9 3bb2 ed0b 0000 3a17 0080 f7cb e4b2
00000160: e708 0080 3201 0080 2017 0000 c709 0080
00000170: 47fe 4b2f bda2 d59e 9291 adad 7e65 0080
00000180: 45db 9935 3818 0000 5a63 839d ed87 622b
-5.02308e-06 2.8146635e-08 1.1858692e-10 -5.6263024e-15 -3.4907412e-13 5.3528677e-14 -2.7704369e-21 -3.4031368e-06
7.556e-42 2.4056e-41 -8.5926844e-14 -5.4000793e-11 6.29158e-07 -1.7348e-41 3.6225082e-21 8.413579e-11
6.536e-42 2.975384e-05 -1.06649805e-19 -2.5867119e-14 -6.8493966e-07 -1.614e-42 3.3746383e-05 -1.632635e-07
8.630824e-17 9.399e-42 2.7873176e-15 -3.9424808e-07 -1.5504924e-11 4.496477e-27 3.437267e-11 -1.6977765e-05
-1.1572042e-13 1.0429926e-07 2.7340136e-10 3.037591e-05 4.04e-43 2.968597e-20 4.5774004e-07 7.310204e-24
-1.7074581e-12 1.1147373e-22 1.763e-42 2.712e-42 5.2635777e-13 -4.51e-43 -2.096134e-15 3.5222906e-14
5.0336568e-15 1.6331517e-09 -3.9476828e-07 -2.2036086e-16 1.515e-42 -8.746e-42 -7.212588e-07 1.26000195e-05
8.676241e-11 1.0839964e-05 -6.9487965e-13 -6.1854004e-26 1.534e-42 1.09947e-10 -1.2739307e-20 -1.4413185e-10
1.897e-42 3.6204365e-13 -1.4e-42 3.4420054e-06 8.809522e-12 1.1249955e-07 -1.2102138e-06 1.620331e-14
8.045778e-06 4.914269e-08 -1.5227577e-08 -1.0225997e-24 -1.0501e-41 -4.5455616e-07 -1.2779185e-11 3.554e-42
4.36e-42 -4.243e-42 2.0282084e-38 -6.929882e-18 -1.0934269e-08 4.278e-42 -8.332e-42 -2.6635446e-08
-3.194e-42 -4.29e-43 8.296e-42 -3.507e-42 1.855308e-10 -2.261956e-20 -1.9732469e-11 -3.6409e-41
1.1463204e-06 8.688e-42 -3.477814e-21 8.0479964e-13

clf.1.weight f4 [1, 100]
00000000: b7a2 3d3e fd45 2e3e 685f 1ebe 8b25 42be
00000010: c220 223e e5d3 2e3e 106d 12be c44a 3ebe
00000020: 0f5c 1e3e e7b3 2b3e 2cd5 49be 6e0a 203e
00000030: e4e2 353e 675d 1e3e b9c7 4cbe 7c34 3cbe
00000040: a054 283e b13b 45be ac60 2a3e c2cc 44be
00000050: 1e99 353e 7a40 2f3e 5418 323e e039 47be
00000060: d4c5 2d3e bc9c 32be ef8b 223e 1aa0 283e
00000070: 03c3 1f3e f76e 1d3e 2b1d 4cbe e7f2 28be
00000080: 3818 42be d162 47be 9156 42be 53c6 23be
00000090: ff2e 2a3e 94fe 2b3e 3904 253e f052 45be
000000a0: 1969 39be bea4 fdbd ddc9 46be 0eca 353e
000000b0: 4601 3c3e a82f 4bbe ee6e 42be e473 263e
000000c0: db99 43be fd4e 45be 6369 2f3e 6f86 423e
000000d0: e346 3bbe 9c05 38be 1e05 44be 7475 4bbe
000000e0: c90e 273e 557a 2c3e a855 44be ca2e 37be
000000f0: 7bfc 283e f9fe 1e3e f788 3ebe 7e96 4cbe
00000100: 9d6a 40be 6553 48be 7ec5 363e b0c4 45be
00000110: 9133 433e 599b 47be 0069 393e 9e77 1f3e
00000120: ac47 2c3e f6b7 40be fa38 43be 1cad 373e
00000130: c25f 4abe 8bbf 40be 8606 283e b547 383e
00000140: 14e0 1c3e b1ca 3bbe db07 45be a9fc 39be
00000150: 4e2a 00be 5e59 49be b5f8 3bbe 43aa 41be
00000160: 9a64 243e 1da3 2d3e b1f1 1c3e 89fc 2cbe
00000170: 7b9c 3a3e b64c 363e 128d 303e 147d 2a3e
00000180: 1384 debd 9372 41be 0831 49be ebdf 33be
0.18519102 0.17018886 -0.15466082 -0.18959634 0.15832809 0.17073019 -0.14299417 -0.18583208
0.15464805 0.16767846 -0.19710225 0.15628979 0.17762333 0.15465318 -0.19998063 -0.18379396
0.16438532 -0.19261052 0.1663844 -0.19218734 0.17734191 0.1711444 0.17392093 -0.19455671
0.16969997 -0.17442602 0.15873693 0.16467324 0.15601735 0.15374361 -0.19933002 -0.1649891
-0.18954551 -0.19471289 -0.18978335 -0.15993623 0.1661949 0.16796333 0.16114892 -0.1926992
-0.18106498 -0.12384938 -0.19412942 0.17752859 0.18359861 -0.19842398 -0.18987629 0.16255146
-0.1910166 -0.19268413 0.17130046 0.18996595 -0.1828876 -0.1797089 -0.19142577 -0.19869024
0.16314234 0.16843541 -0.191733 -0.17888942 0.16502564 0.15526952 -0.18606935 -0.19979283
-0.1879067 -0.19563062 0.17848775 -0.19313312 0.1906264 -0.19492854 0.1810646 0.15572974
0.16824216 -0.18820176 -0.19064704 0.1793713 -0.19763091 -0.18823068 0.16408738 0.17996104
0.15319854 -0.1833904 -0.19241278 -0.18162788 -0.12516138 -0.19662997 -0.18356593 -0.18912606
0.16054001 0.16956754 0.15326573 -0.1689321 0.18223755 0.178027 0.17241314 0.16649276
-0.10865035 -0.18891363 -0.1964761 -0.17565887

exp_avg f4 [2, 1, 2, 1]
00000000: ab8c 823e 1284 90bb 40ad 653e 9507 bf3d
0.25497946 -0.0044102753 0.22429371 0.09327618

exp_avg_sq f4 [2, 1, 2, 1]
00000000: bd16 a93f b726 b33f 39d2 d03f b85a e23f
1.3210064 1.399619 1.6314155 1.7683935

exp_avg f4 [2]
00000000: a316 aebc cacd 933c
-0.021251028 0.018042464

exp_avg_sq f4 [2]
00000000: e72a 2e3e e653 2e3e
0.17008553 0.17024192

exp_avg f4 [16, 1, 1, 50]
00000000: 0fe4 723d daea cd3c 35e3 a43d 7e05 123e
00000010: 994b d53c 2cfe a4bc 4349 913d 7324 063d
00000020: ad68 733c 0b45 8abd 4d03 083c 2b69 d73c
00000030: 2337 f1bb c3a0 663d e689 843c e140 e63d
00000040: a6d5 063b eb6b 193d 39a2 083d 6ec9 d13c
00000050: 1e1c 2f3c 890c cebc 9502 43bd 2d9d e9bc
00000060: faa1 5dbd 0e24 fb3c 70f3 0cbd bbec 853d
00000070: 9189 0cbe 2807 34bd 3034 aa3c ce22 79bd
00000080: 191a 03bd ae39 0abd fe47 d33b 27cc 42bd
00000090: 2bb2 40bd 6357 22bd a586 8cbb 5da0 87bd
000000a0: 12a3 89bc 1c5a c8bd 3c0f 85bd c50d 8cbd
000000b0: f873 46be 2ca5 2abd 3aeb 4c3d d4aa 28bd
000000c0: 84d9 c9bc b7ab 45bd 28df cb3c 73f0 f73c
000000d0: a5cd 4ebc e80a 2cba c759 80bc 924b 033d
000000e0: 50f9 553c 2cf2 7ebb 6867 54bc b8ee 55bb
000000f0: 1a49 863c b6d1 8a3d 750f fc3c 79ff 903d
00000100: b0fb cc3c 57ff 26bd 941b 0bbc ee76 46bd
00000110: ba21 45bd e17d f5bc ddfd ee3b db03 cbbc
00000120: 8310 a6bd c48d 6e38 62fe 323c d7bc dbbc
00000130: 349f 7ebd dbd2 d9bc d49e 763d 6e59 933d
00000140: 7b2b dfbb 58b2 97bb c548 d0bc b4dd 6abd
00000150: c356 04bd 9d75 bfbd 6a85 43bc acd9 d7bc
00000160: 355d 3eb9 4640 98bc 819c 2d3b 7ddd 0cbd
00000170: 9cd1 553d 0aae a2bb e75c 4e3d c6c8 823c
00000180: 369b 15bd a766 33bd f6ce 5dbd a3cd 2fbc
00000190: 5f84 14bd 8093 633d 3ea9 433c b459 3f3c
000001a0: c4af afbc 87ef b33b ed15 6e3d 6db2 13bc
000001b0: 86d7 fabc 354f 16bd 631c b23c 0228 0f3b
000001c0: 9e1c 91bd 3bf0 2abe 1a4c b0bd ea9e b8bd
000001d0: 9af0 babd 7762 2a3d 58f1 483a dcb3 33bd
000001e0: 48ba b33c b91a 463d d9d6 d73d 4373 903d
000001f0: 8250 353c 110f 803d 778e a13d d24b a53d
00000200: 7cc2 0f3d 2131 013e 0bec ab3c 4d50 9b3c
00000210: 918b d6bc 15f4 b73c 95ac 8c3c 46f6 64bd
00000220: cb07 0b3a ee67 113c 45cc 87bd eb08 6fbd
00000230: 2d6b 94bc 1c0c 6abd bc15 253d a4c2 32bd
00000240: c6b6 ed3c fc55 4d3d 0347 8b3d d5a2 fe3c
00000250: 95bf 6dbd 3da3 843d af3d 343d 4a91 a63c
00000260: edd4 7abb 85ba 5a3b 4b26 f8bc 1e17 803c
00000270: d42a 343c 1e4d 363c 459d 353d af5b e83b
00000280: 381f 673c 10ce 69bc 845b 8fbc 9382 793c
00000290: 261c 9dbc cf4b 033d f12e ce3b 7cab 123c
000002a0: 9ae9 cbbb a44a 73bc a73f d1bc b0fd 163d
000002b0: 80f3 1abd 7bab 043d fda9 413c cbb5 15bd
000002c0: 381b 1ebd 37ed cebc 01ed b53b d761 2a3d
000002d0: 77d8 e63c fa0b 7a3d eae7 e53c 2d98 5f3d
000002e0: d8c7 563c efac 033c 5796 1e3d 2cd5 803d
000002f0: b5e1 f33c b414 ec3c abc6 163d 2bbb 4fbb
00000300: 3e6f 87bc 43d6 573c 5fdc 02bd b6a1 d9bc
00000310: 5afc 2d3d 2f25 883b f30e d73c f27e 793b
00000320: e8bd 183a f3ad 14bc 9cf7 2abc 94ae c4bb
00000330: f5a8 11bb ea44 22bc e20d d3bb 9b93 5e3a
00000340: a706 3fbc b689 f03a ef44 48b9 2244 1f38
00000350: f597 613c e19c 173c 281b 8e3b cdd1 ac3b
00000360: ed82 3c3c 4df3 0f3c 205f 103c dc82 8d3c
00000370: 1d7a 2739 548b ad3c 701c 433c 07c8 f63a
00000380: e6c1 5a3c 377e 093c 8f67 c3ba 47b0 8e3a
00000390: 70e4 673b 2e3d 5ebb 8ecc 27ba 117d 913a
000003a0: ed5b 80bb 6a07 d13b ce95 6eba 9209 6bbb
000003b0: b83d 963b 4596 0abb 6ddf cf39 5944 9bbb
000003c0: 5d74 7ebb 07e9 fa3b 5f34 273c 7d44 7e3c
000003d0: e601 0ebb 6772 a5ba eaf9 5b3b 1152 4bbc
000003e0: 64db 39bb 88ee 293c 41f7 c4bb 7f14 e3ba
000003f0: c834 0cbc 2c0f 373c 645c be3b 420a 153c
0.059299525 0.0251364 0.08051149 0.14259908 0.026037024 -0.02014073 0.07094052 0.032749604
0.0148565 -0.0675145 0.008301568 0.026295265 -0.007361309 0.056305658 0.016179036 0.112428434
0.0020574122 0.037456434 0.033357833 0.025608744 0.010687856 -0.025152462 -0.047609884 -0.02851733
-0.05410955 0.03065684 -0.034411848 0.065392934 -0.13724352 -0.043952137 0.020776838 -0.060824208
-0.03200731 -0.033746414 0.006447791 -0.047557976 -0.047044914 -0.03963412 -0.004288512 -0.06622384
-0.01680139 -0.09782812 -0.06497046 -0.06838564 -0.19380176 -0.041661426 0.050029017 -0.04117854
-0.024639852 -0.048259463 0.024886683 0.030266022 -0.012622272 -0.00065629045 -0.01566781 0.03205449
0.013059929 -0.003890167 -0.012964107 -0.0032643508 0.01639228 0.067782804 0.03076909 0.070799775
0.025022358 -0.040770855 -0.008490462 -0.048453264 -0.048127867 -0.02996725 0.0072934465 -0.024782112
-0.08108618 5.687565e-05 0.010924907 -0.026823444 -0.062163547 -0.026589802 0.060210064 0.07194792
-0.006810603 -0.0046294145 -0.025425324 -0.05734034 -0.032309305 -0.09348605 -0.011933664 -0.026348911
-0.00018154534 -0.018585335 0.0026490989 -0.034390915 0.052201852 -0.0049645947 0.050381567 0.015964877
-0.036524974 -0.04379907 -0.05415245 -0.01073018 -0.03625905 0.05556059 0.011942206 0.011679102
-0.021446116 0.0054912004 0.05812638 -0.009014708 -0.030620348 -0.03669663 0.021742051 0.0021843915
-0.070855364 -0.16693203 -0.08608265 -0.090146855 -0.09127922 0.04159781 0.00076653576 -0.0438727
0.021939412 0.04836533 0.10539026 0.070532344 0.011066558 0.06252874 0.07888501 0.08071102
0.035097584 0.12616397 0.020986577 0.018959189 -0.026189597 0.022455255 0.017172137 -0.055898927
0.00053035904 0.008874876 -0.06630758 -0.058358114 -0.018117512 -0.057140455 0.04030393 -0.043642655
0.029017817 0.05013083 0.06800654 0.031083504 -0.058044035 0.06476448 0.04400414 0.020332951
-0.0038273886 0.0033375334 -0.030291697 0.015636023 0.010996539 0.011126785 0.044339437 0.0070910077
0.014106564 -0.014270321 -0.017499693 0.015228885 -0.019178461 0.03205472 0.006292217 0.008952018
-0.006222916 -0.014849339 -0.025543047 0.03686303 -0.037829876 0.0323901 0.0118203135 -0.036550324
-0.038600177 -0.025259597 0.0055519347 0.041597214 0.02817939 0.061046578 0.028064687 0.054588486
0.01310917 0.008036836 0.038717594 0.06290659 0.029770711 0.028818466 0.03681056 -0.0031697254
-0.016532537 0.013173643 -0.031948444 -0.026566368 0.04247699 0.0041548233 0.026252246 0.003807005
0.0005826638 -0.009074676 -0.010435011 -0.0060022566 -0.002222595 -0.009904126 -0.006440864 0.0008490623
-0.011659301 0.0018351588 -0.00019099166 3.7972008e-05 0.01376914 0.009253711 0.0043367334 0.0052740336
0.0115058245 0.008786035 0.008811742 0.017274313 0.00015971852 0.0211846 0.0119086355 0.0018827923
0.013351893 0.008391908 -0.0014908182 0.0010886275 0.0035383962 -0.0033910978 -0.00064010255 0.0011099895
-0.0039172084 0.0063790577 -0.0009101302 -0.0035863859 0.004584994 -0.0021146697 0.00039648582 -0.0047383723
-0.0038826682 0.0076571736 0.010205357 0.015519259 -0.0021668612 -0.0012622596 0.0033565708 -0.012409703
-0.0028359527 0.010371812 -0.0060109203 -0.0017324834 -0.008557506 0.011173051 0.0058093537 0.009096684

exp_avg_sq f4 [16, 1, 1, 50]
00000000: 4045 f93c 9285 b53c 7213 e13c e26d cc3c
00000010: 6b24 c53c bf3c ad3c 0e27 ce3c 162a be3c
00000020: 0a8c ca3c 45b7 c63c 54c3 c73c 421d c53c
00000030: 2ef5 de3c e979 b83c b87b d63c 2c81 d33c
00000040: 6eb8 cc3c 8af9 b63c e2fb cc3c 765b ac3c
00000050: b4ff c33c 0eeb db3c 9901 e23c ff3a d53c
00000060: 8f83 e03c f962 c23c 3464 ac3c 02c3 d93c
00000070: b7f1 cf3c 391e e33c 32fc c23c a05b c03c
00000080: 0c34 b03c 4454 bb3c cb78 c13c 3a87 b13c
00000090: 8f64 c83c 9f75 de3c 7140 fd3c f369 cb3c
000000a0: 574a d43c d722 d93c 76cd df3c 23c3 ed3c
000000b0: 2f22 da3c 7e45 d83c 705f e03c 7ef6 e23c
000000c0: 3331 c83c ef3a 9d3c 0e67 903c f568 9c3c
000000d0: 467f a53c e661 913c 6b85 973c d5c6 aa3c
000000e0: a686 833c 6457 923c 7744 853c 0861 a03c
000000f0: beb7 9f3c 12c8 a63c 8056 8f3c ae24 9c3c
00000100: a730 7a3c b22b 863c 1822 763c 3751 a73c
00000110: a353 953c d56e 823c 7f29 883c f216 863c
00000120: 45f3 a73c d9fe 9a3c cd1f 6a3c 29dd 923c
00000130: 6469 883c 0710 533c 3836 903c b6c8 a43c
00000140: a257 8d3c 0b73 693c bcc6 993c ba71 843c
00000150: 6cc1 7b3c 13db 8e3c 3951 693c 4398 933c
00000160: cb24 913c b9e9 703c 9f4a 633c fefd 763c
00000170: 3262 973c 612c 9b3c 4a9b 973c 5ba3 803c
00000180: 80d2 8d3c c315 8f3c 9d60 963c 0b55 853c
00000190: 9326 1f3d 5d2d 303d e051 2e3d 8cab 2d3d
000001a0: 96c7 373d c006 2f3d 9a25 2e3d 39a4 433d
000001b0: fbb0 383d 2051 453d 5caa 333d f48b 423d
000001c0: 7d64 403d d6e5 403d 8b4e 373d 4c89 273d
000001d0: bba6 323d ae4c 1b3d 384f 373d 6570 443d
000001e0: 78ce 2d3d 7de2 4e3d c5ab 463d 9364 263d
000001f0: 4c4b 3f3d 3d16 2f3d fa81 403d a095 303d
00000200: 3bbd 263d 61d4 323d 57e8 313d 9074 1a3d
00000210: 567c 283d bf90 3d3d d421 403d 25d9 323d
00000220: 0b29 293d d92b 293d f48e 4b3d b660 2c3d
00000230: 8117 343d fa47 293d c3ee 463d ea57 2d3d
00000240: 2c8e 183d f1be 133d 953b 283d c6da 1e3d
00000250: 351b 173d 4bbf 323d aade 513c dffb 303c
00000260: 8e6d 483c 4d6b 5e3c 28fb 503c f1a7 503c
00000270: 61ae 5a3c 9899 4c3c 5145 403c 4b9f 423c
00000280: 8997 443c f410 4a3c 443b 4d3c ff7f 443c
00000290: 476f 473c 78e4 443c f29f 4c3c 4414 523c
000002a0: e028 423c 543f 453c 06bd 483c 9f4a 2b3c
000002b0: 5974 3a3c e290 4f3c 892c 473c 9d37 5b3c
000002c0: 08f5 313c 47c0 253c bf6a 163c 13de 293c
000002d0: df04 413c b785 3d3c 0cea 473c b5e4 1c3c
000002e0: 3ef5 213c e0e0 263c 3ed3 283c de82 403c
000002f0: f0e5 5d3c 05e2 483c 2235 353c 016c 3e3c
00000300: 9a60 483c 57c1 4e3c eead 3b3c 9a47 4c3c
00000310: 3dfb 463c 5926 2f3c 750e 373c 9627 403c
00000320: 2c0c a23a b929 c63a 86e0 e53a c06a e13a
00000330: 7c1e d33a d082 c63a 9d72 c33a f06f b53a
00000340: 064d d73a 7901 de3a 14e6 ce3a c0d5 b93a
00000350: 1898 c53a 259f 033b 6dcc d13a 7ec8 d63a
00000360: e4e4 d23a ac3e d23a 460c f83a 5e74 f43a
00000370: 5e6b cd3a a899 db3a 94af e73a a462 d93a
00000380: 4e74 0d3b bbcc d13a 352d e13a acef d43a
00000390: 8eef c93a 6cf9 ac3a aea1 a53a 8a26 c23a
000003a0: 679e ce3a 372e db3a 66a7 cd3a 5bfc af3a
000003b0: 607f b93a 37e6 e43a 6f61 bd3a eb6d a23a
000003c0: c50d d43a c859 ca3a 0076 cc3a 3718 c13a
000003d0: 26c3 c93a e056 ca3a 98da d53a e485 d23a
000003e0: 9789 ba3a bbaa ce3a 3968 933c 5dd4 ae3c
000003f0: 574d af3c 4e2a 993c e00f ac3c 2aae 9d3c
0.030428529 0.022158418 0.027475093 0.02495474 0.024065217 0.02114713 0.025165107 0.023213428
0.024724979 0.024257312 0.024385132 0.024061803 0.02721652 0.022519069 0.02618204 0.02581843
0.024990287 0.022335786 0.02502245 0.021039706 0.02392564 0.026845481 0.027588652 0.026029108
0.027406482 0.023728834 0.021043874 0.026582245 0.025383813 0.027724372 0.023801897 0.02348119
0.021509193 0.02286733 0.023617169 0.021670926 0.024462013 0.027155695 0.030914517 0.024830794
0.025914354 0.02650587 0.027319651 0.029023713 0.026627628 0.026400324 0.027389258 0.027705427
0.024437523 0.01919314 0.017627265 0.019093016 0.02020229 0.017746877 0.018496236 0.020846764
0.016055416 0.017863937 0.016267998 0.019577518 0.019496795 0.020359073 0.017497301 0.019060459
0.015270389 0.016378257 0.015022777 0.020424468 0.018228358 0.01592199 0.01662135 0.016368363
0.020501742 0.018920349 0.014289808 0.017927723 0.016651817 0.012882239 0.017603979 0.020115238
0.0172537 0.01424862 0.018771522 0.01616751 0.01536594 0.017438447 0.014240556 0.01801694
0.01771774 0.014704161 0.0138727715 0.015075205 0.01847944 0.01894206 0.018506665 0.015702894
0.017312288 0.017466431 0.018356616 0.016275903 0.038855147 0.04301201 0.04255855 0.042399928
0.044868074 0.042731047 0.04251633 0.047764037 0.045090657 0.04817307 0.04386364 0.04749675
0.046970833 0.04709419 0.04475264 0.04090242 0.043616038 0.037914924 0.044753283 0.04795875
0.042433232 0.050508965 0.048503656 0.04062326 0.046702668 0.042745817 0.046998955 0.043111444
0.040707808 0.04365957 0.043434467 0.03770882 0.0411342 0.04628062 0.04690726 0.043664116
0.041298907 0.041301582 0.049696878 0.04208442 0.043967728 0.041328408 0.048567545 0.04232017
0.03724496 0.036070768 0.041072447 0.038782857 0.03689118 0.043639462 0.012809435 0.010802238
0.012233151 0.013575387 0.012755193 0.012735353 0.013347239 0.0124877915 0.011735276 0.011878799
0.011999019 0.0123331435 0.012526337 0.011993407 0.012172527 0.012017362 0.012489306 0.0128222145
0.011850566 0.012039024 0.012252098 0.010454803 0.0113802785 0.01266882 0.012156614 0.013379958
0.010861643 0.010116643 0.009180724 0.010367888 0.0117809465 0.011567525 0.012201797 0.009576012
0.00988513 0.01018545 0.01030427 0.011749951 0.013543591 0.0122609185 0.011060031 0.01162243
0.012230063 0.012619338 0.011455042 0.012468243 0.012144861 0.010690295 0.01117288 0.011728188
0.0012363247 0.0015118635 0.0017538227 0.0017197952 0.0016107108 0.0015145186 0.0014911477 0.0013842564
0.0016426153 0.0016937695 0.0015785121 0.0014178082 0.0015075235 0.0020083871 0.0016006358 0.0016386656
0.0016089943 0.0016040406 0.0018924556 0.0018650403 0.0015672257 0.0016754167 0.0017676228 0.0016585183
0.0021584216 0.0016006449 0.001717961 0.0016245744 0.0015406476 0.0013196892 0.0012636685 0.0014812511
0.001576376 0.0016722147 0.0015690147 0.0013426648 0.0014152341 0.0017463629 0.0014448593 0.0012392377
0.001617842 0.0015438134 0.0015599132 0.0014731948 0.0015393242 0.0015437268 0.0016315756 0.0016061631
0.0014231679 0.0015767434 0.017994033 0.021341497 0.021399183 0.01869693 0.021003664 0.019248087

exp_avg f4 [16]
00000000: 7eea 18b2 fc4a 87b2 7308 0833 50a3 08b2
00000010: 8ae0 52b1 977a 9732 ff46 bfb1 7fd9 51b2
00000020: 69a6 83b1 1cbf 7db2 a62b b4af d2a9 2b31
00000030: 25a8 1e32 c3bf 95b1 05bd 4631 9445 7b31
-8.900882e-09 -1.5750167e-08 3.1672652e-08 -7.953375e-09 -3.0686658e-09 1.7634461e-08 -5.566903e-09 -1.2214854e-08
-3.8315204e-09 -1.47699915e-08 -3.2772823e-10 2.4980307e-09 9.235042e-09 -4.3582715e-09 2.8920237e-09 3.6564858e-09

exp_avg_sq f4 [16]
00000000: d649 9129 6810 462b 3fdd ac29 8310 1929
00000010: 5246 fc28 1455 9929 3cac 1a29 0ec7 8a2a
00000020: 8a13 b929 a2eb 9629 4b5c bd29 c8a1 162a
00000030: baeb 4629 4c78 2f29 4fc2 f62a 8254 8528
6.452102e-14 7.03665e-13 7.6767145e-14 3.3987146e-14 2.8008117e-14 6.8093236e-14 3.434426e-14 2.4651846e-13
8.21904e-14 6.702214e-14 8.4092963e-14 1.3378805e-13 4.4169292e-14 3.8962147e-14 4.3833207e-13 1.4802616e-14

exp_avg f4 [16]
00000000: 5708 e8bd c479 413e 1c86 0fbc 2199 a63d
00000010: 688c cf3c 1615 8dbd cb59 b1bd fcac 93bd
00000020: 9311 31bc e180 cb3c d74a 36bd 3e4e 4cbe
00000030: db78 653d 1bac d9bd 2c54 ec3c c360 20bc
-0.11329716 0.18894106 -0.0087600015 0.08134676 0.025335506 -0.068887874 -0.08659705 -0.072107285
-0.010807413 0.024841728 -0.044504967 -0.19951722 0.05602346 -0.1062853 0.02884873 -0.009788695

exp_avg_sq f4 [16]
00000000: 4959 983d 4e3c 8a3e b28b 863d 2951 683d
00000010: a1a2 1b3d 37d0 613d 6eb3 103d 3592 9f3d
00000020: 6ff9 1b3d 9e4b 353d 2c1b bc3d 2d2d aa3d
00000030: 2df2 0f3d bbc5 123d e5cf 223d ec2b 813c
0.07438905 0.26999134 0.065696135 0.056718025 0.037996892 0.05513021 0.035327367 0.07791559
0.038079675 0.044261567 0.0918487 0.08309398 0.035143066 0.0358331 0.039749045 0.015768014

exp_avg f4 [16]
00000000: 7a0f 4bbc 3d34 8f3d f319 4fbc 6fb2 133d
00000010: b751 e53b a4ce 10bd b398 2fbd 704a a9bd
00000020: 74ac 6bbc 4103 0ebd af20 b93b 8e6f bfbd
00000030: 9de5 a43c 9319 52bd 59cf da3b 6d0f c6bb
-0.012393827 0.069923855 -0.012640464 0.03605884 0.0069982666 -0.035353318 -0.042870235 -0.08266151
-0.014384378 -0.034671072 0.005649648 -0.09347449 0.02012902 -0.05129392 0.00667755 -0.0060443194

exp_avg_sq f4 [16]
00000000: 7b07 b33c e5c1 ac3c 5aee a13c 4e2a 4f3c
00000010: 05f1 e93b 3174 6b3c ab0b 2c3c 1eba 993c
00000020: c2d6 1b3c 55a9 2f3c 4f4c 073d 7549 bb3c
00000030: ae0b 223c 3f33 453c afd1 093c 23c1 1a3b
0.021854153 0.02108855 0.019766975 0.012644364 0.0071393275 0.014370964 0.010500829 0.018765505
0.0095116515 0.010721524 0.033031758 0.022862175 0.00989048 0.012036144 0.008411809 0.0023613654
