src/params.pth (torch, 412117 bytes, 43 tensors)

emb.spatial_conv.weight f4 [2, 1, 2, 1]
0	0xbf126698	-0.57187796
1	0x3f11c31d	0.56938344
2	0x3f037b98	0.51360464
3	0x3f02bd42	0.51070035

emb.spatial_conv.bias f4 [2]
0	0xbda5e820	-0.08100915
1	0xbe681bd9	-0.22666873

emb.feature_extractor.0.weight f4 [16, 1, 1, 50]
0	0x3d0aca62	0.033884414
1	0x3c939e45	0.018019805
2	0x3d14aaaf	0.03629559
3	0x3cf39616	0.029734652
4	0x3cb4101d	0.02198034
5	0x3c8dba0f	0.017300634
6	0x3c823091	0.015892299
7	0x3bce4595	0.006294916
8	0x3c6fb6a8	0.014630951
9	0x3cc05cf7	0.02348183
10	0x3d147084	0.036240116
11	0x3d004a6d	0.031320978
12	0x3d0611db	0.032731872
13	0x3b003be9	0.001956696
14	0xbb6d1039	-0.0036173
15	0xbcb9b253	-0.02266804
16	0xbcfb69e8	-0.030690148
17	0xbc34c390	-0.011032954
18	0x3a02ffec	0.0004997242
19	0x3b4d550e	0.0031331214
20	0x3cf01237	0.02930556
21	0x3d358bd7	0.044322815
22	0x3d49e8fe	0.049294464
23	0x3cf1e3d4	0.029527582
24	0x3c75dd36	0.015006354
25	0xbbe14342	-0.006874473
26	0x3c94c388	0.018159643
27	0xbcefb751	-0.029262217
28	0xbc50c7e6	-0.012742972
29	0x3c6f6d9f	0.014613538
30	0xbb3d3766	-0.0028872131
31	0x3c151c0f	0.009100928
32	0x3d43ba89	0.047785316
33	0x3d21a2f2	0.039462037
34	0x3d360da0	0.044446588
35	0xbae9c62c	-0.0017835549
36	0x3c8cd464	0.01719112
37	0xbc1bed2e	-0.009516997
38	0xba359e28	-0.0006928169
39	0x3cf5a70c	0.02998688
40	0x3c925bb6	0.017865997
41	0x3cf59eb7	0.029982908
42	0x3d0e89e5	0.034799475
43	0x3cbb82aa	0.022889454
44	0x3ca07032	0.019584749
45	0x3ce0c686	0.027438413
46	0x3c2ff41a	0.010739351
47	0x3c2208b0	0.009889767
48	0xbbd6d697	-0.006556343
49	0x3bd99b88	0.006640855
50	0xbcb89fe3	-0.022537177
51	0x3c378277	0.011200539
52	0xbceaca08	-0.02866079
53	0xbd2b1c49	-0.04177502
54	0xbd899b40	-0.06719065
55	0xbd9ecd75	-0.077540316
56	0xbd7c141f	-0.061542626
57	0xbd91fd9d	-0.07128451
58	0xbd98bbe7	-0.074577145
59	0xbc912211	-0.01771644
60	0x3c321092	0.0108682085
61	0x3ca4ee0b	0.020133039
62	0x3ccf6925	0.025318692
63	0x3c8e071a	0.01733737
64	0x3cb7dad6	0.022443216
65	0xbd174537	-0.036931243
66	0xbd06fdeb	-0.032957
67	0xbcdc4c92	-0.02689198
68	0xbc85008e	-0.016235616
69	0x3cf1d6fa	0.029521454
70	0x3b8309ff	0.0039989944
71	0x3ca359bd	0.019940251
72	0x3c67e33f	0.014153301
73	0xbd27f518	-0.041005224
74	0x3ca2e920	0.019886553
75	0xbc43c06a	-0.011947731
76	0xbc0cec82	-0.00860131
77	0xbc194a1f	-0.009356051
78	0xbc08969d	-0.00833669
79	0xbd24cfd0	-0.040237248
80	0x3a9872be	0.0011630876
81	0xbbe9d476	-0.007135923
82	0xbcd9fb4b	-0.026609084
83	0xbcd17cdd	-0.025572235
84	0xbd517911	-0.05114085
85	0xb80145d9	-3.0821047e-05
86	0xbc9185c5	-0.017763982
87	0xbc319570	-0.010838851
88	0x3a7a33ca	0.00095444603
89	0xbbbe14dd	-0.005800827
90	0xbccf51ac	-0.025307499
91	0xbce7bd14	-0.028288402
92	0xbcc0ce6c	-0.02353593
93	0xbd9f73a9	-0.07785732
94	0xbd67f05d	-0.056625713
95	0xbd2f1982	-0.042748936
96	0xbd154d04	-0.0364504
97	0x3cbddf26	0.023177695
98	0x3c512bfa	0.0127668325
99	0xbc16b32e	-0.009197993
100	0xbd4589b6	-0.048227035
101	0x3d9a84d0	0.07544863
102	0x3d355282	0.04426814
103	0xbcec1047	-0.028816355
104	0xbdd9e7c0	-0.10639906
105	0x3df3a386	0.11896424
106	0x3bfff8c3	0.007811637
107	0xbd389586	-0.04506447
108	0xbc9a23a6	-0.018815827
109	0xbc954174	-0.018219687
110	0xbdcf7e38	-0.10131496
111	0xbd0448ee	-0.032296114
112	0x3e07db24	0.1326719
113	0x3ded0a94	0.11574283
114	0x3b37b476	0.0028031147
115	0xbdb11ebd	-0.08648441
116	0x3d0cd74e	0.034385018
117	0xba3b6090	-0.0007147873
118	0x3d94876d	0.07252393
119	0xbe129cb2	-0.14317587
120	0xbac1d00b	-0.0014786733
121	0x3decc22b	0.11560472
122	0x3d35ac3e	0.044353716
123	0xbdad4b32	-0.08461608
124	0xbcda0900	-0.02661562
125	0x3d232dae	0.039838485
126	0x3d6dde98	0.05807361
127	0x3bc74bcb	0.0060820333
128	0xbd3d2b59	-0.046183918
129	0x3d5f2ceb	0.054486196
130	0xbd7659c1	-0.06014419
131	0x3da79897	0.08183401
132	0xbd0a586f	-0.033775743
133	0xbd12aa68	-0.035807043
134	0xbda19d6a	-0.078913525
135	0x3dee8d81	0.116480835
136	0xbdd0bf95	-0.101927914
137	0xbcd53679	-0.026026951
138	0x3dbdf375	0.09274951
139	0x3d046176	0.03231951
140	0xbc78c424	-0.015183482
141	0x3be518ef	0.0069914977
142	0xbb9452a5	-0.0045264536
143	0xbd45aa21	-0.04825795
144	0x3bdceaff	0.006741881
145	0xbc264483	-0.01014817
146	0xbdd1a2b3	-0.102361105
147	0x3c755e6f	0.014976128
148	0xbd8cccf8	-0.06875032
149	0x3df7ed1b	0.12105771
150	0x3c88777b	0.016658535
151	0xbd39ff18	-0.045409292
152	0xbd72e5c7	-0.059301164
153	0xbcf6c823	-0.03012473
154	0x3cc64022	0.024200503
155	0x3d143c32	0.03619022
156	0x3d235f45	0.039885778
157	0x3d8660f2	0.065614596
158	0x3dc46fce	0.095916376
159	0xbcc4ffc2	-0.024047736
160	0x3ccd1734	0.025035478
161	0xbc12ec81	-0.00896752
162	0x3c0253f7	0.007954589
163	0x3adc75dd	0.0016819794
164	0x3cd3bfe9	0.025848346
165	0xbbc50c8b	-0.006013458
166	0x3be91bf1	0.0071139266
167	0x3d899a17	0.067188434
168	0x3d766ce3	0.060162436
169	0x3d05c1ef	0.032655653
170	0xbba41f18	-0.0050085895
171	0x3ca75401	0.020425798
172	0x3ce40cd9	0.027838157
173	0x3dbfba05	0.09361652
174	0x3d848e6e	0.06472479
175	0x3cd03169	0.025414186
176	0xbd3bdbcc	-0.04586391
177	0xbe211ac3	-0.15732865
178	0xbe284318	-0.16431844
179	0xbd66b13c	-0.056321368
180	0x3d22f7ed	0.03978722
181	0x3d81f03b	0.063446485
182	0x3d860109	0.06543166
183	0xbd297794	-0.041373804
184	0xbdcdbf29	-0.100462265
185	0xbe21e44c	-0.15809745
186	0xbdcec2e2	-0.10095765
187	0xbda6b369	-0.081396885
188	0x3dd0871e	0.101820216
189	0x3d7c6be4	0.06162633
190	0x3dde74d1	0.10862125
191	0x3c1bfa1a	0.009520078
192	0xbaedc1de	-0.0018139442
193	0xbd2d808c	-0.04235892
194	0xbd8b6227	-0.068058304
195	0xbc9dd9ee	-0.019268956
196	0x3ddc1dbe	0.1074786
197	0x3a2e83b4	0.00066571985
198	0xbbfa3f9b	-0.007636977
199	0xbddd23ec	-0.10797867
200	0x3caef769	0.021358209
201	0x3bc58613	0.006027946
202	0x3a6ed5cf	0.00091108395
203	0xbcbd588d	-0.023113513
204	0xbc9463fa	-0.018114079
205	0xbd1cfe6a	-0.038328566
206	0xbd041363	-0.03224505
207	0xbd6447b7	-0.055732455
208	0xbc588098	-0.013214253
209	0x3c9902a3	0.018678015
210	0x3b30e4e6	0.0026991903
211	0x3c9729c5	0.018452534
212	0xbbf11941	-0.007357747
213	0x3d25d44b	0.04048566
214	0x3ce2635f	0.027635274
215	0xbb4d186a	-0.003129507
216	0xbb84fefa	-0.004058716
217	0xbceca32f	-0.028886406
218	0xbc33baef	-0.010969861
219	0xbc96cd16	-0.01840834
220	0xbd13fbed	-0.036128927
221	0xbc0fbd31	-0.008773134
222	0xbca48b1c	-0.020085864
223	0x3c1846bc	0.009294208
224	0x3a3d2d77	0.00072165526
225	0xbcdaea0d	-0.026722932
226	0xbc8c6b3e	-0.01714098
227	0xbc2fc760	-0.010728687
228	0xbbdf5bd0	-0.006816365
229	0xbc53783f	-0.012907087
230	0x3b017964	0.0019756192
231	0xbae50169	-0.0017471734
232	0xbb8dbc29	-0.004325409
233	0xbc1cc33c	-0.009568032
234	0xbc67ece4	-0.0141556
235	0xbbfe702c	-0.007764837
236	0xbaa00ea1	-0.0012211391
237	0xbb16f158	-0.0023032036
238	0xbc054f07	-0.008136517
239	0xbcfb8b04	-0.030705936
240	0xbcb69815	-0.022289315
241	0xbc148388	-0.009064563
242	0xbc8ca1a8	-0.017166927
243	0x3b0f3ac8	0.0021855105
244	0xbba0f90f	-0.0049125026
245	0xba4d5e35	-0.00078341673
246	0x3bd629b3	0.0065357327
247	0xbc6ea90f	-0.014566674
248	0xbc3e07c8	-0.011598535
249	0xbb25399b	-0.0025211337
250	0x3cb96d87	0.022635235
251	0x3dcf0db3	0.10110035
252	0x3c5dea1f	0.013544588
253	0xbce22daf	-0.027609674
254	0x3bf746e2	0.0075462917
255	0x3d679756	0.05654081

emb.feature_extractor.0.bias f4 [16]
0	0xb4e2cb66	-4.2243772e-07
1	0x33527704	4.900268e-08
2	0x3630d529	2.635012e-06
3	0xb6a2d109	-4.852311e-06
4	0x3444d73b	1.8332223e-07
5	0x354d67c2	7.651944e-07
6	0x3505c7bf	4.983703e-07
7	0x340c307b	1.3056153e-07
8	0xb52e6dd4	-6.497987e-07
9	0x3702162e	7.753768e-06
10	0xb4a1846a	-3.008493e-07
11	0x34c3c78a	3.6466764e-07
12	0xb660adca	-3.347976e-06
13	0xb5baa9b0	-1.3907465e-06
14	0x34b8dc6a	3.4433043e-07
15	0xb7209197	-9.570641e-06

emb.feature_extractor.1.weight f4 [16]
0	0x3dae3e73	0.08508005
1	0xbd8da7c7	-0.069167666
2	0x3ea81812	0.32830864
3	0x3eb431cb	0.3519424
4	0x3d8c3b96	0.068473026
5	0x3e356b67	0.17716752
6	0x3e1f1cef	0.15538381
7	0x3d9d8f5f	0.076933615
8	0x3e7ff37e	0.24995229
9	0x3f013a95	0.50480014
10	0x3ea4b202	0.3216706
11	0x3ea2330c	0.3167957
12	0x3ea980a2	0.33105952
13	0x3e32f3a2	0.17475751
14	0x3e387ad9	0.18015613
15	0x3e195f53	0.1497777

emb.feature_extractor.1.bias f4 [16]
0	0xbde6533e	-0.11246346
1	0x3bd28274	0.0064242426
2	0xbed4bf76	-0.41552323
3	0x3d6f7d3f	0.058469053
4	0xbccddeb5	-0.025130609
5	0xbe3155da	-0.17317906
6	0xbdca01ee	-0.09863649
7	0xbdfb6ac4	-0.12276223
8	0xbe8524cc	-0.26004636
9	0xbd8da894	-0.06916919
10	0xbe3aca6e	-0.18241283
11	0xbeb45a2a	-0.3522504
12	0xbe116d05	-0.14201744
13	0xbde237b8	-0.11045784
14	0xbe62e6f9	-0.22158422
15	0xbddf2edd	-0.1089761

emb.feature_extractor.1.running_mean f4 [16]
0	0xbded9785	-0.11601166
1	0x3e0d5545	0.13802059
2	0xbbe9a48a	-0.0071302103
3	0x3add24f7	0.0016871978
4	0x3d6d8044	0.05798365
5	0xbd7add91	-0.06124646
6	0xbd2c384f	-0.042045888
7	0xbc80744c	-0.015680455
8	0x3d16f719	0.036856744
9	0xbc801031	-0.01563272
10	0xbd23bb6c	-0.03997366
11	0xbce2bf3d	-0.02767908
12	0xbda413e7	-0.080116086
13	0xbd64eff9	-0.05589292
14	0x3cbb165e	0.022837814
15	0xbcb1c64c	-0.021701

emb.feature_extractor.1.running_var f4 [16]
0	0x3d90a221	0.07062174
1	0x3de26edf	0.11056303
2	0x3d9ee415	0.07758347
3	0x3e033d42	0.12816337
4	0x3cc38905	0.023869047
5	0x3d93c206	0.072147414
6	0x3d81f7ae	0.06346069
7	0x3d08b9e9	0.033380423
8	0x3db325c4	0.087474376
9	0x3e4db388	0.20088017
10	0x3e7a094b	0.24417607
11	0x3db21cd7	0.08696907
12	0x3dfd096c	0.12355313
13	0x3d714d05	0.058911342
14	0x3d7226a0	0.059118867
15	0x3d3b9c8f	0.045803603

emb.feature_extractor.4.weight f4 [16, 16, 1, 50]
0	0xbc597b5c	-0.01327404
1	0xbc373ed3	-0.011184412
2	0xbc3abc85	-0.011397486
3	0xbca71c89	-0.020399349
4	0xbc2b30b1	-0.010448621
5	0xbca0e751	-0.01964155
6	0x3b1f88c8	0.0024343003
7	0x3bd1b114	0.006399283
8	0x3bafdd00	0.0053669214
9	0xbade24fb	-0.0016948277
10	0x3a6933b7	0.0008895951
11	0xbc1c9481	-0.00955689
12	0xbc3d7b42	-0.0115650315
13	0xbb931c8a	-0.004489486
14	0xbbef59a4	-0.007304387
15	0xbc14d60c	-0.009084236
16	0xbc94860c	-0.018130325
17	0xbc55f4f6	-0.0130588915
18	0xbc11913c	-0.008884724
19	0xbb9519f8	-0.004550215
20	0xbc165c31	-0.009177254
21	0xbc537d35	-0.01290827
22	0xbab26388	-0.0013609985
23	0x3c208e67	0.009799576
24	0x3c2e9524	0.010655675
25	0xbc854ec1	-0.016272904
26	0xbc21d557	-0.009877524
27	0xbc00d2e6	-0.007862782
28	0x3b9b83d5	0.00474594
29	0x3c40d48c	0.011769425
30	0x3bd01fb2	0.0063514346
31	0x3cbf6ea7	0.023368193
32	0x3a2220d6	0.00061847025
33	0xbc1068f6	-0.008814087
34	0xbc9dd05c	-0.019264393
35	0xbbf0f26f	-0.007353119
36	0xbcc3f437	-0.023920162
37	0xba84a0d3	-0.001011873
38	0x3c4f3143	0.012646022
39	0x3bfce52f	0.0077177505
40	0x3bd75543	0.0065714433
41	0xbc04e3ce	-0.0081109535
42	0xbb9c654b	-0.0047728173
43	0xbc13c549	-0.009019204
44	0xbcbce54e	-0.02305856
45	0x3bdceeb6	0.0067423237
46	0x3ce0a5be	0.027422782
47	0x3bb6221d	0.005558266
48	0x3be6a538	0.0070387386
49	0x3c7e3c87	0.0155173605
50	0x3bd0dfcd	0.0063743354
51	0x3cb2a35a	0.021806408
52	0xbb75df52	-0.0037517142
53	0xbb7ed7ba	-0.0038885907
54	0xbb2c3651	-0.0026277492
55	0xbcce8603	-0.025210386
56	0xba08588d	-0.00052011834
57	0xbc1612ac	-0.009159725
58	0x3aced072	0.0015778674
59	0xbcca5eaa	-0.024703342
60	0xbcbc4b75	-0.0229852
61	0xbcc2f112	-0.023796592
62	0xbcfd8566	-0.030947398
63	0xbcee92ca	-0.029122729
64	0xbc4b6bc7	-0.012415833
65	0xbc57d768	-0.013173915
66	0x3c5f7bd7	0.013640366
67	0xbc815f33	-0.015792465
68	0xbcb29e8f	-0.021804122
69	0xbcef0ce8	-0.029180959
70	0xbd125a27	-0.035730507
71	0xbcbb7e95	-0.022887507
72	0xbbe750c2	-0.0070591876
73	0xbbffbb90	-0.0078043416
74	0x3c4ac7c4	0.012376729
75	0x3b62ed5d	0.0034626343
76	0x3c80326e	0.015649047
77	0xbc57a301	-0.013161422
78	0x3a683d6a	0.0008859249
79	0x3c3706fe	0.011171101
80	0xbb5f7cf9	-0.003410159
81	0x3ab3b929	0.0013711798
82	0x3c62f6d3	0.013852793
83	0x3b5c66c2	0.0033630584
84	0xbcb84485	-0.02249361
85	0xbd0b980b	-0.034080546
86	0xbae18a68	-0.0017207386
87	0xbc90aa48	-0.017659321
88	0x3b8bc357	0.0042652297
89	0xbad486fb	-0.0016214544
90	0x3bfa3b79	0.007636484
91	0xbbe9c5eb	-0.0071341894
92	0xbc5c4fa5	-0.013446723
93	0x3ce45622	0.027873103
94	0x3c00f51d	0.00787094
95	0x3c4907bd	0.012269911
96	0x3cd71532	0.026255224
97	0x3bc7850e	0.0060888594
98	0x3c63c842	0.013902726
99	0x3cac634e	0.021043446
100	0xbcc3b181	-0.023888351
101	0xbd13e56e	-0.036107473
102	0xbac7f8d7	-0.0015256655
103	0xbc4e4cf3	-0.012591588
104	0x3c6c81da	0.014435256
105	0xbd4016ff	-0.04689693
106	0xbcf5f913	-0.030025994
107	0xbb932efd	-0.0044916854
108	0xbd99c5ce	-0.075084314
109	0xbcc0f84e	-0.0235559
110	0x3c3e409e	0.011612086
111	0xbcc8e0ac	-0.024521194
112	0xbc87c4aa	-0.016573269
113	0xbd70f89f	-0.058830854
114	0x3cbb30ce	0.02285042
115	0xbd2875c5	-0.04112794
116	0x3c0ebc91	0.00871195
117	0xbc1af2e9	-0.009457328
118	0x3b428cd4	0.002968599
119	0xbc7ed2e7	-0.015553213
120	0xbcd35bc8	-0.0258006
121	0xbd1bc888	-0.03803304
122	0x3c92a0a4	0.017898865
123	0xbcb61ab5	-0.022229532
124	0xba6944b0	-0.000889848
125	0xbbccff56	-0.0062560244
126	0xbc3fc907	-0.0117056435
127	0x3c69ea73	0.014277088
128	0x3d0680fa	0.032837845
129	0xbc8ff98f	-0.017575053
130	0xb96d26cc	-0.00022616534
131	0xbc9afc9a	-0.018919278
132	0xbd1328bd	-0.035927523
133	0x3c88c2fe	0.016694542
134	0xbcbb8f6e	-0.022895541
135	0xbd04e536	-0.032445155
136	0xbd1592c2	-0.036516912
137	0x3c2796d3	0.01022883
138	0xbb8a2cec	-0.004216781
139	0xbcc796e9	-0.024363952
140	0xbbc3dae9	-0.005977024
141	0xbcbf545c	-0.023355655
142	0xbb6a6c89	-0.0035770258
143	0xbc0dc947	-0.008653945
144	0xbcb880a7	-0.022522284
145	0xbd3b2456	-0.04568895
146	0xbccdce57	-0.025122805
147	0x3c5d1788	0.01349438
148	0xbba0d224	-0.004907863
149	0xbcfbb8f5	-0.030727843
150	0xbc00e414	-0.007866878
151	0x3cc92a54	0.024556316
152	0xbc1eb04c	-0.009685587
153	0x3d1ba54f	0.037999447
154	0xbd1416ee	-0.03615468
155	0x38328c07	4.2568918e-05
156	0x3c85deea	0.016341645
157	0xbce9205e	-0.028457817
158	0x397683db	0.00023509508
159	0x399a265f	0.00029401758
160	0xbd23be92	-0.039976664
161	0xbd1ac6b1	-0.037787143
162	0x3c9be369	0.019029336
163	0xbd1645f8	-0.03668782
164	0x3bbabe53	0.005698958
165	0xbb8ad3df	-0.004236683
166	0xbbd8f0bf	-0.006620496
167	0xbd1cca84	-0.03827907
168	0xbce2f77a	-0.027705897
169	0xbd8352bf	-0.06412267
170	0xbbfcbd01	-0.0077129607
171	0xbd07046d	-0.032963205
172	0xbd18e68d	-0.037329245
173	0xbd59feb7	-0.05322143
174	0x3b969366	0.004595208
175	0xbbc53577	-0.0060183364
176	0x3c350593	0.011048692
177	0x3cf93c24	0.030424185
178	0xbca562a0	-0.02018863
179	0xbc9e393e	-0.019314405
180	0x3b4c37ae	0.0031161117
181	0x3ceafa7f	0.028683899
182	0xbc162080	-0.009163022
183	0xbd03a654	-0.032141045
184	0x3c9893a8	0.018625095
185	0x3c9fd494	0.019510545
186	0xbc959288	-0.018258348
187	0x3c0e7113	0.008693951
188	0x3d1b3138	0.037888736
189	0xbc7b4006	-0.015335089
190	0x3c4b5d12	0.012412326
191	0xbc48d738	-0.012258343
192	0x3d7984ec	0.06091778
193	0x3c97f23e	0.018548127
194	0xbbb71748	-0.005587492
195	0x3d0048f5	0.031319577
196	0x3bbe9da9	0.0058171344
197	0x3aed6d8a	0.001811431
198	0x3b44eea3	0.0030049465
199	0x3bebe106	0.0071984557
200	0x3ac7d13f	0.0015244855
201	0x3abe1ea1	0.0014504978
202	0xbacb70a1	-0.0015521237
203	0xbc82728b	-0.015923759
204	0xbba78b90	-0.0051130727
205	0xbc2a00c0	-0.010376155
206	0xbb8ecdb1	-0.0043580164
207	0xbc3000e4	-0.0107424
208	0xbbbf5f4a	-0.0058402168
209	0xbb994cec	-0.0046783593
210	0xbbeb22d2	-0.0071757818
211	0xba9817fd	-0.0011603829
212	0xbc9c92b7	-0.019112928
213	0xbbefc06e	-0.0073166406
214	0xbc287a47	-0.010283059
215	0x3c43696e	0.011926992
216	0x3ad9196b	0.0016563361
217	0xbbc75f40	-0.0060843527
218	0x3c4a85d6	0.012361011
219	0xbb156e24	-0.0022801245
220	0x3af539a3	0.0018709194
221	0xbcc6737b	-0.024224987
222	0xbb8e1c49	-0.004336868
223	0x3b9449f2	0.0045254165
224	0xbca4c2a5	-0.020112345
225	0x3a4d60ce	0.00078345544
226	0xbc2352d9	-0.009968483
227	0xbbaaaed7	-0.005208831
228	0xbbfa160d	-0.007632023
229	0xbb020056	-0.0019836626
230	0xbc22f7b8	-0.009946756
231	0x3c43fcc9	0.011962124
232	0xbc216cb5	-0.009852578
233	0x3c3990da	0.011326039
234	0x3c35a2e9	0.011086204
235	0x3b89f843	0.0042105033
236	0x3ca6a9e9	0.020344691
237	0x3cfd5896	0.03092603
238	0xba9afd18	-0.0011824695
239	0xbba3c799	-0.004998159
240	0x3bbe3208	0.005804304
241	0xbc123159	-0.008922898
242	0xbcb7abd9	-0.02242081
243	0xbc336f81	-0.010951878
244	0xbcfc2960	-0.030781448
245	0xbceae762	-0.028674785
246	0xbbe56e99	-0.0070017097
247	0xbc4cd59d	-0.012502101
248	0xbcb7310c	-0.022362255
249	0xbc360da9	-0.011111655
250	0xb9ef56fe	-0.00045650447
251	0xbd142e81	-0.036177162
252	0xbda12735	-0.07868806
253	0xbc27bc0a	-0.010237703
254	0xbd0bcddd	-0.034131873
255	0xbbe3f675	-0.00695687

emb.feature_extractor.4.bias f4 [16]
0	0x361876d9	2.2718943e-06
1	0x378767e3	1.614163e-05
2	0x37064077	8.002032e-06
3	0xb71b43e2	-9.254525e-06
4	0x35faa048	1.86731e-06
5	0x365937d4	3.2368016e-06
6	0x36f15695	7.192439e-06
7	0xb5e8a964	-1.7334646e-06
8	0xb5724c42	-9.0262995e-07
9	0x352ab7ba	6.359729e-07
10	0xb7348cc2	-1.0761609e-05
11	0xb56fe0db	-8.9361646e-07
12	0x36be9660	5.679947e-06
13	0xb726e15a	-9.94684e-06
14	0x353c8261	7.0225184e-07
15	0xb4cc8be0	-3.8099734e-07

emb.feature_extractor.5.weight f4 [16]
0	0x3f03a26d	0.5141972
1	0x3e9b5537	0.3033845
2	0x3e944ee3	0.28966436
3	0x3e9b1ad3	0.30293903
4	0x3e9a00ad	0.3007864
5	0x3ee5bf7d	0.44872656
6	0x3e9744c8	0.29544663
7	0x3ea94601	0.3306122
8	0x3ef15138	0.47132277
9	0x3e9d4ae8	0.3072121
10	0x3f044268	0.5166383
11	0x3ee98a6f	0.4561343
12	0x3ee4116d	0.44544545
13	0x3ee4dfd2	0.4470201
14	0x3e8562a7	0.26051828
15	0x3eea019d	0.45704356

emb.feature_extractor.5.bias f4 [16]
0	0xbd9b6e9e	-0.07589458
1	0xbe465dd3	-0.19371729
2	0xbe432464	-0.1905685
3	0xbe397df5	-0.18114455
4	0xbe3a5e00	-0.1819992
5	0xbca049cf	-0.019566445
6	0xbe6549cd	-0.22391434
7	0xbe97210f	-0.2951741
8	0xbd489fa3	-0.048980366
9	0xbe731e32	-0.23741987
10	0xbd91eb6c	-0.07124981
11	0xbd87fdd0	-0.06640208
12	0xbcd3c81c	-0.025852256
13	0xbd6e9330	-0.058245838
14	0xbe3e63d0	-0.18592763
15	0xbd0ea240	-0.034822702

emb.feature_extractor.5.running_mean f4 [16]
0	0xbf63c43c	-0.88971305
1	0x3f663e8d	0.89939195
2	0x3f6922f8	0.91068983
3	0x3f73e892	0.9527675
4	0x3f8ee1da	1.1162674
5	0xbf8cf7b3	-1.1013092
6	0x3f5ebee6	0.8701004
7	0x3f7cfbdb	0.988218
8	0xbf3898f9	-0.7210842
9	0x3f8662dd	1.0498921
10	0xbf514baa	-0.8175608
11	0xbf780903	-0.9688875
12	0xbf9349e6	-1.1506927
13	0xbf63ee07	-0.89035076
14	0x3f20dad5	0.6283391
15	0xbf9508c3	-1.1643299

emb.feature_extractor.5.running_var f4 [16]
0	0x3deb9436	0.11502878
1	0x3d92a661	0.071606405
2	0x3d869f2b	0.06573328
3	0x3d9f13f0	0.07767475
4	0x3dc83cc3	0.097772144
5	0x3df7a1ca	0.12091406
6	0x3dc846b8	0.097791135
7	0x3e0f038c	0.13966197
8	0x3df4f269	0.119602986
9	0x3df6b579	0.12046332
10	0x3d8e7ad6	0.06957023
11	0x3df473be	0.119361386
12	0x3de817a4	0.11332634
13	0x3db95c1d	0.09050772
14	0x3d3b5f70	0.045745313
15	0x3de676d9	0.11253137

emb.fc.1.weight f4 [100, 192]
0	0x3d8aafc4	0.06771806
1	0x3c124e29	0.008929768
2	0xbbdc5370	-0.0067238137
3	0xbb2e52f0	-0.0026599728
4	0x3b91f0a5	0.004453736
5	0x3b151d47	0.0022753046
6	0xbcb3fb8e	-0.021970537
7	0xbb7e75b8	-0.003882749
8	0x3b836093	0.0040093153
9	0x3ba16de3	0.0049264296
10	0x3b2ccad9	0.0026366024
11	0xba9999c5	-0.00117188
12	0x3b7a3a8b	0.0038181867
13	0x3a96db80	0.0011509508
14	0x3aabbdbd	0.0013102811
15	0x3b4ee38c	0.0031568734
16	0x3c14a288	0.009071954
17	0xba8dfcea	-0.001083282
18	0x3c751116	0.014957687
19	0x3c35a00f	0.011085524
20	0x3b4a067e	0.0030826624
21	0x3c1cc1dc	0.009567704
22	0xbb8c62a6	-0.0042842207
23	0xbbdaebfc	-0.0066809636
24	0xbbada6cc	-0.0052994248
25	0x3b99ea9f	0.0046971585
26	0x3b097333	0.0020973205
27	0xbb8f8822	-0.004380242
28	0x3bba19e9	0.0056793583
29	0x3b7b683b	0.0038361687
30	0x3b94f90c	0.0045462903
31	0x3ba61a76	0.0050690724
32	0xbc030ab3	-0.007998156
33	0x3b50069f	0.0031742228
34	0xba83195c	-0.0010002065
35	0xb9e84191	-0.0004429934
36	0x3b959207	0.004564527
37	0xbb674375	-0.003528801
38	0x3a88e009	0.0010442744
39	0x3abfc866	0.0014631867
40	0xbc0f5035	-0.00874715
41	0xbb785f31	-0.0037898535
42	0x3bf2105a	0.007387203
43	0xbb286ef1	-0.0025700892
44	0x3b1bd9a0	0.0023780838
45	0x3b9fdc54	0.00487856
46	0xbb8a3e63	-0.004218863
47	0xbb94b9ef	-0.0045387666
48	0xbad3b705	-0.0016152567
49	0xbb530490	-0.0032198764
50	0x3ba6a987	0.005086127
51	0x3946069d	0.00018885215
52	0xb957223e	-0.00020516754
53	0x3b69905f	0.003563903
54	0x3bcc727c	0.0062392335
55	0xbb021379	-0.0019848032
56	0xbb6f9fb4	-0.0036563696
57	0xbb4c1677	-0.003114132
58	0x3befb97a	0.0073158117
59	0xba83c6c8	-0.0010053748
60	0xbc01d9b1	-0.007925437
61	0x3be49336	0.0069755567
62	0xbc710da7	-0.014712728
63	0x3c7d128c	0.015446316
64	0x3ad9579c	0.0016581896
65	0xbd21790c	-0.03942208
66	0x3b3194e6	0.0027096807
67	0x3c239679	0.009984606
68	0x3c47dd92	0.012198823
69	0x3c7f4bb6	0.015582016
70	0x3be8fc1b	0.0071101314
71	0x3ceb09d1	0.028691204
72	0x3abcb14b	0.0014396099
73	0x3b553f08	0.003253879
74	0x3b4daebc	0.0031384667
75	0x3c41af9c	0.011821654
76	0xbbdb2ae0	-0.0066884607
77	0xbaab617f	-0.0013075321
78	0x3ba3b4b6	0.0049959077
79	0x3b32c59b	0.0027278427
80	0x3be656cf	0.0070293914
81	0x3b96b2a7	0.0045989337
82	0xbbaed366	-0.0053352593
83	0x3ac1b570	0.0014778804
84	0xbabf0fd3	-0.001457686
85	0x3c2e1fde	0.010627715
86	0x3b8a9ac3	0.004229875
87	0xbba86e4e	-0.0051401025
88	0x3a46a73a	0.0007578019
89	0x3bf6984f	0.007525481
90	0xbacf0b80	-0.0015796274
91	0xba5cc278	-0.0008421312
92	0xbb240887	-0.0025029497
93	0xbb0aec7a	-0.002119808
94	0xbb2c0d65	-0.00262531
95	0xbc4a1a5b	-0.012335385
96	0x3c257a7f	0.010100006
97	0xb967f87a	-0.00022122441
98	0x3b5f521e	0.0034076045
99	0xbaa19b6b	-0.0012329643
100	0x3a35614f	0.0006919102
101	0x3c5a4595	0.013322254
102	0x3d132766	0.035926245
103	0xbb61250a	-0.0034354352
104	0x3bb0e994	0.0053989384
105	0x3b675ab6	0.003530187
106	0x3c015af5	0.007895221
107	0x3ba257f6	0.0049543334
108	0x3b7e9ac1	0.0038849565
109	0x3b828d9e	0.0039841672
110	0xbbd5539c	-0.006510211
111	0x3b92e034	0.0044822935
112	0xbbe9d23d	-0.007135658
113	0xbb9f9b2f	-0.0048707942
114	0x3b8d878a	0.004319136
115	0x3c85a10e	0.016312148
116	0xbb9a9441	-0.0047173803
117	0x3b2196c7	0.002465652
118	0xbc9968fa	-0.018726815
119	0xbc18b81b	-0.009321238
120	0x3b531519	0.003220862
121	0x3b929e54	0.0044744406
122	0xbb17b7c9	-0.0023150316
123	0x3b970333	0.0046085357
124	0x3b901b5a	0.004397792
125	0xbccb3c07	-0.024808897
126	0x3bd9116b	0.006624391
127	0x3ae6aaf6	0.0017598558
128	0x3b7132b3	0.00368039
129	0x3ae3b3f7	0.0017372359
130	0x3c547796	0.012967965
131	0x3d9a19ba	0.07524438
132	0x3b78cb7b	0.003796308
133	0xb990f82a	-0.00027650717
134	0xbbbbce9d	-0.0057314173
135	0x3bd99e84	0.006641211
136	0x3bb60130	0.005554341
137	0x3b17c99e	0.0023160945
138	0x3c3b633e	0.011437235
139	0xbc0ec31f	-0.008713513
140	0x3bf61893	0.0075102537
141	0x3bc1efad	0.005918464
142	0x3c93416d	0.017975533
143	0x3c1f8a1c	0.009737518
144	0x3d0b53a1	0.0340153
145	0x3c13b5da	0.009015525
146	0x3b31c183	0.0027123399
147	0x3b041a35	0.0020157222
148	0x3bd13c92	0.0063853944
149	0xba865f4d	-0.001025179
150	0x3d6f5498	0.058430284
151	0x39b61755	0.0003473113
152	0xbb1ff870	-0.0024409555
153	0xbbac8a27	-0.0052654925
154	0x3a775671	0.0009435183
155	0x3c1f6e8a	0.009730944
156	0xb9a599cd	-0.00031585843
157	0xbc39c637	-0.011338762
158	0xbbbc3bd3	-0.0057444363
159	0x3bbd232b	0.0057720146
160	0x3c280a07	0.010256297
161	0x3c7f5a3d	0.015585479
162	0xbbe7f1c6	-0.007078382
163	0x3a501ee9	0.0007939176
164	0x3a597cba	0.0008296479
165	0x3c17551a	0.009236598
166	0x3c6e7b96	0.014555832
167	0xbc32ce89	-0.0109135
168	0xbb5879b8	-0.0033031534
169	0x3b893cf4	0.0041881744
170	0xbae615b3	-0.0017554074
171	0x3b882511	0.0041548093
172	0xbb7c76c4	-0.0038522938
173	0xbb89cae7	-0.004205096
174	0x3c838331	0.016053768
175	0x3c573596	0.0131353345
176	0x3bab40b5	0.0052262195
177	0xbaedf842	-0.0018155652
178	0x39be57ed	0.00036305134
179	0xba866d23	-0.0010255914
180	0x3c0d7f33	0.008636284
181	0x3a92fef1	0.0011214894
182	0xbc3c9ae1	-0.011511535
183	0xbc086483	-0.008324745
184	0xbb4981cc	-0.003074753
185	0xbc494117	-0.012283585
186	0x3b7639de	0.0037571113
187	0xba33e763	-0.00068627874
188	0x3c205358	0.009785496
189	0x3c20dca1	0.009818227
190	0xbbb29f43	-0.0054511144
191	0xbc843b23	-0.01614148
192	0x3d779f53	0.060454678
193	0x3b8b9759	0.0042599854
194	0xbb510a55	-0.0031897028
195	0xbc55573b	-0.013021286
196	0x3c25d221	0.010120899
197	0xbb90a481	-0.0044141416
198	0x3ba4c1db	0.005027992
199	0xbbdfe435	-0.0068326243
200	0x3adbe2ec	0.0016776002
201	0xbb957ad2	-0.0045617605
202	0xbb0f4f24	-0.002186724
203	0x3ba2e43d	0.004971056
204	0xbbd5d6eb	-0.0065258644
205	0xbc7ac761	-0.015306325
206	0xbb8486c2	-0.0040443847
207	0x3b92d645	0.0044811093
208	0xbb206af7	-0.0024477819
209	0xbb31b045	-0.0027113121
210	0x3b8b1660	0.0042446107
211	0x3ba0417c	0.004890619
212	0xbbed75a0	-0.007246688
213	0xbc625f42	-0.013816657
214	0xbc017284	-0.007900838
215	0xbb973889	-0.004614894
216	0xba971035	-0.0011525216
217	0xbb6d562d	-0.0036214695
218	0x3bdef327	0.0068038884
219	0x3c0ef946	0.008726424
220	0xbc7474cf	-0.014920427
221	0xbbe482fa	-0.0069736214
222	0xbab4d777	-0.0013797124
223	0xbc5b4bb9	-0.013384753
224	0xbc125313	-0.008930939
225	0x3bc2949c	0.005938126
226	0xbc470c1c	-0.012148883
227	0xbc6f7333	-0.014614868
228	0xbc40828b	-0.011749874
229	0x3b6c9cd4	0.003610422
230	0x3ac1cb7b	0.0014785373
231	0xbad147e5	-0.0015966861
232	0xbbd613ed	-0.006533137
233	0xb902e896	-0.00012484411
234	0x3bace90d	0.0052768053
235	0x3c8219c5	0.015881428
236	0xbbfa9cfb	-0.007648108
237	0xbc88dd41	-0.016707065
238	0xbb815ca3	-0.0039478107
239	0xbc8b8ca6	-0.01703484
240	0xbc0311ea	-0.0079998765
241	0x3adbc959	0.001676838
242	0xbad22ac6	-0.0016034476
243	0x3b76794f	0.0037608927
244	0xbbfcc9cf	-0.007714487
245	0xbaf15785	-0.0018412924
246	0xbc19aa2b	-0.00937895
247	0x3b7c7009	0.0038518927
248	0xba634c8e	-0.00086707703
249	0xb8d23311	-0.00010023092
250	0x39ccf796	0.00039094378
251	0x3ba0eb36	0.004910852
252	0x3c41fcaf	0.01184003
253	0xbc0db969	-0.008650162
254	0x3b05211e	0.0020313929
255	0x3c0f6b51	0.008753614

emb.fc.1.bias f4 [100]
0	0x80000384	-1.261e-42
1	0x000008fc	3.223e-42
2	0x000004c7	1.714e-42
3	0x80001871	-8.768e-42
4	0x800004ef	-1.77e-42
5	0x0000057c	1.967e-42
6	0x000005ab	2.033e-42
7	0x000006b6	2.407e-42
8	0x000000b5	2.54e-43
9	0x800002c0	-9.87e-43
10	0xb12f0482	-2.5468414e-09
11	0x800002db	-1.024e-42
12	0x800000bd	-2.65e-43
13	0x800000c6	-2.77e-43
14	0x8000025e	-8.49e-43
15	0x000008fd	3.224e-42
16	0x80000158	-4.82e-43
17	0x00000242	8.1e-43
18	0x0000029f	9.4e-43
19	0x000000fd	3.55e-43
20	0x00000732	2.581e-42
21	0x000000c9	2.82e-43
22	0x80000695	-2.361e-42
23	0x1923da20	8.4709525e-24
24	0x0000095d	3.359e-42
25	0x000000e8	3.25e-43
26	0x000000a5	2.31e-43
27	0x80000534	-1.867e-42
28	0x800016d1	-8.185e-42
29	0x000001fa	7.09e-43
30	0x80000812	-2.895e-42
31	0x800006b0	-2.399e-42
32	0x800001c7	-6.38e-43
33	0x363cf25e	2.815526e-06
34	0x0000031d	1.117e-42
35	0x8000054c	-1.9e-42
36	0x800001d1	-6.52e-43
37	0x00000072	1.6e-43
38	0x00000489	1.627e-42
39	0x00000480	1.614e-42
40	0x00000c2f	4.37e-42
41	0x0000001a	3.6e-44
42	0x0000056b	1.944e-42
43	0x00000099	2.14e-43
44	0x000000f9	3.49e-43
45	0x0000022d	7.8e-43
46	0x80000d33	-4.735e-42
47	0x00000b0d	3.964e-42
48	0x000002da	1.023e-42
49	0x0000022e	7.82e-43
50	0x80000abd	-3.852e-42
51	0x800002d3	-1.013e-42
52	0x000000f2	3.39e-43
53	0x00000250	8.3e-43
54	0x0000003d	8.5e-44
55	0x80000478	-1.603e-42
56	0x80000425	-1.487e-42
57	0x000009d7	3.53e-42
58	0x80000102	-3.62e-43
59	0x0000042a	1.494e-42
60	0x0000035c	1.205e-42
61	0x0000094d	3.336e-42
62	0x8000015c	-4.88e-43
63	0x000000fc	3.53e-43
64	0x0000028e	9.16e-43
65	0x80000446	-1.533e-42
66	0x80000358	-1.2e-42
67	0x000014cc	7.46e-42
68	0x2b3b7b09	6.660649e-13
69	0x000006ba	2.413e-42
70	0x80000c3b	-4.387e-42
71	0x800006d5	-2.451e-42
72	0x800010cd	-6.027e-42
73	0x00000463	1.574e-42
74	0x0000052e	1.858e-42
75	0x00000141	4.5e-43
76	0x80000474	-1.597e-42
77	0x00000720	2.556e-42
78	0x00000969	3.376e-42
79	0x000000b6	2.55e-43
80	0x000004a4	1.665e-42
81	0x00000212	7.43e-43
82	0x000003be	1.342e-42
83	0x00000695	2.361e-42
84	0x000006f6	2.497e-42
85	0x8000032b	-1.136e-42
86	0x00000558	1.917e-42
87	0x80000738	-2.59e-42
88	0x00000346	1.174e-42
89	0x80000420	-1.48e-42
90	0x80000439	-1.515e-42
91	0x000000cc	2.86e-43
92	0x800009fe	-3.585e-42
93	0x000004dc	1.743e-42
94	0x000002e5	1.038e-42
95	0x800001ee	-6.92e-43
96	0x80000366	-1.219e-42
97	0x80000359	-1.201e-42
98	0x80000554	-1.911e-42
99	0xb16f7d84	-3.4850425e-09

clf.1.weight f4 [1, 100]
0	0x3e04ef70	0.12981963
1	0x3e01d057	0.12677132
2	0xbe4021f0	-0.18762946
3	0xbe3ccb9c	-0.18437046
4	0x3e0223f7	0.12709032
5	0x3e0601a5	0.13086565
6	0x3e03b387	0.12861453
7	0xbe4108ae	-0.18850967
8	0xbe46c636	-0.19411549
9	0x3e041c90	0.1290152
10	0xbe35afbd	-0.1774282
11	0x3e0054e1	0.12532379
12	0x3e062f64	0.13104016
13	0x3e04bd5f	0.12962864
14	0xbe40561b	-0.18782847
15	0xbe39b484	-0.18135267
16	0x3e110b9f	0.1416459
17	0xbe33c94d	-0.17557259
18	0x3dfd5656	0.12369983
19	0xbe421121	-0.18951847
20	0x3e08b972	0.13351992
21	0x3e09e31f	0.13465546
22	0x3e03d542	0.1287432
23	0xbe3b280c	-0.18276995
24	0x3e0c5a68	0.13706362
25	0xbe3bcb86	-0.18339357
26	0x3df077f6	0.11741631
27	0x3e0248f8	0.12723148
28	0x3dfe892f	0.124285094
29	0x3e032af9	0.12809362
30	0x3e028f28	0.12749922
31	0x3e0d82d2	0.13819435
32	0xbe2f2407	-0.17103587
33	0x3dfac07a	0.12243743
34	0xbe47ae60	-0.19500113
35	0x3e007b46	0.12547025
36	0x3dfed2d0	0.12442553
37	0x3e03fc2e	0.12889168
38	0x3e071c1e	0.1319432
39	0x3e061892	0.1309531
40	0xbe471f38	-0.19445503
41	0x3dfbbbef	0.12291705
42	0x3dfea569	0.12433893
43	0x3df80313	0.12109961
44	0x3e077f94	0.13232261
45	0x3e0630cb	0.1310455
46	0xbe46a6d2	-0.19399574
47	0x3de93828	0.11387664
48	0x3e049d1f	0.12950562
49	0xbe2e99f8	-0.17050922
50	0x3df737c8	0.12071186
51	0x3dfb0be5	0.12258128
52	0xbe3dead8	-0.18546617
53	0xbe349a0d	-0.1763689
54	0xbe41006c	-0.18847817
55	0x3e0bf707	0.13668452
56	0x3e0115dd	0.12605996
57	0x3de2e3c1	0.11078597
58	0x3df939e2	0.121692434
59	0xbe478533	-0.19484405
60	0xbe2edcc3	-0.17076401
61	0x3dfa50ba	0.122224286
62	0x3de4457f	0.11146068
63	0xbe4ff075	-0.20306571
64	0xbe2f5b87	-0.17124759
65	0xbe411935	-0.18857272
66	0x3e0fb672	0.14034441
67	0xbe331c4a	-0.1749126
68	0x3dfd5ddb	0.12371417
69	0xbe4a30ee	-0.19745228
70	0x3e04c468	0.12965548
71	0x3e01c37b	0.12672226
72	0x3e03fe8b	0.12890069
73	0x3e04ef6f	0.12981962
74	0xbe4dae63	-0.20086055
75	0x3e08ca69	0.13358463
76	0xbe337446	-0.17524824
77	0xbe4dae4e	-0.20086023
78	0x3dfd0cde	0.1235597
79	0x3e068720	0.13137484
80	0x3e00ebc6	0.1258994
81	0x3dfe3372	0.12412156
82	0x3dfbe9ec	0.123004764
83	0x3e03668e	0.1283209
84	0xbe408da9	-0.18804039
85	0xbe3e41ff	-0.18579863
86	0x3de4d971	0.11174286
87	0xbe4565a6	-0.19277057
88	0x3df4dc2f	0.11956059
89	0x3df63371	0.120215304
90	0x3dfb08b9	0.12257523
91	0xbe45ac76	-0.1930407
92	0x3df4ec38	0.11959118
93	0x3e055631	0.1302116
94	0x3e0e35c3	0.13887696
95	0x3e0215e8	0.12703669
96	0xbe4888b6	-0.19583401
97	0x3dfb0cd2	0.12258305
98	0x3dfd005b	0.123535834
99	0x3dfd46ac	0.12366995

exp_avg f4 [2, 1, 2, 1]
0	0xbe05d14c	-0.13068122
1	0x3e70a510	0.23500466
2	0xbdd0c996	-0.101946995
3	0xbea62f8f	-0.3245816

exp_avg_sq f4 [2, 1, 2, 1]
0	0x3f003e79	0.50095326
1	0x3eeaa49c	0.45828712
2	0x3f12f5a9	0.574061
3	0x3f1d000d	0.613282

exp_avg f4 [2]
0	0x3e0a2a4b	0.13492696
1	0xbe06ba05	-0.13156898

exp_avg_sq f4 [2]
0	0x3d93da9b	0.0721943
1	0x3d937df0	0.07201755

exp_avg f4 [16, 1, 1, 50]
0	0xbb2a3f5c	-0.0025977707
1	0x397d953f	0.00024183559
2	0xba56ab31	-0.00081889617
3	0x3af7f9cf	0.0018919053
4	0xb9610513	-0.00021459562
5	0xba5317c4	-0.00080525526
6	0xb9d4c6b4	-0.00040583836
7	0xba570878	-0.0008202861
8	0xbb0f971d	-0.002191014
9	0xbae4b2dd	-0.0017448325
10	0xbac329f2	-0.001488982
11	0xbaa3f3ee	-0.001250861
12	0xbb919dee	-0.0044438755
13	0xbb2548a7	-0.0025220306
14	0x3b3666dd	0.0027832307
15	0xbb38c10f	-0.0028191244
16	0x3b9a15fa	0.004702327
17	0x3b229c85	0.0024812531
18	0xb94ff9d4	-0.00019834127
19	0x3b207048	0.0024480987
20	0x3a059c3d	0.00050968287
21	0x3b6359be	0.0034690942
22	0x3a5b639a	0.0008369029
23	0xbadcf9f2	-0.0016859157
24	0x3b1ed3a3	0.0024235032
25	0x3b4a50fc	0.0030871024
26	0x39ab5097	0.00032675706
27	0xba6ca9bc	-0.0009027978
28	0xbaf58b5b	-0.0018733548
29	0x3b21e146	0.0024700924
30	0x3b88c868	0.004174281
31	0xba2e008a	-0.00066376536
32	0x39836136	0.00025058695
33	0xbb0ecb07	-0.0021788494
34	0xbb025863	-0.0019889108
35	0x3b922da6	0.004461008
36	0x3b1ef50b	0.0024254944
37	0x3b8e4c71	0.0043426086
38	0x3b8fb310	0.0043853596
39	0x3b49b59e	0.0030778418
40	0xbae93fbb	-0.0017795482
41	0x3af99b2c	0.0019043437
42	0x3b8e2a36	0.004338528
43	0x3b43f2a5	0.0029899266
44	0x3a7462a6	0.0009322561
45	0x3b7b5bf0	0.003835436
46	0x3ba870f7	0.0051404196
47	0x3b7c053c	0.0038455268
48	0xba4570c2	-0.0007531756
49	0x3bd0a99a	0.0063678743
50	0x3ae8c795	0.0017759675
51	0xbb6a3c2f	-0.0035741439
52	0xbb10d291	-0.0022098164
53	0xbb4782db	-0.0030442986
54	0xba37a7f2	-0.0007005922
55	0xb9c1c215	-0.0003695643
56	0xbb1abfcf	-0.0023612862
57	0xb97f19f9	-0.0002432837
58	0xba5125b2	-0.00079783343
59	0x3ab2d4a8	0.0013643699
60	0x3bb0261c	0.0053756367
61	0x3b92b55f	0.0044771875
62	0x3b9581da	0.0045625987
63	0xbb1527bf	-0.0022759286
64	0x3b8f5636	0.004374291
65	0xb9541f2b	-0.00020229506
66	0x3b41f9e9	0.002959842
67	0x3a8baee1	0.0010656976
68	0xbab74e72	-0.001398517
69	0x3acffda8	0.0015868442
70	0x3ba4c95b	0.0050288863
71	0x3a6a3579	0.00089343596
72	0x3a19cd90	0.0005867118
73	0x3bcfee34	0.0063455347
74	0xbb931042	-0.004488022
75	0x3ba3f92e	0.00500407
76	0x3b58d486	0.0033085658
77	0x3b85ba74	0.004081065
78	0x3b4f6ca4	0.0031650448
79	0x3b6d62b8	0.003622217
80	0x3a379895	0.00070036325
81	0x3b05c77e	0.0020413096
82	0xbb24f340	-0.0025169402
83	0xbac05662	-0.0014674182
84	0x3b90b9df	0.004416689
85	0xbb584329	-0.0032999015
86	0x3a187c58	0.00058168685
87	0x3b7d2369	0.0038625842
88	0x394f9628	0.00019796996
89	0x3b485805	0.0030570042
90	0x39f439be	0.00046582328
91	0xbb8cbe85	-0.0042951726
92	0xbb77b296	-0.0037795654
93	0x39a9b8e7	0.00032371955
94	0xbaff26d7	-0.0019466531
95	0xbba0e5fd	-0.0049102292
96	0xba2ef4d0	-0.0006674053
97	0x3b39d99b	0.0028358463
98	0xba0acd93	-0.0005294915
99	0xbae42228	-0.0017405199
100	0xbcc2434b	-0.023713728
101	0x3d0230b5	0.031784732
102	0x39815f03	0.00024675587
103	0x3bbe48c4	0.005807014
104	0x3d31adc7	0.043378618
105	0x3cad3178	0.021141753
106	0x3cfc960b	0.030833265
107	0xbd02fc3b	-0.031978827
108	0x3cece959	0.028919863
109	0x3d7cb5e1	0.06169689
110	0x3d3b4834	0.045723155
111	0x3c69b755	0.014264901
112	0x3d229047	0.039688375
113	0xbc840209	-0.016114252
114	0x3ca1ef48	0.019767419
115	0xbcaedeca	-0.021346468
116	0x3cf10dff	0.02942562
117	0x3dba5869	0.09098894
118	0x3ccea809	0.02522661
119	0x3d80d6cb	0.062909685
120	0x3d718928	0.058968693
121	0x3d59d881	0.05318499
122	0x3d0490d0	0.032364666
123	0x3d105bc3	0.03524376
124	0x3c87d1e9	0.016579585
125	0x3d14ca0a	0.036325492
126	0xbd0200bc	-0.03173898
127	0x3da6b764	0.08140448
128	0xbc9774ae	-0.018488254
129	0x3da6ce1d	0.08144782
130	0x3c887c6f	0.016660897
131	0x3d9d3ee0	0.07678008
132	0x3d6f9ded	0.05850022
133	0x3d384931	0.044991676
134	0x3cd3e5ed	0.025866473
135	0xbcc728d3	-0.024311459
136	0xbb8de1a9	-0.0043298793
137	0x3c312173	0.010811198
138	0xbb968aee	-0.0045941984
139	0x3b0b9201	0.0021296742
140	0xbd111d64	-0.03542842
141	0xbcb9daec	-0.022687398
142	0x3d7a81d9	0.06115899
143	0xbcc599dd	-0.02412122
144	0x3d009d13	0.031399798
145	0x3d7de291	0.06198365
146	0x3cedc906	0.02902652
147	0x3d74fdd1	0.05981237
148	0xbc7f56d3	-0.015584665
149	0xbcbd0ebe	-0.023078319
150	0xba85e583	-0.0010215495
151	0xbc14e9db	-0.009088959
152	0x3b993714	0.0046757553
153	0xbc1c2f0c	-0.009532701
154	0x3c578e41	0.013156475
155	0x3cb700eb	0.022339305
156	0x3ccf9248	0.025338307
157	0x3d0437c5	0.03227975
158	0xbc6550ad	-0.013996285
159	0x3b7db40b	0.003871205
160	0x3c6d6e20	0.014491588
161	0x3c69bfd7	0.01426693
162	0x3b8ca1c0	0.004291743
163	0x3d04e00d	0.032440234
164	0x3ca77a3d	0.02044403
165	0x3bda28c7	0.006657693
166	0x3c7aff31	0.015319631
167	0x3ce1d820	0.027568877
168	0x3be2a09f	0.00691612
169	0xbb8a9383	-0.0042290105
170	0x3c31d27d	0.010853407
171	0xbc0d3f28	-0.008621015
172	0x3cc89982	0.02448726
173	0x3be1a3af	0.0068859677
174	0x3cdc066b	0.02685853
175	0x3d170837	0.03687307
176	0x3ceef528	0.029169634
177	0x3cb8ce48	0.0225593
178	0x3bbf2b30	0.005834006
179	0x3cdef9ed	0.027218783
180	0x3c9d40c7	0.019195927
181	0x3d0c1c41	0.034206633
182	0x3d0e9a92	0.03481538
183	0x3caea050	0.021316677
184	0x3cad9360	0.021188438
185	0x3cae1b0d	0.021253133
186	0x3cae5daa	0.021284897
187	0x3cf323df	0.02968019
188	0xbb1206b1	-0.002228182
189	0x3ce5377b	0.027980557
190	0x3ce6d2a5	0.028176615
191	0x3c0c341f	0.0085573485
192	0xbba103f2	-0.0049138004
193	0x3bf60e66	0.0075090406
194	0xbb0678f7	-0.0020518878
195	0x3cb9503a	0.022621263
196	0x3b71f4fd	0.0036919706
197	0xbc6ad35c	-0.014332619
198	0x3c59a570	0.013284072
199	0x3bd75832	0.006571793
200	0xbab65044	-0.0013909419
201	0x3b8f0994	0.0043651555
202	0xbc01d892	-0.00792517
203	0x3a713b94	0.0009202298
204	0xbb479e58	-0.003045937
205	0x3b58fcfa	0.003310977
206	0x3b909a0b	0.0044128946
207	0x3b4ce32a	0.003126333
208	0xbbb26581	-0.005444229
209	0xba10403d	-0.00055027363
210	0xba9e2666	-0.0012065887
211	0x3a5eb6dd	0.00084958767
212	0x3ba271af	0.0049574
213	0xbadb2d12	-0.0016721806
214	0x3b45faf9	0.0030209406
215	0x3c3e060d	0.011598122
216	0xbb36da89	-0.0027901253
217	0x3c349403	0.011021617
218	0xbacaf8aa	-0.0015485485
219	0xbb84b29e	-0.004049613
220	0x3b50a2a9	0.0031835234
221	0x3bd81927	0.0065947953
222	0x3b978053	0.0046234517
223	0xbc1c91f4	-0.009556282
224	0xbb74679a	-0.0037293197
225	0xb9ab5641	-0.00032679926
226	0xbb74cd4d	-0.0037353814
227	0xbb373727	-0.0027956457
228	0x3b2515c6	0.002518998
229	0xbb21de80	-0.002469927
230	0x3ae5186c	0.0017478592
231	0x3b33472d	0.0027355656
232	0xbbad87cc	-0.0052957293
233	0xb9145f68	-0.00014149921
234	0x3ac8f8a9	0.0015332896
235	0xbc28e7b8	-0.010309152
236	0x3bc637c3	0.006049128
237	0xb8c010cf	-9.158404e-05
238	0x3b8b418d	0.0042497576
239	0xbaad7d38	-0.0013236171
240	0xbb6a432a	-0.00357456
241	0x39e09bbb	0.00042840638
242	0x3b7547a5	0.0037426737
243	0x3a462b18	0.0007559522
244	0xbb0da88a	-0.002161535
245	0xb7e1f86a	-2.6937767e-05
246	0xba9a2888	-0.0011761347
247	0xbb9bc96d	-0.0047542364
248	0x3b661078	0.003510503
249	0x3bcd00f4	0.006256217
250	0x3c71f043	0.0147667555
251	0x3aa7cc6f	0.0012802015
252	0x3c4a3ec3	0.012344065
253	0xbc1e6492	-0.0096675325
254	0xbc9a334e	-0.018823292
255	0x3c0f6b36	0.008753588

exp_avg_sq f4 [16, 1, 1, 50]
0	0x396907e1	0.00022223547
1	0x396bb21e	0.000224777
2	0x394dfb07	0.00019643838
3	0x3985780d	0.00025457182
4	0x395a1a08	0.00020799797
5	0x396de790	0.00022688345
6	0x394f5238	0.00019771687
7	0x3972d385	0.00023157716
8	0x3969e76e	0.00022306826
9	0x392e9d3d	0.00016652509
10	0x39495e91	0.00019204082
11	0x394fe37e	0.00019825806
12	0x3940d6ad	0.0001839052
13	0x394fc170	0.0001981312
14	0x39777c63	0.00023602093
15	0x397c3a39	0.00024054282
16	0x399540cc	0.00028467772
17	0x3981e2cc	0.00024773774
18	0x396306f5	0.00021650999
19	0x392fb88f	0.00016758054
20	0x393ce766	0.0001801528
21	0x39378a17	0.00017503682
22	0x3936a45e	0.00017418104
23	0x392f66b9	0.00016727568
24	0x393413f2	0.00017173568
25	0x395a482b	0.00020816985
26	0x3966a192	0.00021994699
27	0x397ee93b	0.00024310213
28	0x39878fab	0.00025856248
29	0x3980d3ca	0.00024571858
30	0x395643f4	0.00020433945
31	0x39813630	0.0002464517
32	0x395c0b82	0.00020985122
33	0x3959da1c	0.00020775985
34	0x39580a32	0.00020603163
35	0x3985afa0	0.00025498588
36	0x3963dda8	0.0002173098
37	0x3984b79b	0.000253138
38	0x395c15d4	0.00020988967
39	0x398905ae	0.00026134908
40	0x3949b862	0.00019237542
41	0x3987165d	0.00025765868
42	0x396c363b	0.00022526916
43	0x395631f6	0.00020427242
44	0x395135c9	0.0001995183
45	0x395abb70	0.00020859926
46	0x39653eaf	0.00021862493
47	0x3953ac0d	0.00020186622
48	0x3974d0ee	0.00023347486
49	0x397804fd	0.00023652981
50	0x398c3cd5	0.00026748204
51	0x3982c9c8	0.0002494587
52	0x39740668	0.0002327204
53	0x3980b21f	0.00024546773
54	0x397ceb48	0.00024120242
55	0x395fa559	0.00021328534
56	0x397e3194	0.00024241797
57	0x398604fa	0.0002556218
58	0x397872d9	0.00023693907
59	0x39931960	0.0002805693
60	0x3993f936	0.00028223702
61	0x398dd135	0.00027049487
62	0x39a5aeda	0.00031601527
63	0x39837c3b	0.00025078826
64	0x39acf620	0.00032989774
65	0x39983f57	0.0002903889
66	0x3994fcae	0.0002841702
67	0x39b1891f	0.00033862234
68	0x39ac5700	0.00032871217
69	0x39a5c4c3	0.0003161785
70	0x39955d4b	0.00028489003
71	0x39940b57	0.0002823721
72	0x3986123d	0.0002557206
73	0x39a26b53	0.0003097901
74	0x39b66413	0.00034788306
75	0x39aa0968	0.00032431935
76	0x399ae133	0.00029540955
77	0x39aec3bd	0.00033333703
78	0x397f55d1	0.00024350664
79	0x39806bd0	0.0002449439
80	0x398dd8d9	0.0002705518
81	0x39a723ac	0.000318793
82	0x39a24137	0.00030947637
83	0x399274c2	0.0002793428
84	0x399f6a8c	0.00030406227
85	0x398bc4fc	0.0002665891
86	0x39a064a2	0.00030592555
87	0x39a3c105	0.00031233593
88	0x399dbb7b	0.00030085057
89	0x39a46270	0.0003135386
90	0x39b3bcd5	0.0003428223
91	0x399d645f	0.00030020156
92	0x39950cb3	0.00028428956
93	0x399495c1	0.00028340335
94	0x398fbbb8	0.00027414947
95	0x397a3787	0.00023862543
96	0x398119f8	0.00024624146
97	0x3993cc75	0.00028190357
98	0x39992a94	0.00029214157
99	0x39909ce9	0.00027582727
100	0x3c92bab6	0.017911296
101	0x3c88786a	0.01665898
102	0x3c8c43e0	0.01712221
103	0x3c965034	0.01834879
104	0x3cafe64b	0.021472117
105	0x3c9ee958	0.019398376
106	0x3c9c291d	0.019062573
107	0x3c866f92	0.016410623
108	0x3c8a11ca	0.016854186
109	0x3c919b4a	0.017774243
110	0x3c927421	0.01787764
111	0x3c983f4a	0.018584866
112	0x3c84ca67	0.016209794
113	0x3c834d7a	0.016028155
114	0x3ca2d012	0.019874606
115	0x3cbb85c8	0.02289094
116	0x3c9fb372	0.019494746
117	0x3ca87ec4	0.020568259
118	0x3c9f40e3	0.01944012
119	0x3c95190a	0.018200416
120	0x3c9a832c	0.018861376
121	0x3c987f8d	0.018615508
122	0x3c87219e	0.016495522
123	0x3cac2bf9	0.021017062
124	0x3c99380a	0.01870348
125	0x3c999688	0.018748537
126	0x3c931dbe	0.017958518
127	0x3ca5c4e4	0.020235486
128	0x3c9d98bf	0.019237874
129	0x3c8e7aed	0.0173926
130	0x3c90de1e	0.017684039
131	0x3ca4cdc5	0.02011765
132	0x3c96fa41	0.018429877
133	0x3ca04166	0.019562434
134	0x3c935515	0.017984906
135	0x3c8b83d1	0.017030628
136	0x3c94130f	0.018075494
137	0x3c9f09af	0.019413797
138	0x3c97b602	0.018519405
139	0x3c9b295c	0.01894062
140	0x3c933561	0.017969789
141	0x3ca5f5b0	0.020258754
142	0x3c8fd2de	0.017556604
143	0x3cada48e	0.02119663
144	0x3c9517a5	0.018199751
145	0x3c84d352	0.016214047
146	0x3c8faaa3	0.01753742
147	0x3c8d1429	0.017221527
148	0x3ca190bf	0.01972234
149	0x3c93a376	0.01802228
150	0x3b5d70db	0.003378919
151	0x3b44176b	0.0029921185
152	0x3b52f076	0.0032186783
153	0x3b68be47	0.0035513805
154	0x3b406cef	0.0029361804
155	0x3b4d322d	0.0031310425
156	0x3b5caf9f	0.0033674014
157	0x3b66a6f6	0.0035194731
158	0x3b5c62fe	0.003362834
159	0x3b42d2db	0.002972773
160	0x3b45ef3a	0.0030202405
161	0x3b42257e	0.0029624398
162	0x3b460323	0.0030214272
163	0x3b48e0a0	0.0030651465
164	0x3b6b511e	0.0035906504
165	0x3b60a3fa	0.0034277425
166	0x3b76b9ec	0.003764744
167	0x3b743d1f	0.0037267876
168	0x3b708670	0.0036701225
169	0x3b3a3f9f	0.0028419269
170	0x3b470d56	0.003037294
171	0x3b4802a4	0.0030519152
172	0x3b4c8ef7	0.0031213143
173	0x3b47d066	0.0030489205
174	0x3b5ac394	0.0033380734
175	0x3b38b6cb	0.0028185125
176	0x3b3f299d	0.002916909
177	0x3b11b35e	0.0022232155
178	0x3b09ae76	0.0021008528
179	0x3b21a632	0.002466571
180	0x3b4cb4b2	0.0031235632
181	0x3b429932	0.0029693362
182	0x3b3c51a6	0.002873519
183	0x3b2cc60b	0.002636316
184	0x3b18ab51	0.0023295472
185	0x3b1509a3	0.002274134
186	0x3b0e2d8d	0.002169463
187	0x3b1a2108	0.0023518223
188	0x3b37e8ef	0.0028062423
189	0x3b45c628	0.0030177925
190	0x3b4fcc5e	0.0031707506
191	0x3b350610	0.0027622022
192	0x3b43ed7a	0.0029896186
193	0x3b356516	0.002767866
194	0x3b36d09a	0.0027895332
195	0x3b3d9c02	0.00289321
196	0x3b428d0d	0.0029686124
197	0x3b41b280	0.0029555857
198	0x3b2e1250	0.0026561208
199	0x3b1d0c4f	0.0023963635
200	0x3830ea1e	4.217971e-05
201	0x381667bd	3.58594e-05
202	0x37f1ef9d	2.8841017e-05
203	0x383600b1	4.3392825e-05
204	0x380fc5f3	3.427821e-05
205	0x3816a9f9	3.5921086e-05
206	0x381fa1d9	3.8059286e-05
207	0x3821efd9	3.8608767e-05
208	0x380809ec	3.2434167e-05
209	0x3809555d	3.2742846e-05
210	0x3817d599	3.6200134e-05
211	0x383500ab	4.3154385e-05
212	0x3861c087	5.3823485e-05
213	0x3811d606	3.477002e-05
214	0x3813ad44	3.5208897e-05
215	0x381fa3d1	3.806112e-05
216	0x380dd0c7	3.381146e-05
217	0x382d1135	4.126244e-05
218	0x3814aad1	3.5445035e-05
219	0x3801cc3b	3.09462e-05
220	0x38091133	3.2679363e-05
221	0x3812aafb	3.496835e-05
222	0x382fc772	4.1909e-05
223	0x382f2457	4.1757095e-05
224	0x383ee852	4.5515895e-05
225	0x383d7d17	4.517761e-05
226	0x382eeab1	4.1703406e-05
227	0x38445209	4.6806443e-05
228	0x383419de	4.2939435e-05
229	0x383cd26d	4.5018667e-05
230	0x383819c3	4.389301e-05
231	0x3825eda5	3.956039e-05
232	0x3830e1d4	4.217199e-05
233	0x382cca58	4.1196443e-05
234	0x37f5883e	2.9269719e-05
235	0x383453f1	4.299352e-05
236	0x38151072	3.5539684e-05
237	0x382a9ebc	4.067899e-05
238	0x37fef215	3.0391888e-05
239	0x37f30937	2.8972148e-05
240	0x380640ab	3.2008316e-05
241	0x3800574c	3.059888e-05
242	0x38239349	3.89994e-05
243	0x3827323f	3.9862698e-05
244	0x3815b988	3.5697158e-05
245	0x3852dcd8	5.027358e-05
246	0x381406b8	3.5292207e-05
247	0x38288c1c	4.018481e-05
248	0x383156a0	4.2280764e-05
249	0x38299e8f	4.044041e-05
250	0x3b6503e9	0.0034944958
251	0x3b8509e8	0.004060019
252	0x3b86c444	0.004112752
253	0x3b779b89	0.0037781915
254	0x3b804585	0.0039145374
255	0x3b67fb94	0.0035397755

exp_avg f4 [16]
0	0xb03fc1a5	-6.976058e-10
1	0xb0beb131	-1.387468e-09
2	0xb23eb0cc	-1.10996545e-08
3	0x30d4e739	1.5490748e-09
4	0x30285f4b	6.1253463e-10
5	0x319e0831	4.5993365e-09
6	0xb1523ae4	-3.0592497e-09
7	0x2f37a358	1.6701784e-10
8	0x3236e7b1	1.0646475e-08
9	0xb2a6d963	-1.94238e-08
10	0x312b5b6f	2.493575e-09
11	0x3274a99b	1.4241233e-08
12	0x3288074c	1.5835802e-08
13	0x30d2c4c1	1.5335432e-09
14	0x3133e41e	2.6177598e-09
15	0x3089c80d	1.002492e-09

exp_avg_sq f4 [16]
0	0x2bd70b1e	1.5279754e-12
1	0x303febd6	6.982054e-10
2	0x2d9f7cff	1.8131717e-11
3	0x2b693662	8.28537e-13
4	0x2dd7cf6b	2.4534782e-11
5	0x2e508d2f	4.741912e-11
6	0x2d4f3ded	1.1780338e-11
7	0x2f832d5f	2.3861e-10
8	0x2eabbe42	7.809976e-11
9	0x29763e10	5.4676803e-14
10	0x2ea5d47e	7.5410775e-11
11	0x2eebc367	1.0721273e-10
12	0x2c674987	3.286789e-12
13	0x2dfa4f9b	2.8457061e-11
14	0x2fefd194	4.362276e-10
15	0x298031c8	5.6929776e-14

exp_avg f4 [16]
0	0x3d0260c3	0.03183056
1	0xbd3427ea	-0.043983378
2	0xbdbd3fd7	-0.09240692
3	0x3c587db0	0.01321356
4	0xbcdaf83a	-0.026729692
5	0x3cbdc8ab	0.023166975
6	0x3c9c3166	0.019066524
7	0xbc610c7c	-0.013735887
8	0xbd245082	-0.04011584
9	0x3cf94ee2	0.030433122
10	0x3a56ed6f	0.00081988325
11	0x3d20cf0d	0.03925996
12	0x3d78cba5	0.060741086
13	0x3d39a4fb	0.045323353
14	0xbcc6b043	-0.02425397
15	0xbc231824	-0.009954486

exp_avg_sq f4 [16]
0	0x3b5ec5a2	0.003399231
1	0x3bf2e7a2	0.0074128667
2	0x3c69ccb1	0.014269994
3	0x3bc5640a	0.0060238885
4	0x3a2174c2	0.0006159061
5	0x3bb8bf8d	0.005638069
6	0x3b9b5dd9	0.004741412
7	0x3b8fa056	0.004383127
8	0x3c14b6ef	0.009076818
9	0x3be476e6	0.0069721816
10	0x3bdf9316	0.006822954
11	0x3c899a4d	0.01679721
12	0x3bde8da2	0.0067917863
13	0x3ba3a998	0.0049945824
14	0x3c5684aa	0.013093153
15	0x3bc1539d	0.00589986

exp_avg f4 [16]
0	0x3c9048b9	0.017612802
1	0x3c4cdac4	0.01250333
2	0xbcb31f9d	-0.02186566
3	0x3cb89914	0.02253393
4	0x3b3e0ad6	0.0028998158
5	0x3cbf7004	0.023368843
6	0x3c11acc6	0.00889129
7	0xbbda79f7	-0.0066673714
8	0xbb8a0b96	-0.004212807
9	0x3cabcd69	0.02097197
10	0x3c102af2	0.008799301
11	0x3c9f6f54	0.019462265
12	0x3cead0f5	0.028664092
13	0x3ce609e7	0.028080894
14	0xbc4833ce	-0.012219382
15	0x3c5e7bf2	0.013579356

exp_avg_sq f4 [16]
0	0x3a824246	0.0009937964
1	0x3adfc6a7	0.0017072753
2	0x3bb29d51	0.0054508825
3	0x3b05cdf3	0.0020416945
4	0x39299bc3	0.00016175122
5	0x3b37aaf9	0.0028025492
6	0x3ab2c4ea	0.0013639007
7	0x3a92752c	0.0011173836
8	0x3b6b92f6	0.003594575
9	0x3b7b02d7	0.0038301253
10	0x3b4646da	0.0030254633
11	0x3bbe2eb6	0.005803908
12	0x3b50224e	0.0031758728
13	0x3b315783	0.0027060218
14	0x3b84c6ec	0.0040520336
15	0x3b15f312	0.0022880477
