src/params.pth (torch, 732629 bytes, 46 tensors)

emb._spatial_conv.0.weight f4 [2, 1, 2, 1]
00000000: e6b6 7cb8 a837 239f 14f6 469f 31ae 4f9f
-6.025182e-05 -3.456263e-20 -4.2131682e-20 -4.3978043e-20

emb._spatial_conv.0.bias f4 [2]
00000000: fe55 5c1c 2d31 5f1e
7.2903036e-22 1.1815691e-20

emb._temporal_conv.0.weight f4 [16, 1, 1, 100]
00000000: 0738 222f f809 5a35 6650 a334 1edd 6d34
00000010: 465e cdaf 9168 9f3a c221 ffae 15f4 ba38
00000020: 9862 093a 27d3 3db8 9a94 9f35 c9e7 97b5
00000030: 5ab7 8cb5 8678 e435 5bd1 b5ac 0bb0 89b8
00000040: f524 0b35 f469 102c 3a59 d037 fa33 4f3a
00000050: 73e9 7c39 a346 1eaa 66e3 51ab c9be 322b
00000060: 6463 9db7 ca05 87ae 3a8a 13b3 27cf ae39
00000070: ef63 f12f ffd6 9c2f 7185 8a37 003a ae2e
00000080: 279c 56b6 de54 3aae 7c5c 68b6 4b2f 32b2
00000090: cd63 e0b7 68f3 1aba e43c 9bb9 8686 0f2b
000000a0: ffd3 8938 c075 00b9 f96b 4630 4ac6 cc32
000000b0: 27bc 8337 2f16 94b6 9488 3334 e5ee fba4
000000c0: f5b7 8133 82be 0aa4 cd40 ae9b 0e78 d737
000000d0: 9acc e7b8 4038 ff2d eaac f02f 9123 9e31
000000e0: d8bd 3bac 248b 58b6 d248 a6ae 3a33 0832
000000f0: ebd4 2332 ac8b 9237 3a51 7730 a366 032e
00000100: 96de 79b8 6a7a 85ad c653 89ba f97d 44b1
00000110: c005 14b7 3eda 44b7 d2ed a2b1 a970 6aa1
00000120: 0d44 85b5 6bdb 0ab4 3678 9834 70f9 1633
00000130: d129 1032 645b 08a4 2958 f5ad b440 38b8
00000140: 9cf1 3a34 899c 40b0 f625 582c ba4b d4b4
00000150: 1673 3baf d361 002c 5afb edb9 9bec f032
00000160: 23e4 822d 6e72 87ad 48a3 012d 3d77 5aae
00000170: 1155 b535 cd1a 59b7 9eb6 b7b9 6c5e 0537
00000180: 51ea 8fad a04e 90b4 c84f 0a3a 92b5 3337
00000190: a568 4cb8 755e 0c31 9757 022d cd36 c325
000001a0: 095b 3c35 3208 a92f 3a14 ec31 8087 84a5
000001b0: 79cd d3a4 c66c 75af 5f99 1737 e730 ba37
000001c0: 1774 d22c 6c85 17b0 3de0 7b2f cde3 ff9e
000001d0: 50ab 95b9 9d16 0426 3bb1 6334 1228 9b25
000001e0: 5278 3eb0 bc81 d62b 44c5 1bb0 6a22 2ab0
000001f0: a636 59a5 a324 e937 7656 eb31 fad3 04b3
00000200: 9859 792f beef 2a9d f5ab 922a 89c8 a2b2
00000210: bb09 faab c1cb b8af 74fb 132a e348 32b1
00000220: 52b6 e431 a811 f52a 68d8 1134 e185 5037
00000230: e74b 85a6 e714 b02b b9c6 8c37 5a90 66af
00000240: e17b a930 0526 0db1 ab13 1139 679e cfb2
00000250: 910e 6330 2125 10ac f251 aab9 ace8 66b7
00000260: 43e2 89ab c493 7dad 21f4 53aa 5750 0333
00000270: bc69 0633 55ff 58b9 9275 0f31 0cfa ddab
00000280: 51d9 f225 3d88 0db3 da13 2b36 d0b2 29b4
00000290: b1d8 1a31 08da a133 9399 3c36 9c29 a2b7
000002a0: fefc 6a32 4cda e2af 5b78 a2b3 7783 41b7
000002b0: 0f27 7aac 9feb 0eb4 730f bcb2 010e cc2f
000002c0: e940 c72d 02a5 d325 734e 49b7 b9b9 20b6
000002d0: 1e6d 83b8 3879 9a36 87b6 95b1 51c9 9eb3
000002e0: b5c3 10b8 1dcc c1ad 80fd 2135 99c6 c533
000002f0: 58c0 822c 487c 0535 dfa0 9fae 939e dc2f
00000300: 346b d7ab e280 10b7 90c9 19b8 8f1c 6c33
00000310: 794c f1b8 86e6 a930 81c8 d1b2 d416 9b36
00000320: e19f 2f2b 9c22 10b3 a70e 25b4 1190 1fa6
00000330: 5966 6c29 27f1 88a9 d044 0eb6 06e4 80ba
00000340: 7250 26b5 5228 9831 6755 01a5 9ea0 4a36
00000350: 4a4a 1bac 4add 9935 3c0f fbad d690 9432
00000360: 4393 ab25 6e39 88b2 1e66 7d2f d0bd af36
00000370: b9fa beaf 8e00 d832 4d36 bf2d ad8d b1b7
00000380: 5c2d 8825 36a2 8dba 7714 deb6 d817 a4b7
00000390: 3a19 b5ae 37f5 a72c e059 0eb5 1ada 5d26
000003a0: 4444 c7a1 7a3b 1636 825a daae 9653 dcab
000003b0: 7fdb 4bb5 72d4 6533 9008 61b0 7ccf 2133
000003c0: f8d6 6724 4b5a 5d31 647b d62f aea6 139c
000003d0: d818 2630 ad91 cea3 07ae 1caf 567f e6b5
000003e0: 50e5 9339 6aa4 3123 0672 05a3 b64c 2639
000003f0: e30e c7b6 61d2 bc30 7c32 0d30 e0dd 7033
1.4753719e-10 8.1225835e-07 3.0419613e-07 2.2152787e-07 -3.7356268e-10 0.00121619 -1.1602054e-10 8.914635e-05
0.0005240827 -4.5257762e-05 1.1889672e-06 -1.1317835e-06 -1.0484175e-06 1.7022401e-06 -5.1675725e-12 -6.5654596e-05
5.1835315e-07 2.0522447e-12 2.4837082e-05 0.00079041685 0.0002411956 -1.4057726e-13 -7.4567295e-13 6.350307e-13
-1.876214e-05 -6.1401176e-11 -3.435182e-08 0.00033342207 4.3908652e-10 2.8528999e-10 1.651302e-05 7.922907e-11
-3.1979378e-06 -4.236688e-11 -3.4624527e-06 -1.0371717e-08 -2.6749354e-05 -0.0005910904 -0.0002960927 5.0990494e-13
6.5721564e-05 -0.00012250897 7.218542e-10 2.3838897e-08 1.5704032e-05 -4.413326e-06 1.6720361e-07 -1.092586e-16
6.040492e-08 -3.0085346e-17 -2.8827762e-22 2.5685902e-05 -0.000110530484 2.9015124e-11 4.3778609e-10 4.6024486e-09
-2.6679683e-12 -3.2267499e-06 -7.5617415e-11 7.9278895e-09 9.536261e-09 1.7469596e-05 8.9973506e-10 2.987711e-11
-5.9573526e-05 -1.5174712e-11 -0.0010477237 -2.859336e-09 -8.822826e-06 -1.1733324e-05 -4.7418576e-09 -7.943139e-19
-9.929078e-07 -1.2932075e-07 2.839967e-07 3.515146e-08 8.391411e-09 -2.956771e-17 -2.7892426e-11 -4.3929278e-05
1.7410497e-07 -7.0071643e-10 3.0716519e-12 -3.9543175e-07 -1.7048438e-10 1.8244197e-12 -0.00045391434 2.8047273e-08
1.4880602e-11 -1.539854e-11 7.369057e-12 -4.9673366e-11 1.3510308e-06 -1.2940448e-05 -0.0003504054 7.949402e-06
-1.6361275e-11 -2.6879297e-07 0.00052761706 1.0711507e-05 -4.8734848e-05 2.0426374e-09 7.409093e-12 3.3864242e-16
7.016793e-07 3.0746744e-10 6.8708035e-09 -2.2990168e-16 -9.185475e-17 -2.2321264e-10 9.036011e-06 2.21957e-05
5.9814475e-12 -5.5123084e-10 2.2907982e-10 -2.7093391e-20 -0.00028547132 4.5827346e-16 2.1205499e-07 2.6915367e-16
-6.9292583e-10 1.5241623e-12 -5.6669003e-10 -6.1894545e-10 -1.8840265e-16 2.7792825e-05 6.8492296e-09 -3.0926437e-08
2.2678248e-10 -2.2623256e-21 2.605413e-13 -1.8950475e-08 -1.7766269e-12 -3.361418e-10 1.3143463e-13 -2.594384e-09
6.6564008e-09 4.3532994e-13 1.3582905e-07 1.2428937e-05 -9.249302e-16 1.2511354e-12 1.6781838e-05 -2.0969662e-10
1.2331577e-09 -2.0539812e-09 0.00013835604 -2.4170005e-08 8.260282e-10 -2.0484241e-12 -0.0003248598 -1.3763241e-05
-9.797236e-13 -1.44141955e-11 -1.8825264e-13 3.0573883e-08 3.129547e-08 -0.00020694484 2.087607e-09 -1.5772396e-12
4.2127567e-16 -3.295303e-08 2.549254e-06 -1.5804403e-07 2.2533124e-09 7.5368064e-08 2.8103575e-06 -1.933128e-05
1.3678116e-08 -4.126427e-10 -7.5656054e-08 -1.15343055e-05 -3.5548819e-12 -1.3310499e-07 -2.1893106e-08 3.7117334e-10
2.2652507e-11 3.671448e-16 -1.1998799e-05 -2.3949963e-06 -6.2668914e-05 4.6036694e-06 -4.3572217e-09 -7.3940676e-08
-3.451454e-05 -2.2032204e-11 6.0346065e-07 9.209652e-08 3.7161767e-12 4.9727214e-07 -7.259059e-11 4.013044e-10
-1.5306424e-12 -8.613077e-06 -3.6665762e-05 5.4974006e-08 -0.0001150602 1.2361887e-09 -2.442198e-08 4.6220175e-06
6.2394366e-13 -3.355909e-08 -1.5372153e-07 -5.5359453e-16 5.24913e-14 -6.0814465e-14 -2.1199703e-06 -0.0009833581
-6.195688e-07 4.428366e-09 -1.1217902e-16 3.0193837e-06 -2.2068064e-12 1.1463792e-06 -2.8542162e-11 1.7295331e-08
2.976356e-16 -1.58586e-08 2.3046495e-10 5.2375035e-06 -3.4738948e-10 2.5145962e-08 2.17383e-11 -2.1166017e-05
2.3622976e-16 -0.0010805789 -6.618498e-06 -1.9561427e-05 -8.235408e-11 4.77365e-12 -5.302991e-07 7.697036e-16
-1.3502834e-18 2.2386362e-06 -9.92957e-11 -1.565514e-12 -7.59428e-07 5.3511435e-08 -8.186669e-10 3.767444e-08
5.0272226e-17 3.2211058e-09 3.9014048e-10 -4.885365e-22 6.0425753e-10 -2.2396261e-17 -1.4249944e-10 -1.7173395e-06
0.00028208876 9.630005e-18 -7.23409e-18 0.0001585957 -5.932395e-06 1.3738594e-09 5.1367244e-10 5.608115e-08

emb._temporal_conv.0.bias f4 [16]
00000000: 6825 eb2f 6280 5eb3 0e58 033a 6612 1db5
00000010: c75d da2f 6b12 2234 2ef7 04b4 2734 06b5
00000020: dd90 28b8 3b54 f534 7584 e032 3e85 b8b5
00000030: 75cd 2ab8 4de7 512d cfac ea35 090c 092f
4.277283e-10 -5.1805166e-08 0.00050103746 -5.851383e-07 3.9720602e-10 1.5094126e-07 -1.2383381e-07 -4.999478e-07
-4.0189236e-05 4.5696092e-07 2.6137267e-08 -1.3747847e-06 -4.0722505e-05 1.1931634e-11 1.7484653e-06 1.2464353e-10

emb._temporal_conv.1.weight f4 [16]
00000000: 3770 27b9 70cc a5b9 2e51 5224 5d63 01ae
00000010: 6cd1 9f35 8258 68a2 b1a7 31a0 84a6 2435
00000020: aff5 94a0 16fe 9234 09d2 35ae 5ee1 5aa1
00000030: f199 a59d 507d 07ae 0895 a61c 6c78 22b2
-0.00015968164 -0.0003162357 4.5605253e-17 -2.9419456e-11 1.1907373e-06 -3.1488719e-18 -1.5047968e-19 6.1337073e-07
-2.5234755e-19 2.737949e-07 -4.1341184e-11 -7.4159544e-19 -4.383431e-21 -3.0806746e-11 1.1023482e-21 -9.457022e-09

emb._temporal_conv.1.bias f4 [16]
00000000: 9ca6 13b4 8ce2 3d32 cd74 afae 8e0d ffb8
00000010: 670f 15a2 9a1d 9c9e 9381 e733 b222 1ab7
00000020: 7abe 4d35 31d0 f438 7bdb 05b3 a077 7ab9
00000030: 29f9 5e35 ebaa 202e ddc9 5136 2000 2cb9
-1.3751054e-07 1.1052759e-08 -7.9788266e-11 -0.00012161872 -2.020142e-18 -1.6529385e-20 1.0780345e-07 -9.187193e-06
7.664563e-07 0.00011673605 -3.1166092e-08 -0.00023886422 8.306402e-07 3.6531594e-11 3.1260927e-06 -0.00016403245

emb._temporal_conv.1.running_mean f4 [16]
00000000: e09f 5530 c6ef 1632 c144 a1b8 3b3e 59b4
00000010: 69ce 2f30 3ede cfb2 e7cf 4e32 db9e b033
00000020: 8d3a 9537 18f7 adb3 fa40 b2b1 96c3 4c34
00000030: b9ac ca36 ab06 7230 e0a8 21b4 be9e 4930
7.7716145e-10 8.785667e-09 -7.689885e-05 -2.0232339e-07 6.3957956e-10 -2.4199036e-08 1.203805e-08 8.224534e-08
1.7789449e-05 -8.1008864e-08 -5.187869e-09 1.9070134e-07 6.0401767e-06 8.8048563e-10 -1.505573e-07 7.334896e-10

emb._temporal_conv.1.running_var f4 [16]
00000000: 902b b927 a293 8227 9a05 3228 703e fe27
00000010: a98b 1228 5a2d 1528 21d1 1f27 646e 7c28
00000020: 0cd5 0228 b2ed 9827 3919 0228 562f 6627
00000030: c88a 1128 d307 6827 0055 1328 3752 6727
5.1395045e-15 3.624231e-15 9.8821996e-15 7.0566857e-15 8.134912e-15 8.280996e-15 2.2179052e-15 1.4012747e-14
7.262647e-15 4.2446185e-15 7.221919e-15 3.1944573e-15 8.07921e-15 3.220071e-15 8.178571e-15 3.2102259e-15

emb._temporal_conv.4.weight f4 [16, 16, 1, 100]
00000000: 8b83 522d c0a3 6e36 7e20 bd36 5374 6d2e
00000010: 39a7 b0b4 5a18 4e36 b9f1 1338 514f 763a
00000020: 9b02 feb7 1998 a7ad a3de 4ab1 51b0 be30
00000030: f88e f4ac 15a4 ea39 2c4d c134 300b 83b5
00000040: ef9f 98a9 c161 00ae aa09 3bb3 dfb7 1eb3
00000050: 6126 27b4 bc54 80b3 ac08 ed36 9d0f a836
00000060: 0063 e4af 800d 7d2d 4017 2730 4aca b731
00000070: 86b5 b2b5 0b26 a0b3 9cae 452b fb8c d32a
00000080: e829 3432 c350 bbb1 ea79 ee2e 6b52 c0b1
00000090: 83b1 0632 a5c2 ff32 deec 8c30 c6ae d738
000000a0: a6f7 57ad fd74 7435 9534 4936 7a3a 46ab
000000b0: 9c22 11ae 75cf 232f 83f9 c533 156b 4723
000000c0: 1e2c 52aa 1575 33af 4504 9c2b efca deb2
000000d0: 7676 07b6 8fcb 96b0 9a9c c22b 2683 0dba
000000e0: 42a4 7838 93e0 092b 4f4d e0b1 feaa 50b5
000000f0: 84f8 a0b5 11ab 20ac 2fa1 02ab 77a6 8aa9
00000100: 6476 3eab 02ca 68b4 ed9c f432 e81c 2fb7
00000110: 09b2 f632 d661 0837 2e95 10b1 9ed0 5ca8
00000120: 15c2 652a 3b06 2a30 c287 34b8 b384 2c39
00000130: 8971 37b3 bf79 9e38 2266 50b1 57a1 dfb6
00000140: 14f4 15b2 df9a 2d0b d8fc 222b e007 0eac
00000150: c7e0 802b 0654 d0af 0133 29af 8707 c6ac
00000160: 133e 1a30 049b 5c2a c99e 3b2c 963a 1534
00000170: 9cb4 282c b6de c4b2 eed7 fdb1 0e14 0930
00000180: f273 082c 6752 2723 3292 70b9 a7c3 36b9
00000190: 14f8 812c 74b8 9dae 1fa1 4c32 bbac 6832
000001a0: 6947 0c2a 092a 3137 0d99 9b29 231c 7fb0
000001b0: b889 482e 112b 4ab6 9b09 3eb0 ac25 e036
000001c0: 982e be2f 27e5 97ac 930b 642b 71ab 60b6
000001d0: 0497 1d2b 9ae8 03a9 ecd8 dea9 a099 b5b2
000001e0: 80f1 9028 de9b f4ae 96f5 29b6 b29c c529
000001f0: abff 3932 0a44 3235 83ec 41ac fa16 d337
00000200: d2e0 5baa 237d 0531 0bea b7af 625c a4af
00000210: 0748 d636 c1fa cbad 9ffe b9a6 b99a a332
00000220: ef53 4ab1 1a9e 5e35 cf13 e6b5 d756 4f27
00000230: 9cca 9c31 ffb1 6eb3 ed2e 4f33 1b07 4e30
00000240: 6bb7 44ac 9c3b 2b2d 10fa 8eb1 cf1c b037
00000250: cb74 9633 538e c82e c964 08a9 f77d ef19
00000260: 2f73 b1a5 ef65 bdaa a1bc f3ab 1074 882d
00000270: 0e36 de39 4fab 1934 567e 87b3 4e4a c334
00000280: fb74 e137 a642 9b2a e43e 612f d209 0234
00000290: 796e b930 42cc 84b4 3402 e82b 857f b72c
000002a0: 4d64 5eb7 7f48 b6ad 3eb1 edb0 63a3 4d31
000002b0: 0944 c6ae 116c 3f30 ee3f 22b6 c0ed 84b7
000002c0: 1ca6 d42e be6a 302e c482 b12c 4c02 5f2d
000002d0: de32 e536 9e33 58a8 b79b 9034 7bdb 27b7
000002e0: 2e4a 6536 3d11 142b d622 25b8 f591 6eaf
000002f0: 5e98 c52a 1bbd 75b9 8a3f 43ab 603f 799f
00000300: 8156 34ac 5966 341d 6f93 37aa 4939 54b8
00000310: bb1d beb2 2d6b acac d892 c832 4404 1fa6
00000320: 53eb a4a9 ef63 b0ab 9784 84a8 8746 5e2e
00000330: c712 16b7 8318 de35 752b 64a7 b7fc c3ad
00000340: 9667 7c2c d3a6 bb33 19f5 73b6 2dac dc29
00000350: 5dbe baad 6564 5029 4ecb c2aa 449f 9538
00000360: 8806 e131 28ee 3aa7 03b4 5332 a403 f6ab
00000370: 7227 40ab d7b3 61b5 4bff 2f22 b420 862f
00000380: d4e2 cc2f 61a7 d834 3489 8cad 3bec 19ac
00000390: 22bb ee2e 1102 4c2b f478 e335 ff04 93b4
000003a0: 6f7e 7dab 1a83 22b8 81a3 05b8 725b 13ae
000003b0: e478 85b6 844d 0933 cd7d 69b6 bc86 1829
000003c0: d7cc 2caf 08d7 57b9 d6e4 ca2f 5124 76b3
000003d0: ea6b 2234 28b4 e637 563b 46b3 b770 05ac
000003e0: 70f7 962e f8e5 0bb7 e857 fe36 68db 58ba
000003f0: 06d5 3b31 d256 b732 cb80 e139 ce24 79b7
1.1966326e-11 3.5560079e-06 5.6364215e-06 5.3990878e-11 -3.2904225e-07 3.0710567e-06 3.5272653e-05 0.00093959743
-3.0280373e-05 -1.9053247e-11 -2.9521423e-09 1.3874432e-09 -6.95077e-12 0.0004475421 3.60052e-07 -9.763517e-07
-6.7779e-14 -2.9190653e-11 -4.354812e-08 -3.695447e-08 -1.5567049e-07 -5.9758776e-08 7.06416e-06 5.008608e-06
-4.1543302e-10 1.4384383e-11 6.0787286e-10 5.3489986e-09 -1.3314864e-06 -7.4575006e-08 7.023078e-13 3.7578954e-13
1.0486907e-08 -5.451598e-09 1.0844643e-10 -5.5973053e-09 7.840188e-09 2.9774421e-08 1.0253662e-09 0.00010284553
-1.2276324e-11 9.1067324e-07 2.998194e-06 -7.0424883e-13 -3.2999922e-11 1.4898467e-10 9.218913e-08 1.0810487e-17
-1.8667053e-13 -1.6321551e-10 1.1085652e-12 -2.5936485e-08 -2.018552e-06 -1.0971791e-09 1.3827995e-12 -0.0005398266
5.9280785e-05 4.8983837e-13 -6.528047e-09 -7.7734865e-07 -1.1993257e-06 -2.2832328e-12 -4.6408965e-13 -6.157308e-14
-6.766586e-13 -2.1680174e-07 2.84767e-08 -1.0437543e-05 2.871913e-08 8.129011e-06 -2.1039557e-09 -1.225769e-14
2.0406622e-13 6.1854494e-10 -4.304178e-05 0.00016452633 -4.2711267e-08 7.556704e-05 -3.032604e-09 -6.6647003e-06
-8.728438e-09 3.34351e-32 5.7904853e-13 -2.0183785e-12 9.157335e-13 -3.7894682e-10 -1.538858e-10 -5.628334e-12
5.6113086e-10 1.9593707e-13 2.6662442e-12 1.389802e-07 2.3974494e-12 -2.291868e-08 -7.3878175e-09 4.986881e-10
1.9391125e-12 9.0705375e-18 -0.00022942646 -0.00017429759 3.6939427e-12 -7.172299e-11 1.19109975e-08 1.3543452e-08
1.2459273e-13 1.0559809e-05 6.909933e-14 -9.2808444e-10 4.5597054e-11 -3.0125414e-06 -6.913525e-10 6.680106e-06
3.4593906e-10 -4.317119e-12 8.1017934e-13 -3.3478393e-06 5.598718e-13 -2.9289593e-14 -9.8964104e-14 -2.1141034e-08
1.6091945e-14 -1.1123523e-10 -2.5325912e-06 8.77574e-14 1.0826549e-08 6.640918e-07 -2.755824e-12 2.516386e-05
-1.9529108e-13 1.942518e-09 -3.3453804e-10 -2.9897068e-10 6.386082e-06 -2.3189785e-11 -1.2905969e-15 1.9046057e-08
-2.944258e-09 8.293151e-07 -1.71421e-06 2.8774097e-15 4.5632316e-09 -5.557558e-08 4.8238622e-08 7.495246e-10
-2.7955093e-12 9.7334606e-12 -4.1611727e-09 2.099425e-05 7.006164e-08 9.120229e-11 -3.0285483e-14 2.4762898e-23
-3.0782657e-16 -3.3643875e-13 -1.7318544e-12 1.5512952e-11 0.00042383414 1.4311557e-07 -6.309408e-08 3.6375644e-07
2.6876563e-05 2.7579778e-13 2.0485974e-10 1.2110766e-07 1.349192e-09 -2.4735533e-07 1.6485203e-12 5.2153303e-12
-1.3255584e-05 -2.07232e-11 -1.7294395e-09 2.99243e-09 -9.016083e-11 6.9638967e-10 -2.4177093e-06 -1.5846337e-05
9.670151e-11 4.0112573e-11 5.0451605e-12 1.2676592e-11 6.8306535e-06 -1.2001601e-14 2.6935388e-07 -1.00050775e-05
3.4166837e-06 5.2604085e-13 -3.937151e-05 -2.1697828e-10 3.5099956e-13 -0.00023435468 -6.9366095e-13 -5.2780224e-20
-2.5627558e-12 2.3875714e-21 -1.6304816e-13 -5.059809e-05 -2.2132431e-08 -4.900433e-12 2.3349841e-08 -5.516999e-16
-7.323885e-14 -1.2533289e-12 -1.4712446e-14 5.0539597e-11 -8.945069e-06 1.6547423e-06 -3.1664914e-15 -2.2281161e-11
3.5868856e-12 8.738211e-08 -3.6352487e-06 9.7998304e-14 -2.123029e-11 4.6272356e-14 -3.4602394e-13 7.134539e-05
6.5491044e-09 -2.594179e-15 1.2322746e-08 -1.7480362e-12 -6.8266844e-13 -8.4080733e-07 2.3852073e-18 2.4397695e-10
3.7268555e-10 4.035492e-07 -1.5977088e-11 -2.1873742e-12 1.08562284e-10 7.2478227e-13 1.694802e-06 -2.738452e-07
-9.005912e-13 -3.8745908e-05 -3.1861946e-05 -3.350515e-11 -3.9777824e-06 3.19683e-08 -3.4792931e-06 3.3867643e-14
-1.5716083e-10 -0.00020584103 3.6906184e-10 -5.7309368e-08 1.5126685e-07 2.7502028e-05 -4.6154433e-08 -1.8963006e-12
6.865164e-11 -8.338589e-06 7.5800235e-06 -0.000827244 2.7333171e-09 2.1343485e-08 0.00043011302 -1.4850126e-05

emb._temporal_conv.4.bias f4 [16]
00000000: 9e70 f6b3 cb21 77b3 d380 2232 2f60 8eae
00000010: e52c 4b35 ef0e 21b4 5322 1aac 86ad 7b34
00000020: 7508 5fb7 4211 6837 8c7d e3b6 8ef5 a731
00000030: fd52 c7ad 4faf 9136 21d9 8633 bb5c 60b8
-1.14757526e-07 -5.7539904e-08 9.458932e-09 -6.474498e-11 7.5688723e-07 -1.4999726e-07 -2.190377e-12 2.3439324e-07
-1.3293805e-05 1.3832296e-05 -6.7797428e-06 4.888256e-09 -2.2660535e-11 4.3417454e-06 6.279357e-08 -5.3492124e-05

emb._temporal_conv.5.weight f4 [16]
00000000: a0ef f016 3245 da1a 8939 ea99 42a4 4e94
00000010: c984 5099 0714 1e9a ed52 2c18 a67d 8b98
00000020: 2e7c 1c9a 9179 3c14 2351 6916 5671 7899
00000030: 8cd9 f399 243e 1815 3918 6a18 6c41 6232
3.8925316e-25 9.027448e-23 -2.4218271e-23 -1.0432736e-26 -1.0780164e-23 -3.2689812e-23 2.2272346e-24 -3.605753e-24
-3.2360355e-23 9.515549e-27 1.8847192e-25 -1.28441875e-23 -2.5213478e-23 3.0745176e-26 3.025602e-24 1.3169807e-08

emb._temporal_conv.5.bias f4 [16]
00000000: b354 94ba dde8 4abc 7a49 05b2 dbd9 83ba
00000010: ab19 3dbb 123d f9bc 2b41 3ebc dede abbd
00000020: 87f3 cebc e393 d2b0 fcac 2a2b 36fc 69bc
00000030: 494a 6bbd 19c1 192a 4e7d 05bb fccd 8dbd
-0.0011316746 -0.0123846205 -7.7583255e-09 -0.0010059433 -0.002885441 -0.030424628 -0.011612217 -0.08392118
-0.025262607 -1.5321543e-09 6.0636197e-13 -0.014281323 -0.05744389 1.3656124e-13 -0.0020368877 -0.06924054

emb._temporal_conv.5.running_mean f4 [16]
00000000: e8e1 1bb4 43cb 68b5 30d1 5f34 5dd9 3134
00000010: 5c69 34b3 b07c c3b4 7480 d3b4 29a5 9434
00000020: b9d3 c234 2add 68b6 7c65 5c35 74d0 d1b4
00000030: fcd2 fbb3 a5e5 8fb5 7220 b6b3 876b 0037
-1.4517684e-07 -8.672252e-07 2.0844595e-07 1.6563486e-07 -4.200534e-08 -3.6412303e-07 -3.9395275e-07 2.7687318e-07
3.6289364e-07 -3.4699428e-06 8.2104066e-07 -3.9080953e-07 -1.1726476e-07 -1.0721166e-06 -8.480937e-08 7.65443e-06

emb._temporal_conv.5.running_var f4 [16]
00000000: daa7 7d1a 8bce 6d1a 1977 c71a 7f1f 8f1a
00000010: d3bc 851a 8f2e 781b b743 b41a d263 7e1a
00000020: 4c48 171b bb53 871a 9f72 ac1a b63d ef1a
00000030: 0c0f aa1a 63d1 3a1b d117 ca1a bfdd b31a
5.2454763e-23 4.9177295e-23 8.2496884e-23 5.91943e-23 5.531257e-23 2.0529123e-22 7.4555654e-23 5.2606603e-23
1.2513788e-22 5.5969965e-23 7.132271e-23 9.894778e-23 7.033466e-23 1.5453216e-22 8.358372e-23 7.4390915e-23

emb._affine_layer.1.weight f4 [100, 320]
00000000: 8302 9d23 9eea 3aa4 93c8 6623 92c7 65a4
00000010: e387 8524 6df9 5b24 3521 64a3 901a 1ea4
00000020: cf0c 5f24 2786 be23 60c8 b623 1937 09a2
00000030: 6f3e d5a3 7594 a023 5134 8523 6c47 6523
00000040: ed69 cca2 5607 9b23 3941 d423 4c07 5ca4
00000050: dcb8 a522 f804 c823 5498 df24 5643 c322
00000060: f4f7 7e23 3495 6c23 ef78 4925 b3b1 2b25
00000070: d63d b8a3 97b9 57a4 5f52 95a4 8248 54a2
00000080: 9f7c 1625 a4c7 aaa4 8aa9 9c24 b04b 3e24
00000090: acae c323 d086 9324 a024 c724 c3c2 bda3
000000a0: 43fe c523 1e21 11a4 0ae8 f023 8bd3 55a3
000000b0: c0a5 eea2 9cba baa1 01a0 1524 9f96 d722
000000c0: f9b4 c8a3 b47f b0a3 9c43 01a4 b4c1 ae23
000000d0: da47 82a3 a78c 3224 b532 a423 bc6a 1222
000000e0: 4c05 f422 63ed 34a4 d155 8822 6485 6a22
000000f0: 8a53 69a4 c9b7 4ca4 c483 1aa4 6a75 2024
00000100: 7fab 0f24 aa56 39a2 85f6 2e23 747f 5a24
00000110: 6ac0 3d24 aae2 4b24 ad7d 1624 2499 03a4
00000120: 1db1 75a3 bdff 66a4 02cf 0523 a002 7923
00000130: 2152 5da3 4f2d 1323 85e7 f6a3 3116 eca2
00000140: e98c 1ba3 90e9 b2a2 eec1 db24 3c78 c924
00000150: 6179 9fa3 a0f2 48a4 4253 5922 a122 3323
00000160: d244 4223 0c01 d7a4 d104 7a24 d216 9a23
00000170: f3a6 2a24 0842 eba4 9828 9e24 e299 b123
00000180: 8865 0c23 aa0b 1da4 4774 0a25 5b70 a424
00000190: 08b6 3ca6 9c14 b625 9da7 ce25 7140 8525
000001a0: d75b eba5 5ebd 1f24 7e33 afa4 678e b525
000001b0: d5a3 0626 1ec2 5326 e915 32a6 8baa 8824
000001c0: ac8b 75a5 6e11 eaa4 20d1 3f25 09f0 1026
000001d0: 89d2 3925 97fb 1da6 54e1 0725 0d18 20a5
000001e0: 7894 0026 c88f 9a25 c452 9fa5 40e4 1823
000001f0: 1bcd 66a6 597b 2a26 9bd9 4526 97c1 8426
00000200: ed28 12a6 3fc0 bba3 b02c 56a5 9555 cea5
00000210: 806e 3ca5 bb7a 4f25 0709 eda5 4322 1026
00000220: 8371 2a24 de9e 2d24 4c9b e9a5 93f9 4a25
00000230: 0afd 90a6 658d 91a4 4b35 2526 69f7 9ca6
00000240: ea71 f5a3 48c6 43a7 0866 0626 d9cf aaa5
00000250: 6bfb 2fa6 b72f 5927 7530 daa6 97d8 d8a6
00000260: 37c4 f126 1ce7 a026 9589 3c24 9179 e5a6
00000270: 4fc5 19a7 21ac 42a7 ffeb 2aa6 719a f4a4
00000280: 7164 bda5 8a88 12a6 d267 aa25 d79f 3b26
00000290: 198e 7125 1333 e224 3640 2b26 3c44 b5a5
000002a0: 50d8 d5a4 4749 9725 9b49 a225 8e64 91a4
000002b0: f16c 83a4 955a f0a2 d2b5 8825 6394 a825
000002c0: bbfb c9a4 65d8 1125 c7de 93a5 3d0b e823
000002d0: ccfe 5923 387b 9023 c44a a6a3 4b45 2e24
000002e0: 333a 7321 5193 0a24 db0c 5da3 3468 0424
000002f0: 0705 02a3 38ae ea23 d8b1 a2a3 be8e f123
00000300: 3811 01a4 76d9 0da2 762b 27a0 a6e2 85a3
00000310: 781c ed23 3d94 41a3 a311 fa23 10a8 07a4
00000320: b253 00a5 7f8b 07a4 f654 3524 d467 fb23
00000330: c2cb 67a3 40e4 9024 317d 08a4 76cc 7823
00000340: 9b75 0ea5 c667 8524 d8ab d6a4 cd70 9421
00000350: 1325 3525 00e6 0f24 7170 c4a4 169b eda4
00000360: 473c 18a4 075e 11a4 01ba a6a4 2cd4 87a5
00000370: 9718 2b24 d3b2 f6a3 0b3e 9f24 5f3a 9e25
00000380: b28c 6ea3 84d5 b4a5 a8a9 52a3 92a8 d823
00000390: 0f7b 1fa5 254c a524 49eb 8fa4 4ff1 53a4
000003a0: 715a da24 9096 b3a4 941a 39a3 bd15 74a4
000003b0: 23d9 24a3 62d8 bc24 b4ad e7a4 3a3c d1a4
000003c0: 4102 60aa 6f04 5026 0062 fb2f 5e8d b6ad
000003d0: 77cb dc2d 2bdc 8fa5 9f6a 4525 0d9f ae26
000003e0: a6c4 d2a7 a571 032b 6e1a 59aa f374 3da6
000003f0: ae83 8032 605f 6826 0211 b629 5c9d be25
1.7023038e-17 -4.053105e-17 1.2510798e-17 -4.9825502e-17 5.7909757e-17 4.7699327e-17 -1.2366937e-17 -3.4283288e-17
4.8366266e-17 2.0656657e-17 1.9817342e-17 -1.859613e-18 -2.3119948e-17 1.7410109e-17 1.4442046e-17 1.2429239e-17
-5.5406464e-18 1.680824e-17 2.3012709e-17 -4.7711076e-17 4.4919067e-18 2.1686148e-17 9.696889e-17 5.292615e-18
1.3821874e-17 1.2825181e-17 1.7474945e-16 1.4892093e-16 -1.9975509e-17 -4.6777894e-17 -6.475799e-17 -2.8769743e-18
1.305265e-16 -7.406395e-17 6.7941426e-17 4.1263792e-17 2.1215919e-17 6.397947e-17 8.636454e-17 -2.0573906e-17
2.1466467e-17 -3.1469914e-17 2.6119125e-17 -1.1591549e-17 -6.4685524e-18 -1.2653245e-18 3.2444753e-17 5.8435343e-18
-2.1760688e-17 -1.9136043e-17 -2.8029683e-17 1.8947154e-17 -1.4125059e-17 3.8716735e-17 1.7802391e-17 1.9843194e-18
6.614194e-18 -3.9232353e-17 3.6953736e-18 3.178353e-18 -5.059458e-17 -4.439112e-17 -3.3505037e-17 3.4793923e-17
3.1153445e-17 -2.5118055e-18 9.4847614e-18 4.7379172e-17 4.1145823e-17 4.42106e-17 3.2632517e-17 -2.8535812e-17
-1.3318982e-17 -5.008992e-17 7.25378e-18 1.3498873e-17 -1.19978255e-17 7.9784804e-18 -2.6769426e-17 -6.3991424e-18
-8.432406e-18 -4.849429e-18 9.530464e-17 8.737354e-17 -1.729022e-17 -4.3573598e-17 2.945306e-18 9.710942e-18
1.0531334e-17 -9.324316e-17 5.4214188e-17 1.6706378e-17 3.7004285e-17 -1.02026866e-16 6.8590346e-17 1.925555e-17
7.610915e-18 -3.4053828e-17 1.2008988e-16 7.1314e-17 -6.54723e-16 3.1585933e-16 3.5848883e-16 2.311549e-16
-4.0828235e-16 3.463803e-17 -7.598138e-17 3.149499e-16 4.6712623e-16 7.346841e-16 -6.178585e-16 5.926951e-17
-2.1297685e-16 -1.0151085e-16 1.6637464e-16 5.0285344e-16 1.6117524e-16 -5.4811285e-16 1.1785728e-16 -1.3885937e-16
4.4610134e-16 2.6812171e-16 -2.7638187e-16 8.28827e-18 -8.007525e-16 5.9147765e-16 6.8643015e-16 9.211813e-16
-5.070939e-16 -2.0356e-17 -1.8576682e-16 -3.5793296e-16 -1.634384e-16 1.7995971e-16 -4.1119064e-16 5.000647e-16
3.6959022e-17 3.764796e-17 -4.052429e-16 1.7605266e-16 -1.0060594e-15 -6.312326e-17 5.73181e-16 -1.0891735e-15
-2.6611198e-17 -2.7169175e-15 4.6628867e-16 -2.9631142e-16 -6.1056057e-16 3.0140666e-15 -1.5139923e-15 -1.5046718e-15
1.6775918e-15 1.1164873e-15 4.0882538e-17 -1.5923018e-15 -2.1339977e-15 -2.701622e-15 -5.930043e-16 -1.06079766e-16
-3.2854335e-16 -5.083897e-16 2.956065e-16 6.509528e-16 2.0951562e-16 9.80984e-17 5.9414565e-16 -3.1444732e-16
-9.274047e-17 2.624398e-16 2.8152397e-16 -6.305407e-17 -5.699675e-17 -6.5148038e-18 2.3715446e-16 2.9243905e-16
-8.75963e-17 1.2650063e-16 -2.5651395e-16 2.515825e-17 1.1817549e-17 1.5664696e-17 -1.802942e-17 3.778893e-17
8.240863e-19 3.0048762e-17 -1.1983156e-17 2.87112e-17 -7.048379e-18 2.5444115e-17 -1.7639395e-17 2.6189726e-17
-2.7987e-17 -1.9224186e-18 -1.415983e-19 -1.4515878e-17 2.5707648e-17 -1.0493942e-17 2.7112524e-17 -2.9415813e-17
-1.1130587e-16 -2.9391616e-17 3.9320083e-17 2.7257447e-17 -1.25656825e-17 6.2836716e-17 -2.959634e-17 1.3487403e-17
-1.2356383e-16 5.7855355e-17 -9.309882e-17 1.0058728e-18 1.5711809e-16 3.1203e-17 -8.5191933e-17 -1.0304509e-16
-3.3010803e-17 -3.1521507e-17 -7.230613e-17 -2.356254e-16 3.7100543e-17 -2.6747108e-17 6.906036e-17 2.7448185e-16
-1.2931799e-17 -3.1369706e-16 -1.1420049e-17 2.349016e-17 -1.3832746e-16 7.168634e-17 -6.241495e-17 -4.5957728e-17
9.469564e-17 -7.788394e-17 -1.0034498e-17 -5.292748e-17 -8.936438e-18 8.189857e-17 -1.00474545e-16 -9.074133e-17
-1.9895979e-13 7.2170505e-16 4.5726267e-10 -2.0753784e-11 2.510146e-11 -2.4955737e-16 1.7123151e-16 1.2116786e-15
-5.8499915e-15 4.669826e-13 -1.9282641e-13 -6.5731043e-16 1.4961042e-08 8.0620427e-16 8.085374e-14 3.3066377e-16

emb._affine_layer.1.bias f4 [100]
00000000: 7406 20b4 3b4d 8735 9e83 00af 138d 2233
00000010: 391e 5239 f5ac 0db6 eb9d a034 64d0 aab0
00000020: d50a 05b9 dd4c 81b1 7850 042f a4d6 21b2
00000030: 38bf 25b6 1959 90b1 04d6 2f2f c533 c4b1
00000040: 1d6c 1fb9 78bf b636 9941 1c32 b872 3034
00000050: 45e3 1438 33f2 19b0 63bc 7737 3870 99b4
00000060: 5984 85b9 03ea e830 03f3 a2b0 7a76 6fb0
00000070: 3f6a 8831 f6e2 9635 83bc 5b33 297b 8138
00000080: 3e4f 7db1 0bbf 71b7 e72c 0c36 d642 e7ae
00000090: 5d18 45b6 66ae 62b8 96fa 1fb1 439e 1eb1
000000a0: ff3a 99b1 e17f 4ab5 eaaa bb34 9c73 0fb1
000000b0: 2617 1b34 cce8 8733 75a8 a136 745b aa31
000000c0: a030 d133 9b4c abb5 e05b 84b6 844d b9ae
000000d0: d721 c533 5e25 623a b78c 2139 4bbe b739
000000e0: 44cf 24b9 7a91 52b2 bcee 6732 e4d9 c0b1
000000f0: 9ffe a8b2 e9ea 3b30 a071 b0b5 c10e 8d33
00000100: c8b5 c337 f8d5 3b33 ccff d438 8dbf bf31
00000110: 9dff 8035 a4cb 76b7 d484 d2ae 1283 662f
00000120: 9b81 1e31 1f71 1334 450d 3132 3024 172f
00000130: e46d db2e 3eb6 2632 04be ea35 0d02 7c33
00000140: 7135 83b9 a3a2 18ae 5de5 0db9 e216 5e37
00000150: 92c0 80b9 a3a8 a0b0 e7ce 33b8 fc74 5732
00000160: 8006 8437 38fb a1b5 a298 9830 2728 35b2
00000170: dcfd c3b9 3056 3339 19aa 2bae 1aa7 f032
00000180: 6c40 e7b6 7314 9eb3 5745 8fb6 893b 1e2f
-1.4903509e-07 1.0080761e-06 -1.1688292e-10 3.784687e-08 0.0002003842 -2.1111312e-06 2.9917223e-07 -1.2428356e-09
-0.00012687904 -3.7631325e-09 1.2033918e-10 -9.420237e-09 -2.469822e-06 -4.201081e-09 1.5992191e-10 -5.7102363e-09
-0.00015203697 5.4463126e-06 9.09531e-09 1.6433012e-07 3.549761e-05 -5.600526e-10 1.47662095e-05 -2.858012e-07
-0.00025466344 1.6946732e-09 -1.1856119e-09 -8.711606e-10 3.9701997e-09 1.1241925e-06 5.116136e-08 6.17414e-05
-3.686139e-09 -1.44092e-05 2.0887762e-06 -1.0516536e-10 -2.9369469e-06 -5.404502e-05 -2.3279987e-09 -2.3081987e-09
-4.459593e-09 -7.543695e-07 3.495582e-07 -2.0874955e-09 1.4443921e-07 6.328773e-08 4.817785e-06 4.958048e-09
9.741166e-08 -1.2762788e-06 -3.944602e-06 -8.4265955e-11 9.179683e-08 0.0008626784 0.00015406577 0.0003504626
-0.00015717471 -1.2256686e-08 1.3500252e-08 -5.6127067e-09 -1.9673562e-08 6.836403e-10 -1.3146091e-06 6.568508e-08
2.333046e-05 4.3733934e-08 0.000101565936 5.5806084e-09 9.611136e-07 -1.4710156e-05 -9.5732894e-11 2.0964944e-10
2.3065698e-09 1.3731595e-07 1.0305773e-08 1.3746226e-10 9.9784875e-11 9.703909e-09 1.748966e-06 5.8675187e-08
-0.00025026084 -3.470525e-11 -0.00013532252 1.3237559e-05 -0.0002455754 -1.1689462e-09 -4.286962e-05 1.2541246e-08
1.5738653e-05 -1.2068549e-06 1.1102836e-09 -1.0544716e-08 -0.00037382438 0.00017102878 -3.9031976e-11 2.8015666e-08
-6.891836e-06 -7.361168e-08 -4.2698043e-06 1.4391167e-10

clf.1.weight f4 [2, 200]
00000000: ee06 d638 d62b 0639 a66d a436 35a5 3238
00000010: 95c8 9d35 46da e038 b28a 3c37 3e19 fc34
00000020: fe63 5a33 2b66 8935 0948 023b 1754 0735
00000030: 701a f52e 3243 3631 7428 4138 f47b 0438
00000040: 2171 e839 8762 c72f 9530 1537 66b3 3c37
00000050: 9878 3e27 4be5 08b8 0554 b938 e7e5 c237
00000060: 4c7c a438 37f9 773a 80da ff36 8457 fb38
00000070: 11dd 0338 6bfe c138 2248 dd37 246c c136
00000080: da3f 4435 1e00 1335 34ba 1838 fe9c 2237
00000090: 3ab7 bb35 0423 8839 1318 2136 bda2 2b3a
000000a0: 41cb 7538 9a50 4437 bd13 0635 b57c 9032
000000b0: 8993 e537 1059 972d 22c2 9735 4426 0529
000000c0: 7877 3238 1b66 0c37 0eb5 9d38 1535 1f37
000000d0: e509 b136 f7b4 3635 4464 7938 4118 8039
000000e0: a3a5 f537 f8e3 2c36 03c8 c538 942b 6237
000000f0: bf50 2736 a400 1838 55ed 5a32 cb83 9b37
00000100: e629 3529 0fcc 5637 b88b 253a 962f cd36
00000110: 1258 1938 ed1e a1b6 fae8 4833 d3da 5936
00000120: 051c 9138 8cba 0436 2cbb 842c acf0 6e39
00000130: 58c7 0737 a27d 8435 50c7 8537 1064 1236
00000140: 3326 2a39 26dd c137 9f60 9136 e8ab b936
00000150: 26ff 2d38 ac3d 6d38 1ef7 6234 4595 4138
00000160: cd83 353a 92af 0536 09ca 0138 2b4f 6638
00000170: 09af 3938 71cc 9c37 ef36 2339 4ea5 9635
00000180: 6d74 df33 ee1a c9b8 3aa3 7a37 5594 9139
00000190: 50b6 0639 18a8 3b39 ec27 0139 1196 5438
000001a0: 8bfe b833 4372 6b38 32ff 9e37 74eb 4235
000001b0: f520 9233 08b8 0336 052d 453a 093a 8136
000001c0: 1a2e 8a32 95d3 3935 2c3e c436 442f ce39
000001d0: 285a c2b4 8774 8f33 d2c8 b437 c36b 1039
000001e0: 9462 a128 cd6b a139 30a4 9cb9 1a2d 2139
000001f0: 2e6f 9137 d483 38b8 a323 1237 993a d138
00000200: 45a7 1738 ea20 4b34 a370 bc35 f8f1 313a
00000210: 79f4 b331 11c8 0b36 f650 7937 4ed8 7136
00000220: d7ec 6634 ede4 5b39 d78c ec38 9235 9d38
00000230: 740f de37 69d3 0836 2a57 d035 a743 e835
00000240: a72c c637 05de 3435 bf08 8836 05ab 1d27
00000250: a470 9d39 81ae b436 ebe7 dd38 12f4 ea38
00000260: 93c5 ab39 5e50 2b38 7904 9f38 81a0 5638
00000270: 061e 1936 d07e e535 9fec 8236 1045 bd37
00000280: 780f b236 d0ea eb36 d48c 9034 d17f 6e37
00000290: 11fb 9e2d e3d2 ec37 f0ae 6d38 df9c 0738
000002a0: 3435 b639 14b5 9439 478c c334 d9ae a136
000002b0: 06d8 fd38 47db 1838 ebc6 2f2e 0d12 7638
000002c0: 6268 0e38 41e0 0935 574d 4738 e475 b434
000002d0: 17fa 233a 38ac 1b37 0587 6f37 7679 e338
000002e0: 6ac4 2638 78e4 5836 07dd 5033 38fe 5c36
000002f0: 1d0b 6838 0082 e336 19ca 3f39 4bb9 0337
00000300: 8d83 8c36 c32e aa34 3395 1938 4888 fd31
00000310: 8397 a238 e987 753a 4874 ad36 dd5b 8f38
00000320: f206 d6b8 e42b 06b9 b16d a4b6 38a5 32b8
00000330: abc8 9db5 44da e0b8 b58a 3cb7 5f19 fcb4
00000340: 0364 5ab3 1f66 89b5 0848 02bb 1354 07b5
00000350: a91a f5ae 3243 36b1 7428 41b8 f67b 04b8
00000360: 2e71 e8b9 8862 c7af 8630 15b7 6fb3 3cb7
00000370: af7b 3ea7 4de5 0838 0554 b9b8 e3e5 c2b7
00000380: 507c a4b8 30f9 77ba 96da ffb6 8457 fbb8
00000390: 13dd 03b8 6bfe c1b8 4d48 ddb7 d96c c1b6
000003a0: f33f 44b5 1c00 13b5 3fba 18b8 019d 22b7
000003b0: 2fb7 bbb5 0523 88b9 2b18 21b6 cea2 2bba
000003c0: 3ecb 75b8 9a50 44b7 c513 06b5 c17c 90b2
000003d0: 8993 e5b7 f158 97ad 2ac2 97b5 4426 05a9
000003e0: 7577 32b8 1b66 0cb7 25b5 9db8 1e35 1fb7
000003f0: 120a b1b6 09b5 36b5 5064 79b8 4318 80b9
0.00010205606 0.00012795566 4.9003456e-06 4.2592368e-05 1.1755789e-06 0.00010721809 1.1237966e-05 4.6957024e-07
5.0848023e-08 1.023703e-06 0.0019879362 5.0413786e-07 1.1146006e-10 2.6522682e-09 4.605246e-05 3.1586693e-05
0.00044334776 3.6267897e-10 8.8924035e-06 1.1247443e-05 2.643317e-15 -3.2638472e-05 8.837137e-05 2.3233659e-05
7.8432815e-05 0.0009459438 7.625029e-06 0.00011984914 3.1438718e-05 9.250346e-05 2.6378842e-05 5.7644374e-06
7.3108606e-07 5.476194e-07 3.641304e-05 9.692505e-06 1.3985912e-06 0.0002596603 2.4004883e-06 0.0006547382
5.8601847e-05 1.1701277e-05 4.9947613e-07 1.6820517e-08 2.7367629e-05 1.7206264e-11 1.1306877e-06 2.9565123e-14
4.254977e-05 8.368424e-06 7.5200674e-05 9.489498e-06 5.276163e-06 6.806362e-07 5.9459606e-05 0.00024432133
2.9283407e-05 2.5762693e-06 9.430947e-05 1.3480796e-05 2.493194e-06 3.624022e-05 1.2743233e-08 1.853881e-05
4.0226415e-14 1.2802905e-05 0.000631507 6.115016e-06 3.6560064e-05 -4.801774e-06 4.677802e-08 3.2462892e-06
6.919358e-05 1.9778117e-06 3.772446e-12 0.00022787106 8.09304e-06 9.87133e-07 1.5947648e-05 2.181394e-06
0.00016226694 2.3110373e-05 4.332585e-06 5.533442e-06 4.148404e-05 5.656264e-05 2.1137791e-07 4.6153804e-05
0.0006924242 1.992074e-06 3.0944157e-05 5.4910004e-05 4.427045e-05 1.869185e-05 0.00015565356 1.1223981e-06
1.04054244e-07 -9.589443e-05 1.4939165e-05 0.0002776707 0.00012847153 0.0001789633 0.00012317271 5.06845e-05
8.614469e-08 5.613478e-05 1.8953902e-05 7.261326e-07 6.8046496e-08 1.9627641e-06 0.0007521662 3.8512558e-06
1.6086279e-08 6.9225763e-07 5.848493e-06 0.00039326597 -3.6200913e-07 6.6801526e-08 2.1551186e-05 0.00013773055
1.7917342e-14 0.0003078863 -0.00029876968 0.00015370958 1.7337119e-05 -4.3991793e-05 8.7105755e-06 9.976811e-05
3.6156987e-05 1.8917822e-07 1.4039873e-06 0.00067880703 5.237379e-09 2.0829068e-06 1.4860407e-05 3.6037704e-06
2.1506581e-07 0.00020970749 0.000112795904 7.4963216e-05 2.6471658e-05 2.0388636e-06 1.5522576e-06 1.7305036e-06
2.3624232e-05 6.7378306e-07 4.054134e-06 2.1880837e-15 0.00030029297 5.384733e-06 0.00010581299 0.00011203451
0.00032762866 4.0844425e-05 7.582544e-05 5.1171057e-05 2.2816253e-06 1.7098737e-06 3.9018482e-06 2.2562715e-05
5.306614e-06 7.0308815e-06 2.6924556e-07 1.4215665e-05 1.8074016e-11 2.8231594e-05 5.6668126e-05 3.2332606e-05
0.00034753385 0.00028363673 3.6423646e-07 4.818529e-06 0.000121042176 3.6443842e-05 3.9967068e-11 5.866778e-05
3.3952652e-05 5.136281e-07 4.7517326e-05 3.361339e-07 0.0006255223 9.278818e-06 1.4276947e-05 0.00010846827
3.976041e-05 3.2319494e-06 4.8629797e-08 3.293053e-06 5.532346e-05 6.780261e-06 0.00018290467 7.85135e-06
4.1876397e-06 3.169899e-07 3.6616995e-05 7.3787625e-09 7.752983e-05 0.00093662605 5.1693387e-06 6.835882e-05
-0.00010205609 -0.00012795586 -4.9003506e-06 -4.259238e-05 -1.1755814e-06 -0.000107218075 -1.12379685e-05 -4.6957118e-07
-5.084804e-08 -1.0237017e-06 -0.001987936 -5.0413763e-07 -1.1146046e-10 -2.6522682e-09 -4.605246e-05 -3.15867e-05
-0.00044334814 -3.62679e-10 -8.89239e-06 -1.1247451e-05 -2.6434846e-15 3.263848e-05 -8.837137e-05 -2.3233652e-05
-7.8432844e-05 -0.0009459434 -7.625039e-06 -0.00011984914 -3.1438725e-05 -9.250346e-05 -2.637892e-05 -5.7645198e-06
-7.310875e-07 -5.4761927e-07 -3.641308e-05 -9.692508e-06 -1.3985899e-06 -0.00025966033 -2.4004937e-06 -0.0006547392
-5.8601836e-05 -1.1701277e-05 -4.994766e-07 -1.6820538e-08 -2.7367629e-05 -1.720621e-11 -1.1306886e-06 -2.9565123e-14
-4.254976e-05 -8.368424e-06 -7.520084e-05 -9.489506e-06 -5.2761834e-06 -6.8063724e-07 -5.945965e-05 -0.0002443214

clf.1.bias f4 [2]
00000000: 243b ab3e 3a97 aabe
0.33443558 -0.33318502

exp_avg f4 [2, 1, 2, 1]
00000000: dc28 3e32 2022 b619 676b 9c1a 2ce4 9c19
1.1068746e-08 1.8832142e-23 6.4693606e-23 1.622218e-23

exp_avg_sq f4 [2, 1, 2, 1]
00000000: bce5 182c c460 472d 8e5b 902c 22ad d42c
2.1728027e-12 1.1333327e-11 4.1028908e-12 6.044624e-12

exp_avg f4 [2]
00000000: 97bc d216 10dc 6099
3.4046347e-25 -1.162497e-23

exp_avg_sq f4 [2]
00000000: 03ad 4c2c 8359 f52c
2.9086184e-12 6.9732566e-12

exp_avg f4 [16, 1, 1, 100]
00000000: 15ec bca9 5ae0 c4af 7eff 4eae 0d93 06af
00000010: 7310 142a 663c 34b5 a03f 5e29 bc57 21b3
00000020: 3212 72b4 ed40 0032 1756 1cb0 1a89 1c2f
00000030: 8849 cc2e 6ee0 1431 55b0 3527 2677 d233
00000040: 209c adaf 8064 8fa6 cba0 6ab2 bb2c 08b5
00000050: ada2 18b4 3968 9324 a8cc 7b25 3cfa dda5
00000060: f550 8d32 91b7 1b29 c5b7 c1ad 44cd 68b4
00000070: 4075 5aaa 832a 15aa 218e 89b3 8771 efa8
00000080: 71ff 0231 249f 9328 71c5 8c31 992b 332c
00000090: 34af 4132 d119 8c34 9b46 3f34 dedb 7226
000000a0: 98fb 2ab3 f6aa 4b33 b889 22aa f234 baad
000000b0: 49fb 27b2 8883 ee33 fd3c a4ae a09d 1f1f
000000c0: 3cec 11ae b686 e69e 3ed9 9e15 1b9f 1cb2
000000d0: 2de7 cdb3 7fd6 aea7 1651 63aa cd20 1cac
000000e0: f9d0 d026 8ded e130 e7ff fdaa 84d1 b2ac
000000f0: 21a0 94ac 82a1 7fb0 a793 7fac 52eb c9a8
00000100: 6fe8 cd32 096d 4b28 1e1e 0435 1f09 232b
00000110: e9e0 0831 91ef 4e31 d979 e02b 0a6f 0c1c
00000120: d56c 9a30 0b51 f4ae 8439 0baf 220f 87ad
00000130: d91b e6ac 9fcf 881e 1ec6 4728 be98 b132
00000140: 76b1 72ae 6386 f02a de98 c8a6 85ef d8b0
00000150: a759 a729 de3e 89a6 fec8 bc34 ce96 52ad
00000160: 8c8f 8da9 9e87 5a28 1d4e 73a7 1f45 ce27
00000170: 4d4c fcaf 8de5 3531 6370 a934 d800 8cb1
00000180: 04df 6f28 f6cb 0cb0 e1ef 63b4 b721 fdb1
00000190: 75f2 b9b1 2f9f 76ab b22e 71a7 a947 73a0
000001a0: 87df ed2f 6f6c 0529 4a0a 99ac cd79 1020
000001b0: f729 5d1f ed42 3e2a 638b c2b1 ac3d 1eb2
000001c0: f803 96a7 122f 9e2b c0d5 f7a9 9838 9819
000001d0: 3d60 3134 f9ee 9aa0 953b 63ae 17c0 31a0
000001e0: 624f f429 9554 71a6 6ae4 ed2a ae2d a92a
000001f0: 5c25 0c20 d134 2cb2 f1fa 91ac a1a0 b82d
00000200: b47f aba9 9999 b117 a1b6 24a5 8cb7 152d
00000210: 893d 7d26 f4f6 592a 7bfb 8ea4 8310 752c
00000220: 74b0 38ab 0b87 70a5 7ec1 49af dbae bdb1
00000230: ac40 0821 77e4 3ea6 8b23 a831 4d7a a029
00000240: 153d c2aa 236e fa2b 7895 0db4 bff9 e82d
00000250: 21a3 d5aa fcc9 b926 5cb9 1234 2cb0 4134
00000260: 1935 c626 9fa6 ea27 e31e c824 c069 96ad
00000270: 4175 15ad 7459 bc33 f30b d6ab ad19 7125
00000280: 72b6 89a0 ee11 7d2d 8dfd 8c2f e325 762e
00000290: db4e 4aab 8542 85ae bd11 a4b0 cd29 6132
000002a0: 497b 88ad 7ba0 8b2a 8f6c c22e 8d0b 9fb1
000002b0: d6fa 1827 0698 cc2e 94f8 942d 2d2f 1caa
000002c0: bbc6 6fa8 3ede 97a0 bbc5 34b4 09cf c031
000002d0: c0a0 e332 df22 b2b1 fa42 062c 63b2 422e
000002e0: 548f 3133 a944 dd28 3100 ceaf 49d3 07af
000002f0: 96a5 21a7 1d3f 13b0 0ae4 0b29 cd22 75aa
00000300: 44c3 a2a1 0339 1f34 e9af 7f32 02db bfad
00000310: 6a17 f233 1db9 1aab 5748 d42d b8f5 06b1
00000320: e1f4 a4a5 2d28 7f2e 3c12 db2e 03d3 a620
00000330: 9c67 a5a4 f8bc 0024 1755 8030 f012 f634
00000340: 1c3b cf30 4311 ebab 477f 7e1f 9b2a 8db0
00000350: 5cc3 a526 6d3a 01b0 021b 3328 0f92 e5ac
00000360: efbc 3ea0 1b54 d22c c4ee a5a9 0598 2eb1
00000370: f26d 312a 33d0 8fad 5d84 99a8 3d7a 6a32
00000380: 72a6 fb9f c067 2535 5e3b 5931 4d56 c6b0
00000390: 8d73 2229 3663 2fa7 2026 7daf 05f6 d2a0
000003a0: 8d47 371c 5f02 61b1 8593 1729 df40 7026
000003b0: 0d53 2330 bde6 4cae eda6 812a 0fe0 932f
000003c0: 9d94 fd9e cd40 6a2c 7154 4aaa 0a9d 7e94
000003d0: 02b4 41ab 3689 a51e 1a10 9d29 6387 e730
000003e0: 9079 a333 fc91 989d 6622 9d1d 50b1 8032
000003f0: d057 6331 eba2 abab 38fe 35aa 4853 20ae
-8.389831e-14 -3.5811604e-10 -4.70659e-11 -1.2239472e-10 1.3150748e-13 -6.7143117e-07 4.9349088e-14 -3.7565528e-08
-2.2544626e-07 7.465343e-09 -5.687481e-10 1.4236826e-10 9.289908e-11 2.1664408e-09 2.5214386e-15 9.80056e-08
-3.157945e-10 -9.949859e-16 -1.3657153e-08 -5.072904e-07 -1.4215284e-07 6.392765e-17 2.184012e-16 -3.8506954e-16
1.6451375e-08 3.4576132e-14 -2.202317e-11 -2.1681359e-07 -1.9402969e-13 -1.3248608e-13 -6.405413e-08 -2.6583565e-14
1.9062691e-09 1.6389295e-14 4.0969828e-09 2.5461632e-12 1.1273915e-08 2.6095816e-07 1.7813947e-07 8.425859e-16
-3.9810033e-08 4.742011e-08 -1.4436271e-13 -2.1169264e-11 -9.777815e-09 1.1106664e-07 -7.46869e-11 3.3799944e-20
-3.3179e-11 -2.4407912e-20 6.415844e-26 -9.1165715e-09 -9.588107e-08 -4.852726e-15 -2.0189782e-13 -2.2187141e-12
1.4489541e-15 1.6438421e-09 -4.5119396e-13 -5.082325e-12 -4.224191e-12 -9.2997976e-10 -3.6319643e-12 -2.2417537e-14
2.397084e-08 1.1292407e-14 4.921766e-07 5.792189e-13 1.9918451e-09 3.0113123e-09 1.5949977e-12 4.646563e-22
1.1235907e-09 -1.11102315e-10 -1.266241e-10 -1.5354443e-11 -6.540085e-12 1.448543e-20 1.1089679e-14 2.0674971e-08
-5.5182046e-11 4.2725814e-13 -1.3919223e-15 -1.5784144e-09 7.431842e-14 -9.523325e-16 3.516397e-07 -1.1970603e-11
-6.286559e-14 1.2130838e-14 -3.376537e-15 5.7251427e-15 -4.5892748e-10 2.646945e-09 3.1560475e-07 -4.074632e-09
1.3315524e-14 -5.122155e-10 -2.122829e-07 -7.367102e-09 -5.411773e-09 -8.761767e-13 -3.3470782e-15 -2.0606611e-19
4.3268875e-10 2.9625984e-14 -4.349664e-12 1.2237575e-19 4.6833283e-20 1.689861e-13 -5.6619895e-09 -9.210833e-09
-4.1637666e-15 1.123964e-12 -1.1006083e-13 1.573929e-23 1.6519421e-07 -2.6246754e-19 -5.1666744e-11 -1.505604e-19
1.08495474e-13 -8.37283e-16 4.225815e-13 3.0052127e-13 1.1870822e-19 -1.0023727e-08 -4.149008e-12 2.0989712e-11
-7.6160784e-14 1.147713e-24 -1.428661e-16 8.510425e-12 8.7860404e-16 1.9359151e-13 -6.200871e-17 3.482576e-12
-6.561481e-13 -2.0862436e-16 -1.8349586e-10 -5.5205027e-09 4.6164185e-19 -6.622912e-16 4.8934843e-09 7.126643e-14
-3.4503707e-13 1.7794137e-12 -1.3186025e-07 2.6486256e-11 -3.7949594e-13 1.2891702e-15 1.3664743e-07 1.8038617e-07
1.3753402e-15 6.51287e-15 8.67885e-17 -1.7099988e-11 -8.495705e-12 8.7707036e-08 -1.5208931e-12 2.0912117e-16
-2.3329435e-19 1.4385366e-11 2.564601e-10 5.5967574e-11 -7.187425e-13 -6.059956e-11 -1.1937612e-09 1.3106228e-08
-1.551616e-11 2.4802716e-13 8.8413825e-11 -4.628822e-09 2.1230216e-15 9.303851e-11 1.6936043e-11 -1.3871951e-13
-1.3310258e-14 -2.5727463e-19 -1.683574e-07 5.6114726e-09 2.6499379e-08 -5.184446e-09 1.9079725e-12 4.4268932e-11
4.134138e-08 2.4565705e-14 -3.7471318e-10 -1.2353242e-10 -2.2433003e-15 -5.356798e-10 3.1061992e-14 -2.1772445e-13
-1.1029233e-18 1.482877e-07 1.4882951e-08 -2.1811445e-11 1.1273262e-07 -5.4968687e-13 2.4133735e-11 -1.9639241e-09
-2.8615401e-16 5.801597e-11 9.962206e-11 2.826113e-19 -7.1732864e-17 2.791564e-17 9.33741e-10 4.583485e-07
1.5078032e-09 -1.6702545e-12 5.3891874e-20 -1.0271209e-09 1.1502127e-15 -4.7012955e-10 9.9423525e-15 -6.5247872e-12
-1.6156139e-19 5.9778966e-12 -7.368891e-14 -2.5406746e-09 1.5758903e-13 -1.6349677e-11 -1.7043816e-14 1.3648386e-08
-1.06577996e-19 6.1618266e-07 3.1611402e-09 -1.4430924e-09 3.607145e-14 -2.433991e-15 -2.302376e-10 -3.5738186e-19
6.06421e-22 -3.2743157e-09 3.3656688e-14 8.3354644e-16 5.9417077e-10 -4.6589167e-11 2.303083e-13 2.6898347e-10
-2.6848882e-20 3.3289372e-12 -1.79705e-13 -1.2854693e-26 -6.8817185e-13 1.7526804e-20 6.974994e-14 1.6845941e-09
7.612391e-08 -4.038501e-21 4.159312e-21 1.4981794e-08 3.3082763e-09 -1.21955e-12 -1.6164229e-13 -3.6453757e-11

exp_avg_sq f4 [16, 1, 1, 100]
00000000: 8857 102c e57d e02b 8198 342c df48 302c
00000010: c6c1 0f2c a7ec 052c 6566 db2b d104 da2b
00000020: 071c de2b efce 212c f995 322c dd3e 162c
00000030: 4d2b 162c e2be 392c 424d eb2b d4cc 2b2c
00000040: 574a 232c 801a f52b bbc5 482c 4f53 1e2c
00000050: 87f3 242c bf6c e42b afb8 f62b 91ff f32b
00000060: 07f5 322c 67a6 0d2c 9e9a 252c 59a3 232c
00000070: e0cb e02b 0fcf e62b b120 5d2c 0a98 0b2c
00000080: d1cc 332c ca01 0a2c 5589 2e2c d008 182c
00000090: 5d05 da2b 984f e22b 2b67 2f2c 940b 022c
000000a0: 473e 3d2c 5cb2 352c 2fb7 0e2c b2a5 1f2c
000000b0: fd7f 292c 52e4 2f2c e434 e22b 86ff f72b
000000c0: b90d 2a2c 652f 0a2c 8222 032c 72d7 302c
000000d0: 7004 2b2c 3a8d 082c 190c e62b 5929 152c
000000e0: 8155 f92b 9e85 402c 6b59 192c 6ba2 162c
000000f0: 2685 142c 954c 4c2c a27e 192c 7b5c 052c
00000100: 439f d22b 7925 062c 865e ef2b 2d13 152c
00000110: c10a 212c e3e9 322c 79a9 202c 9edf f02b
00000120: 1ccc 2e2c 05ef 272c 7ef8 e12b 04d6 1e2c
00000130: e2d6 152c bf89 eb2b 6f74 082c 5d63 262c
00000140: 5241 1c2c 9fbd 162c 3b00 e42b f6ef 282c
00000150: 43f1 de2b f8ed ee2b f8c7 252c e4e7 db2b
00000160: 2a39 0e2c 469b 082c 0d50 e52b de1c 0f2c
00000170: dde4 142c 7c22 492c 6ff0 262c 5ee6 182c
00000180: 1e09 0c2c 9149 332c 353e d32b eaa8 2b2c
00000190: 90e3 2a2c 09a4 dc2b b99f e32b 9679 f62b
000001a0: e73f 402c cafd 142c c407 1a2c 033e 062c
000001b0: e0ef ef2b 4acf 152c 1359 2d2c 6a9e d72b
000001c0: 6282 062c 70fb 222c 0614 152c c324 112c
000001d0: 0437 2c2c ee92 f82b 469d 362c 93a2 ee2b
000001e0: 94e1 1d2c ad8b fa2b 77f4 0e2c 4590 162c
000001f0: 8206 fe2b 6505 3f2c 8e74 192c bf6e 2e2c
00000200: e5f1 142c 3b35 fd2b e848 ef2b 86e3 e22b
00000210: f935 ec2b 41ba 1c2c 236f e82b 7c78 1f2c
00000220: ac98 1b2c bba3 fc2b c020 232c 47da 2b2c
00000230: 17c7 ed2b 1b0a fd2b 6619 3d2c a143 142c
00000240: a071 162c 757b 1d2c ffd0 452c 45be 282c
00000250: 9a79 192c 6fa8 022c 5510 da2b 85c0 212c
00000260: d657 042c 99a5 e32b 4e02 e62b 2953 1e2c
00000270: 8291 2c2c eb02 db2b fa5a 172c 0e9e 082c
00000280: 3a0e ef2b 8623 df2b 5ed8 442c ad50 3c2c
00000290: dba0 212c 0f1e 322c a532 db2b d13c 3d2c
000002a0: db31 262c ce3e 162c 827e 232c f215 262c
000002b0: b769 0c2c c6aa 1e2c 8ed9 292c 88d5 162c
000002c0: 67c2 0b2c 0fbf 032c 1d13 3b2c 6683 212c
000002d0: 6387 da2b 4276 332c 4790 df2b 90ae 212c
000002e0: f9f2 2a2c cba7 0d2c 20bc 322c df6d 312c
000002f0: c950 032c f1e9 3c2c d498 0e2c bfb4 192c
00000300: 14d7 052c 0115 272c 3f10 d42b 0b00 282c
00000310: 578b 3e2c c69e e12b b11e 2d2c bf3e db2b
00000320: d46a e52b 57a6 2e2c c733 312c 18f5 fd2b
00000330: 096d f12b ea84 e52b 905b e02b ec76 ed2b
00000340: cf96 1b2c 0cf2 1e2c d618 ea2b 764e 362c
00000350: fbdb ee2b 2abb d52b 0443 0d2c b3b1 252c
00000360: ff53 022c af90 242c 19e8 122c 5fa6 412c
00000370: 4cfc 102c cfc3 232c a9b6 072c 52d3 1f2c
00000380: 8676 e32b bac7 062c 50a0 442c 690b 252c
00000390: ac99 df2b 2363 fe2b ffbd 352c 51ca e62b
000003a0: dee4 e22b 93eb 372c b261 122c 5f4c f12b
000003b0: dc54 152c 87c4 292c ed8c 182c a3b3 322c
000003c0: 2680 ef2b 76e1 232c 0fe9 e52b f25b 112c
000003d0: 87d5 192c 1a3e f62b 371b 102c d253 392c
000003e0: c6d5 1b2c 2b23 fd2b 476d fa2b ed99 442c
000003f0: 882c 1e2c 881e 1a2c f35a 152c bc45 282c
2.051222e-12 1.59511e-12 2.5664195e-12 2.5051556e-12 2.0429088e-12 1.9031805e-12 1.5589306e-12 1.5491168e-12
1.5781828e-12 2.2994347e-12 2.5378573e-12 2.1351178e-12 2.1340319e-12 2.6396042e-12 1.6719198e-12 2.4414264e-12
2.320496e-12 1.7415652e-12 2.8531472e-12 2.2499396e-12 2.3440987e-12 1.6230557e-12 1.7530611e-12 1.7337122e-12
2.5431339e-12 2.0129677e-12 2.353374e-12 2.325437e-12 1.5972744e-12 1.6399953e-12 3.1424136e-12 1.9837487e-12
2.5551126e-12 1.9611973e-12 2.4803122e-12 2.1605391e-12 1.549132e-12 1.6080358e-12 2.4926265e-12 1.8480538e-12
2.6893086e-12 2.5820656e-12 2.02811e-12 2.2687238e-12 2.4087392e-12 2.499574e-12 1.6072946e-12 1.7621328e-12
2.416607e-12 1.9637289e-12 1.8635375e-12 2.51307e-12 2.4303025e-12 1.9405159e-12 1.6345841e-12 2.1197126e-12
1.7716246e-12 2.7359013e-12 2.1792245e-12 2.1406442e-12 2.1105977e-12 2.9032655e-12 2.1812903e-12 1.8951774e-12
1.4965601e-12 1.9063347e-12 1.7008207e-12 2.1184818e-12 2.2885446e-12 2.5425155e-12 2.2831444e-12 1.7115092e-12
2.484019e-12 2.386481e-12 1.6056182e-12 2.2571953e-12 2.1293457e-12 1.6735987e-12 1.9391396e-12 2.3645177e-12
2.2205193e-12 2.1421543e-12 1.6200438e-12 2.400744e-12 1.5841012e-12 1.6976967e-12 2.3558915e-12 1.5625248e-12
2.0211146e-12 1.9412956e-12 1.6293647e-12 2.0337547e-12 2.115911e-12 2.858296e-12 2.3723486e-12 2.1728379e-12
1.9900258e-12 2.5478267e-12 1.5009718e-12 2.4394328e-12 2.4284776e-12 1.5677469e-12 1.6173652e-12 1.7513098e-12
2.7320314e-12 2.1172946e-12 2.1889027e-12 1.9076969e-12 1.704855e-12 2.1289242e-12 2.4634225e-12 1.5320638e-12
1.9114922e-12 2.316116e-12 2.1185289e-12 2.0626146e-12 2.447321e-12 1.7662241e-12 2.595106e-12 1.695604e-12
2.2436263e-12 1.7802336e-12 2.031512e-12 2.1396368e-12 1.8049592e-12 2.7145727e-12 2.1807309e-12 2.4788364e-12
2.1166343e-12 1.7991506e-12 1.7002207e-12 1.6121416e-12 1.6783789e-12 2.2272325e-12 1.6515438e-12 2.2662141e-12
2.2111575e-12 1.7951121e-12 2.3181873e-12 2.442173e-12 1.6895121e-12 1.7979536e-12 2.6872614e-12 2.1069607e-12
2.1379357e-12 2.2379574e-12 2.81114e-12 2.3979857e-12 2.181011e-12 1.856761e-12 1.5494365e-12 2.2986346e-12
1.8807087e-12 1.6175283e-12 1.6343123e-12 2.2499314e-12 2.4523443e-12 1.5561696e-12 2.1508893e-12 1.94145e-12
1.698592e-12 1.5854963e-12 2.7973383e-12 2.676119e-12 2.2968769e-12 2.5312007e-12 1.5574943e-12 2.6892275e-12
2.3617694e-12 2.1351146e-12 2.323392e-12 2.36022e-12 1.995388e-12 2.2547949e-12 2.4137112e-12 2.1434816e-12
1.9861003e-12 1.8722279e-12 2.6584908e-12 2.2952417e-12 1.5527409e-12 2.5503076e-12 1.5885148e-12 2.2976378e-12
2.429333e-12 2.013045e-12 2.5399752e-12 2.5214204e-12 1.8661064e-12 2.684627e-12 2.026425e-12 2.1842942e-12
1.901983e-12 2.3743787e-12 1.5068015e-12 2.387426e-12 2.7077973e-12 1.603128e-12 2.4601816e-12 1.5578301e-12
1.6301079e-12 2.4819224e-12 2.5181955e-12 1.8044758e-12 1.7154343e-12 1.630832e-12 1.5941571e-12 1.687287e-12
2.211054e-12 2.2587513e-12 1.6633593e-12 2.590731e-12 1.6971974e-12 1.5186509e-12 2.0074506e-12 2.3546553e-12
1.8520738e-12 2.3386117e-12 2.0876688e-12 2.7519304e-12 2.0603684e-12 2.3272389e-12 1.928605e-12 2.2712565e-12
1.6162217e-12 1.9153416e-12 2.7942267e-12 2.3454244e-12 1.5887756e-12 1.8075301e-12 2.5827116e-12 1.6398637e-12
1.6121789e-12 2.6136634e-12 2.080208e-12 1.7145277e-12 2.122128e-12 2.412544e-12 2.1678729e-12 2.539504e-12
1.701754e-12 2.328885e-12 1.6336115e-12 2.065678e-12 2.186114e-12 1.7496588e-12 2.0478738e-12 2.633661e-12
2.2145493e-12 1.7986492e-12 1.7793899e-12 2.7938721e-12 2.247787e-12 2.1901665e-12 2.122466e-12 2.3912946e-12

exp_avg f4 [16]
00000000: d18e 91aa d4dc 0c2e cb78 8db4 412c 20b0
00000010: f637 43aa f744 acae e024 3f2e 93be 972f
00000020: fff9 7233 3108 97af 6c14 6bad cd53 3430
00000030: b88a b232 ef2a dea8 0702 1bb0 b283 192a
-2.5856273e-13 3.202845e-11 -2.6351185e-07 -5.827055e-10 -1.7338895e-13 -7.833905e-11 4.3461124e-11 2.760215e-10
5.6572386e-08 -2.747256e-10 -1.3362738e-11 6.5602707e-10 2.078501e-08 -2.466557e-14 -5.639155e-10 1.3634821e-13

exp_avg_sq f4 [16]
00000000: a303 052c 916c 1b2c 89cc 222c e235 202c
00000010: f1f0 062c 8c75 092c 2259 0e2c d0f7 192c
00000020: 351a 262c 93f8 1b2c f7dd 0f2c 5668 112c
00000030: 8075 232c d66b 062c 1469 1b2c 88ba 062c
1.8902456e-12 2.2087091e-12 2.3135124e-12 2.2767279e-12 1.9176295e-12 1.9534123e-12 2.0228892e-12 2.1880171e-12
2.3604567e-12 2.2164811e-12 2.0444737e-12 2.0663657e-12 2.3228919e-12 1.9102406e-12 2.2085155e-12 1.914609e-12

exp_avg f4 [16]
00000000: 8b50 0e34 3d2c 0b34 9aeb c59e e440 8128
00000010: 24ca 24b1 6af3 e81c d9b1 b51a e160 daaf
00000020: 8354 3a1b f3ad c6ae 481a ae28 872c ec1b
00000030: c2b7 4e16 5321 8f28 4da9 2697 ad3a f42c
1.3254082e-07 1.2961478e-07 -2.0955629e-20 1.4350019e-14 -2.3980045e-09 1.5415393e-21 7.5147174e-23 -3.9722806e-10
1.5412867e-22 -9.034897e-11 1.9329278e-14 3.90717e-22 1.6698531e-25 1.5890641e-14 -5.385118e-25 6.9414114e-12

exp_avg_sq f4 [16]
00000000: 32ae 132c 93e8 d52b d9a2 e52b b6e7 f02b
00000010: 8dfc 212c b882 022c 24be 042c 5e37 272c
00000020: f859 242c 0174 242c a477 f72b 49ea 012c
00000030: 86aa 202c e6fd ee2b 71d5 132c c5bd 122c
2.0986654e-12 1.5199113e-12 1.6316628e-12 1.7117338e-12 2.301967e-12 1.8546675e-12 1.8863877e-12 2.3762862e-12
2.3355744e-12 2.3370197e-12 1.7583613e-12 1.8462057e-12 2.2832027e-12 1.6981388e-12 2.100844e-12 2.0853191e-12
